models/saved_models/ser_hubert.pt (torch, 794171 bytes, 4 tensors)

net.0.weight f4 [256, 768]
0.012413257 -0.049259778 -0.019629093 -0.008844866 -0.12939698 0.036787014 0.14000085 0.016599538
0.023625176 0.16679202 -0.06898639 0.031432256 -0.20502569 -0.06297166 0.1424728 0.036756624
-0.024155935 -0.103234895 0.014189946 0.07056939 -0.3152893 0.0010695037 -0.05777919 0.11410815
0.05787747 0.0607719 -0.05274714 -0.1046862 -0.11345623 -0.19644696 0.05111218 0.014791509
0.09014746 0.029130938 0.006225642 0.04226917 -0.09363029 0.01234622 0.036865186 0.28115308
-0.06853788 -0.051003713 0.046284735 -0.0065794964 0.021530678 0.065264806 0.038918998 0.032277215
0.011532185 0.03238988 0.08052645 -0.15249427 -0.07560284 -0.1376571 0.06309748 0.082025014
-0.0052507524 -0.15171646 -0.15368456 0.06380008 0.046836846 -0.046039063 0.01913866 -0.038348187
0.041114073 0.067063496 -0.018717514 0.10946442 -0.15039593 0.03471984 0.05247027 0.008312573
0.06866429 0.1003559 0.04758551 -0.222716 -0.06337531 0.23574497 -0.20679119 -0.002650367
-0.012103432 -0.025002362 -0.09682245 0.038267296 -0.04167878 -0.06470008 -0.07418772 0.11958298
-0.19744968 0.18145393 0.14271262 -0.03867352 0.18419416 0.068693474 0.16755815 0.121077664
0.059417974 0.037139226 0.035497833 -0.06509687 0.035349987 -0.17779149 -0.09160415 -0.14661953
-0.054257028 -0.18638118 0.030309783 -0.069069564 0.013721914 0.004431407 -0.01867908 -0.1610846
0.058754295 -0.13080499 0.02168534 -0.0962913 0.025188692 -0.038351163 -0.11614879 -0.05069222
-0.027276373 -0.049012914 0.06762836 0.060128395 -0.11543318 -0.133365 -0.05644146 0.007560637
0.051678553 -0.02913516 -0.11045095 0.09927296 -0.11232986 0.03889853 -0.07051705 -0.04289122
0.019493511 -0.09889749 -0.03326152 -0.018900199 -0.08540978 0.04050127 0.10250313 0.02523752
-0.009926915 0.01515105 0.13561277 -0.030573454 0.15331952 -0.03195717 -0.00052062364 -0.14590344
0.09124177 -0.0459927 0.1684222 0.010785124 -0.092107594 0.06382579 -0.08845746 0.08408423
-0.04939484 0.04300153 0.022374298 0.11043784 0.11289693 0.007926174 0.0059657516 0.06795777
0.10974782 0.010635918 -0.03955672 0.05539975 -0.25989172 0.037774708 0.038032595 0.043015894
-0.03809662 0.07487487 0.056585744 0.014486196 -0.0011573604 0.071826436 0.19570741 -0.17622326
0.062483203 0.043307215 -0.02351259 -0.021976003 0.052998073 0.023365408 0.13779074 -0.04873763
0.08980615 0.16936809 0.047276933 -0.20059653 -0.1290562 0.13755628 0.02489986 -0.03207769
0.0049393056 -0.015161208 0.10867791 -0.15996097 -0.045175157 -0.18024161 -0.008731256 0.066272505
0.028163023 0.0431266 -0.0517236 -0.0062404713 -0.03171026 0.098010786 -0.0040517985 -0.100260876
-0.15107127 -0.04700421 0.014778429 0.13779803 0.024702614 0.062383313 -0.14623396 0.061444513
-0.0045526912 -0.00033258577 -0.08619114 0.16311185 -0.011683887 -0.074931785 0.01887333 0.06740387
0.04796265 -0.17104565 0.07152207 0.040758125 0.054431073 -0.11846077 0.015909573 -0.12282975
0.09689622 0.036166802 -0.041114524 0.023829035 0.111091316 -0.19639954 0.23474431 0.061414152
-0.088866316 0.08302725 -0.04179515 -0.05355338 -0.15094766 0.059023973 -0.05803361 -0.03185554
00000000: f960 4b3c 9fc4 49bd 31cd a0bc 0fea 10bc
00000010: a480 04be fbad 163d 625c 0f3e c1fb 873c
00000020: 9689 c13c 87cb 2a3e bd48 8dbd 1cbf 003d
00000030: 41f2 51be 49f7 80bd 64e4 113e 1d8e 163d
00000040: abe2 c5bc d16c d3bd f37c 683c af86 903d
00000050: 996d a1be 972e 8c3a dfa9 6cbd 89b1 e93d
00000060: ed10 6d3d f5eb 783d 630d 58bd b865 d6bd
00000070: bd5b e8bd 6429 49be 015b 513d 1658 723c
00000080: 3b9f b83d 01a4 ee3c 7800 cc3b 7022 2d3d
00000090: 3dc1 bfbd cd47 4a3c f3ff 163d 4cf3 8f3e
000000a0: 975d 8cbd 45e9 50bd 1095 3d3d d198 d7bb
000000b0: 1b61 b03c 8ea9 853d 8769 1f3d 1d35 043d
000000c0: 7df1 3c3c 40ab 043d 0deb a43d 7527 1cbe
000000d0: a9d5 9abd fcf5 0cbe 4039 813d bbfc a73d
000000e0: 810e acbb 8f5b 1bbe 7c5f 1dbe 9ea9 823d
000000f0: fed7 3f3d 7593 3cbd aec8 9c3c fd12 1dbd
00000100: 3b67 283d 9658 893d 7955 99bc e22e e03d
00000110: 6401 1abe 6436 0e3d 11eb 563d 7531 083c
00000120: dd9f 8c3d 6587 cd3d 06e9 423d aa0f 64be
00000130: eaca 81bd 2167 713e 12c1 53be c8b1 2dbb
00000140: 794d 46bc c1d1 ccbc d94a c6bd 2bbe 1c3d
00000150: 5eb7 2abd 7a81 84bd bbef 97bd ece7 f43d
00000160: 4030 4abe 0fcf 393e 4223 123e 2068 1ebd
00000170: 659d 3c3e 2aaf 8c3d 5d94 2b3e 91f7 f73d
00000180: 4360 733d 4d1f 183d 2d66 113d 8251 85bd
00000190: 26cb 103d f90e 36be f59a bbbd 6e23 16be
000001a0: 9e3c 5ebd b5da 3ebe 394c f83c 5874 8dbd
000001b0: e1d1 603c 5635 913b df04 99bc 5df3 24be
000001c0: 58a8 703d bef1 05be 74a5 b13c 6034 c5bd
000001d0: 8458 ce3c 1c16 1dbd 6bdf edbd a5a2 4fbd
000001e0: b372 dfbc c4c1 48bd bd80 8a3d 3149 763d
000001f0: 3b68 ecbd d690 08be 292f 67bd 38bf f73b
00000200: e4ac 533d dcac eebc 1c34 e2bd 9f4f cb3d
00000210: 330d e6bd 1154 1f3d 3e6b 90bd b4ae 2fbd
00000220: dbb0 9f3c c48a cabd 3b3d 08bd 97d4 9abc
00000230: 53eb aebd a9e4 253d 29ed d13d eabe ce3c
00000240: 80a4 22bc 1c3c 783c 13de 0a3e 2e75 fabc
00000250: cbff 1c3e 86e5 02bd 767a 08ba b667 15be
00000260: f7dc ba3d d762 3cbd df76 2c3e 17b4 303c
00000270: e8a2 bcbd 19b7 823d 2f29 b5bd 5a34 ac3d
00000280: 3e52 4abd 5f22 303d 4e4a b73c 3c2d e23d
00000290: 8136 e73d c9dc 013c 5a7c c33b 712d 8b3d
000002a0: 77c3 e03d 4642 2e3c 3a06 22bd d9ea 623d
000002b0: 8710 85be a7b9 1a3d 11c8 1b3d 6f31 303d
000002c0: 340b 1cbd ff57 993d 74c6 673d 8357 6d3c
000002d0: 92b2 97ba bd19 933d 8667 483e df73 34be
000002e0: 63ee 7f3d e862 313d 7a9d c0bc 0507 b4bc
000002f0: 8214 593d d068 bf3c 0419 0d3e 1ca1 47bd
00000300: 49ec b73d d46e 2d3e 75a5 413d 2d69 4dbe
00000310: 4f27 04be 8edb 0c3e cbfa cb3c e563 03bd
00000320: e6d9 a13b b766 78bc 8692 de3d cfcc 23be
00000330: 9609 39bd 4291 38be 8b0d 0fbc e1b9 873d
00000340: 24b6 e63c 85a5 303d 20dc 53bd de7c ccbb
00000350: 9ee2 01bd e1b9 c83d f3c4 84bb 9355 cdbd
00000360: 6db2 1abe 7d87 40bd 3921 723c ed1a 0d3e
00000370: 235d ca3c a585 7f3d 5bbe 15be 3ead 7b3d
00000380: be2e 95bb e85e aeb9 fb84 b0bd cb06 273e
00000390: c66d 3fbc d675 99bd 3e9c 9a3c 0a0b 8a3d
000003a0: 7c74 443d 9726 2fbe 2a7a 923d fef1 263d
000003b0: 1ef3 5e3d 8f9b f2bd cb54 823c 2a8e fbbd
000003c0: 8771 c63d a423 143d b467 28bd 1c35 c33c
000003d0: d883 e33d f61c 49be d060 703e 688d 7b3d
000003e0: 8bff b5bd 310a aa3d 6431 2bbd ca5a 5bbd
000003f0: 0692 1abe 1fc3 713d a7b4 6dbd f47a 02bd

net.0.bias f4 [256]
0.015979301 0.009154585 0.050869938 -0.01250968 0.048717152 -0.014783652 -0.0068313493 0.015097517
0.026542732 -0.035928134 -0.01802164 0.00640709 -0.061039723 -0.005436445 -0.008271442 0.011439762
0.011351542 0.037610143 0.034592766 -0.07450272 -0.050000757 0.014842274 -0.08023973 -0.08795188
0.023819935 -0.021950372 -0.026787372 -0.074711226 -0.069554456 -0.073812425 0.02995505 -0.036507998
-0.039056975 -0.04038602 -0.008174384 -0.0294506 -0.072074905 -0.019835856 0.03831444 -0.026839094
-0.016802555 -0.020527821 -0.05426885 0.02111496 -0.08026095 -0.044022556 -0.07498318 -0.04027265
-0.00045712027 -0.00835847 -0.011932407 -0.020133387 0.027500857 -0.07442302 -0.0399162 -0.042995036
-0.046916764 -0.026772646 -0.0023898815 -0.061933033 0.0021562118 0.030678177 -0.09409678 -0.0878075
0.03258798 -0.026993087 -0.020030102 -0.024193143 -0.032873183 -0.016235115 0.029436193 0.002149052
-0.018050076 -0.0054706046 -0.07088342 -0.018413883 0.0029119402 -0.009652925 -0.045045618 -0.06057477
0.0036806636 -0.041116904 -0.016474854 -0.0072452924 -0.0002858582 0.044745088 0.0074779615 -0.009753687
0.053650595 -0.024491629 -0.073260404 -0.022057302 0.039306164 -0.034426194 0.03717311 -0.04247396
0.018064657 -0.019099938 0.024822004 0.032432195 -0.06586909 -0.069677524 0.013705386 -0.0485997
-0.025541268 -0.07559728 -0.043655135 -0.021349452 -0.016513074 -0.08073138 -0.049754247 -0.0037609227
-0.015875353 -0.007057828 -0.03411891 0.024613945 -0.03171854 -0.09803811 -0.0218037 -0.05772269
0.029581346 -0.07643309 -0.053338647 -0.07807254 -0.0628325 -0.03253405 0.021420341 -0.025873648
-0.062159747 -0.0149358325 -0.056980852 -0.027537303 0.020517016 -0.00019355165 -0.02939063 -0.01566762
-0.012250546 0.016571766 0.06120655 -0.070383556 -0.019847946 0.02613661 0.051219575 -0.03953271
-0.010334966 -0.0045973924 0.03901592 -0.034245715 -0.036921155 -0.0024081592 -0.031111442 -0.050945234
-0.025362508 -0.050622437 0.012638786 -0.037133552 -0.081281915 -0.085084885 0.020178089 0.041411888
-0.059396073 -0.06710245 -0.0071051763 0.027407834 0.011693002 0.006800756 -0.016058 -0.030905558
0.025156505 -0.0639326 -0.018143464 -0.014133001 -0.016688999 -0.013319508 0.00093624106 0.04092018
-0.009397944 -0.055482704 -0.055197112 -0.090909876 -0.054981872 0.026732337 -0.06749683 -0.0051802504
-0.038243365 -0.05752559 0.024688717 0.0017193189 -0.023591638 -0.028452557 0.03272172 -0.01801062
-0.038894728 -0.057441883 0.022789204 0.023586497 0.0064069433 -0.012511787 -0.0024190936 0.028108804
-0.036255594 0.011288942 -0.04143219 0.0010680645 -0.052923664 0.02160913 -0.039579507 0.03425849
0.020758688 -0.008845507 -0.04471144 -0.0037248484 0.021592587 -0.06548612 -0.0083345035 -0.05750674
-0.09122298 -0.0017648796 -0.018433124 -0.008421585 0.041108385 -0.03557669 -0.095286556 0.003362111
-0.07152054 -0.072633855 -0.0020927389 -0.053461816 -0.079123884 -0.07350045 -0.07434605 0.04304135
-0.012207647 -0.030468583 0.006454995 0.030885182 0.004431247 -0.00794501 -0.053894907 -0.027695712
-0.023267332 0.02449136 -0.029352013 -0.07967304 -0.067227505 -0.093499385 -0.089973316 -0.05742001
-0.081897646 -0.005996623 -0.04113069 0.023205109 -0.0731814 -0.014807353 0.021649953 -0.020208957
00000000: 06e7 823c 1dfd 153c ff5c 503d 67f5 4cbc
00000010: a38b 473d 2137 72bc 83d9 dfbb 935b 773c
00000020: 2570 d93c 6129 13bd 1ea2 93bc 91f2 d13b
00000030: ca04 7abd 3524 b2bb f184 07bc d76d 3b3c
00000040: d1fb 393c 180d 1a3d 25b1 0d3d e294 98bd
00000050: 98cd 4cbd 022d 733c ba54 a4bd 1e20 b4bd
00000060: 0622 c33c 44d1 b3bc 3171 dbbc 3302 99bd
00000070: 9172 8ebd f82a 97bd 4b64 f53c 6989 15bd
00000080: 35fa 1fbd d06b 25bd daed 05bc 6242 f1bc
00000090: 029c 93bd ce7e a2bc 9aef 1c3d a9dd dbbc
000000a0: 83a5 89bc f629 a8bc 0349 5ebd 48f9 ac3c
000000b0: da5f a4bd ff50 34bd c890 99bd eff4 24bd
000000c0: a5a9 efb9 f7f1 08bc 2480 43bc c6ee a4bc
000000d0: 7a49 e13c 196b 98bd 2b7f 23bd 901b 30bd
000000e0: cb2b 40bd 4f52 dbbc 8f9f 1cbb 7ead 7dbd
000000f0: 3b4f 0d3b cd50 fb3c d0b5 c0bd 6bd4 b3bd
00000100: f97a 053d 9b20 ddbc 2b16 a4bc b330 c6bc
00000110: 08a6 06bd 81ff 84bc 2c24 f13c 1cd7 0c3b
00000120: c1dd 93bc c242 b3bb 542b 91bd b6d8 96bc
00000130: 40d6 3e3b 4d27 1ebc c181 38bd 401d 78bd
00000140: 4a37 713b 336a 28bd 46f6 86bc eb69 edbb
00000150: 3ddf 95b9 a046 373d b009 f53b eecd 1fbc
00000160: bac0 5b3d aba2 c8bc 8d09 96bd 84b1 b4bc
00000170: 80ff 203d 7b02 0dbd d542 183d 2df9 2dbd
00000180: 55fc 933c 7977 9cbc 8457 cb3c 9fd7 043d
00000190: 60e6 86bd 17b3 8ebd 8e8c 603c 7b10 47bd
000001a0: ec3b d1bc bfd2 9abd bacf 32bd 0ce5 aebc
000001b0: 6d46 87bc 7e56 a5bd 1ccb 4bbd d079 76bb
000001c0: 070d 82bc 5a45 e7bb 45c0 0bbd 2fa3 c93c
000001d0: 4deb 01bd 34c8 c8bd ac9d b2bc a16e 6cbd
000001e0: 9454 f23c f488 9cbd a079 5abd 7fe4 9fbd
000001f0: 53ae 80bd 6d42 05bd b679 af3c f9f4 d3bc
00000200: 389b 7ebd 6cb5 74bc c164 69bd e995 e1bc
00000210: 4d13 a83c 20f4 4ab9 9ec4 f0bc 6159 80bc
00000220: 84b6 48bc 83c1 873c b8b3 7a3d 4125 90bd
00000230: 2998 a2bc 721c d63c 9ecb 513d 0ded 21bd
00000240: fd53 29bc b9a5 96bb 28cf 1f3d 3c45 0cbd
00000250: a33a 17bd 35d2 1dbb 6cdd febc f3ab 50bd
00000260: 09c5 cfbc 7959 4fbd e912 4f3c 5a19 18bd
00000270: 2277 a6bd fc40 aebd 854c a53c 839f 293d
00000280: 4c49 73bd 026d 89bd 8ad2 e8bb 6586 e03c
00000290: 0194 3f3c e0d8 de3b 118c 83bc a72d fdbc
000002a0: 0415 ce3c 18ef 82bd 9aa1 94bc 1a8e 67bc
000002b0: 5eb7 88bc 113a 5abc 136e 753a eb9b 273d
000002c0: d6f9 19bc d541 63bd 5e16 62bd f52e babd
000002d0: ac34 61bd c6fd da3c c73b 8abd 17bf a9bb
000002e0: 13a5 1cbd f49f 6bbd fe3f ca3c c55a e13a
000002f0: 4043 c1bc 5615 e9bc 3607 063d 028b 93bc
00000300: 1450 1fbd 2e48 6bbd 6db0 ba3c 7838 c13c
00000310: 56f1 d13b 3dfe 4cbc a889 1ebb 6f44 e63c
00000320: bf80 14bd 41f5 383c cdb4 29bd 4cfe 8b3a
00000330: 7cc6 58bd a105 b13c 1f1e 22bd a152 0c3d
00000340: 200e aa3c bfec 10bc 5823 37bd 961c 74bb
00000350: f0e2 b03c 961d 86bd 718d 08bc 308c 6bbd
00000360: 1dd3 babd 8853 e7ba 1001 97bc b0fa 09bc
00000370: 4461 283d ddb8 11bd 9925 c3bd dd56 5c3b
00000380: 5c79 92bd 0fc1 94bd 5526 09bb c7fa 5abd
00000390: b40b a2bd 6787 96bd be42 98bd 204c 303d
000003a0: 9502 48bc 4099 f9bc 6c84 d33b ec02 fd3c
000003b0: fe33 913b ca2b 02bc e8c0 5cbd 1ee2 e2bc
000003c0: 229b bebc 1ba2 c83c a273 f0bc 9e2b a3bd
000003d0: 93ae 89bd 9b7c bfbd ee43 b8bd 3f31 6bbd
000003e0: f4b9 a7bd 527f c4bb a878 28bd a418 be3c
000003f0: 21e0 95bd 8a9a 72bc 3e5b b13c 418d a5bc

net.3.weight f4 [4, 256]
-0.14877437 0.011147792 -0.069964096 -0.04530811 -0.033451498 -0.046865486 0.15485822 -0.20979875
-0.06657016 -0.07086247 0.029426213 0.0025007182 -0.028906886 0.13332213 -0.10740693 0.111763164
-0.11092065 0.1515472 -0.044119745 0.049076155 0.020096881 -0.07154955 0.11311076 -0.044983517
0.035120465 0.036550034 -0.037750773 -0.032178998 -0.07463101 -0.046046887 -0.07451493 0.08563726
-0.07313136 -0.02282364 -0.21011327 0.06306161 0.078422606 0.043819055 -0.10372667 0.068913534
-0.14327033 -0.01395677 0.012619758 0.08856001 0.08127049 -0.013841749 -0.09406843 0.14149995
0.087573275 -0.15393539 0.024488121 -0.08107278 0.00474361 -0.10305977 0.10844875 -0.007416427
0.07787345 0.06825154 0.029363768 -0.038816154 -0.08471607 0.07035956 0.06560336 -0.034272864
0.18513529 0.13926429 -0.095574655 0.0032290341 0.044101313 -0.036435913 0.04149929 -0.021529697
0.076298766 0.028842047 -0.027252048 -0.008178087 -0.16970338 0.021683075 -0.028937938 0.024865264
-0.011962503 -0.107601926 0.0070527047 -0.03365721 0.028148597 -0.19505066 0.07349544 -0.070862964
0.06261501 -0.04133784 0.056303695 0.071775906 -0.04345586 -0.09979167 -0.09178085 -0.012020171
-0.105876714 -0.18596968 -0.10255903 -0.023981258 0.10216507 -0.021708183 0.08342034 -0.010000512
-0.1405387 0.018292222 -0.18467249 -0.1610172 -0.13669664 0.09718986 -0.06682861 0.0076053343
0.041607395 0.011575482 -0.059004955 -0.05000356 0.16416088 -0.019845227 0.050628096 0.066337295
0.12489436 -0.03729684 -0.014369534 0.0051808218 0.042540383 -0.08898678 -0.14513803 0.029566482
-0.014371194 0.055265985 0.03646963 -0.010789789 0.014872523 -0.119204774 -0.033852 0.036822654
-0.07028628 -0.025544075 -0.1011095 -0.0032180937 -0.056758665 0.06196873 -0.081530355 -0.025851067
0.13154274 -0.035462905 -0.18850105 -0.08884212 -0.055143774 0.08413953 0.0087743625 -0.092262216
-0.06838987 -0.03297244 0.14629976 -0.11493385 -0.062303327 -0.0071029635 -0.1319025 0.008750781
-0.026282594 -0.098420896 -0.09258334 -0.07153092 -0.19156857 0.010984928 0.05246628 0.0069594067
0.18736859 -0.025557777 -0.044955365 0.033509284 0.08304955 -0.109818675 -0.019396031 -0.034764335
-0.10745277 -0.10322855 -0.048099276 -0.0094072465 0.10367897 -0.18695769 0.08170349 -0.14872168
0.20604545 -0.054815747 -0.058467556 0.09480198 0.07437143 -0.0034859576 -0.10520771 0.13017578
-0.018075319 0.041839268 0.123638175 0.08359782 0.022122655 -0.25726897 -0.085992955 -0.16917172
-0.025313593 0.010651358 -0.022768296 -0.025684014 -0.022911005 -0.1168696 -0.051171314 0.14470781
-0.12093657 -0.009898138 0.09462009 -0.12894416 0.17176087 -0.077164195 0.0114916675 -0.0814821
-0.0946891 -0.09863433 0.016843386 -0.053311676 -0.16873509 0.06890318 0.097252585 -0.060156174
0.0011144616 0.023513943 -0.06663584 -0.048802663 -0.0135971485 0.015693381 -0.09393879 -0.17818357
-0.026668502 0.02959899 -0.055175323 0.080498226 0.08559416 -0.016471438 -0.00035886889 0.005763913
0.18413197 -0.1920132 0.13396925 0.0106047075 -0.00036092478 0.04222357 0.08159234 -0.07962482
-0.00019207927 0.058292933 0.056895003 -0.013010617 0.028893407 -0.10093133 0.051804308 -0.10461511
00000000: 4f58 18be 3ba5 363c 5649 8fbd ff94 39bd
00000010: 7004 09bd 06f6 3fbd 2793 1e3e 7cd5 56be
00000020: f055 88bd 5820 91bd 3e0f f13c 17e3 233b
00000030: 22ce ecbc 9985 083e 2af8 dbbd 16e4 e43d
00000040: 5e2a e3bd 302f 1b3e e8b6 34bd 1404 493d
00000050: 37a2 a43c 9288 92bd 9da6 e73d a340 38bd
00000060: 7ada 0f3d 7db5 153d 8ea0 1abd 20ce 03bd
00000070: 25d8 98bd a99b 3cbd 499b 98bd 9662 af3d
00000080: e5c5 95bd a4f8 babc ef27 57be 7226 813d
00000090: 089c a03d 9c7b 333d a66e d4bd 8a22 8d3d
000000a0: 75b5 12be f0aa 64bc 1ac3 4e3c f35e b53d
000000b0: 2571 a63d 81c8 62bc f3a6 c0bd 5de5 103e
000000c0: 9e59 b33d 3da1 1dbe 509b c83c 7c09 a6bd
000000d0: 4970 9b3b 0011 d3bd 611a de3d 8005 f3bb
000000e0: 1e7c 9f3d 77c7 8b3d 498c f03c b0fd 1ebd
000000f0: 9e7f adbd ac18 903d 0e5b 863d b461 0cbd
00000100: 1b94 3d3e 4c9b 0e3e a5bc c3bd 349e 533b
00000110: 94a3 343d d33d 15bd 29fb 293d 0c5f b0bc
00000120: 8742 9c3d 2846 ec3c b03f dfbc 62fd 05bc
00000130: b9c6 2dbe b4a0 b13c 410f edbc 3db2 cb3c
00000140: 60fe 43bc 665e dcbd 601a e73b 25dc 09bd
00000150: e397 e63c 5cbb 47be c784 963d 9a20 91bd
00000160: 4c3c 803d de51 29bd b49e 663d 3fff 923d
00000170: c6fe 31bd 935f ccbd 99f7 bbbd 40f0 44bc
00000180: e4d5 d8bd d66e 3ebe 780a d2bd 5874 c4bc
00000190: ec3b d13d 5cd5 b1bc 49d8 aa3d 30d9 23bc
000001a0: 61e9 0fbe 92d9 953c c91a 3dbe b1e1 24be
000001b0: 34fa 0bbe 7a0b c73d 70dd 88bd 2b36 f93b
000001c0: 846c 2a3d 17a7 3d3c 2eaf 71bd 88d0 4cbd
000001d0: ca19 283e 7592 a2bc 685f 4f3d d9db 873d
000001e0: 9dc8 ff3d 92c4 18bd 326e 6bbc e2c3 a93b
000001f0: d33e 2e3d b33e b6bd 109f 14be 6835 f23c
00000200: 2875 6bbc 965e 623d 2e61 153d a8c7 30bc
00000210: e2ab 733c a221 f4bd 65a8 0abd 5ad3 163d
00000220: 41f2 8fbd cf41 d1bc 7f12 cfbd a7e6 52bb
00000230: c67b 68bd ecd2 7d3d 63f9 a6bd 9ec5 d3bc
00000240: 24b3 063e 8d41 11bd 6b06 41be dbf2 b5bd
00000250: 70de 61bd 5951 ac3d 58c2 0f3c f9f3 bcbd
00000260: fd0f 8cbd 1c0e 07bd 9bcf 153e 7062 ebbd
00000270: c631 7fbd fabf e8bb 7311 07be 705f 0f3c
00000280: 984e d7bc e590 c9bd 569c bdbd ce7e 92bd
00000290: 8d2a 44be 21fa 333c e2e6 563d bc0b e43b
000002a0: 8ddd 3f3e 8b5e d1bc 1e23 38bd 0841 093d
000002b0: e215 aa3d 9de8 e0bd 6de4 9ebc 0c65 0ebd
000002c0: 3310 dcbd 7d69 d3bd bf03 45bd da20 1abc
000002d0: a455 d43d d671 3fbe 2954 a73d 7f4a 18be
000002e0: 94fd 523e 7a86 60bd ad7b 6fbd 8a27 c23d
000002f0: 0c50 983d aa74 64bb 2477 d7bd cd4c 053e
00000300: b112 94bc a75f 2b3d 0336 fd3d 5535 ab3d
00000310: 923a b53c c2b8 83be 131d b0bd 5a3b 2dbe
00000320: 745e cfbc 0983 2e3c 9484 babc 4867 d2bc
00000330: dcaf bbbc 5459 efbd 0399 51bd 492e 143e
00000340: 98ad f7bd cd2b 22bc 2ec8 c13d f009 04be
00000350: 15e2 2f3e 4308 9ebd 8c47 3c3c 16e0 a6bd
00000360: 5cec c1bd cc00 cabd 24fb 893c 585d 5abd
00000370: e4c8 2cbe 1c1d 8d3d 5d2c c73d 5266 76bd
00000380: 2013 923a 50a0 c03c 5f78 88bd 4de5 47bd
00000390: 93c6 5ebc 688f 803c fb62 c0bd c175 36be
000003a0: e777 dabc 9579 f23c 85ff 61bd 41dc a43d
000003b0: fe4b af3d 1cef 86bc 9126 bcb9 35df bc3b
000003c0: 178d 3c3e 1c9f 44be 3c2f 093e 5ebf 2d3c
000003d0: 813a bdb9 9ff2 2c3d e219 a73d 5612 a3bd
000003e0: e368 49b9 92c4 6e3d bc0a 693d 7c2a 55bc
000003f0: deb1 ec3c 16b5 cebd c130 543d 7240 d6bd

net.3.bias f4 [4]
0.04014949 0.040604312 -0.031143675 0.00875053
00000000: cb73 243d b550 263d 0521 ffbc 625e 0f3c
