models/saved_models/ser_mel.pt (torch, 971166 bytes, 20 tensors)

conv1.weight f4 [32, 1, 3, 3]
-0.31275803 -0.10156054 0.17664687 0.25773865 -0.34612247 -0.3347626 -0.15294051 0.15016147
0.11671157 -0.36245212 -0.0067370166 0.16815129 -0.25375274 -0.04352588 -0.194145 -0.36186263
-0.035839222 0.115576334 -0.053542323 0.04276584 0.1343034 -0.2831968 0.0098628625 0.0012390644
-0.22428136 -0.2050024 -0.21306363 0.031194981 -0.13284108 0.34670398 -0.16212773 0.23808959
0.054816604 -0.17991607 0.16739619 0.39194024 0.15957458 -0.21403255 0.16995423 0.36395213
0.16396585 -0.10381782 0.17285801 0.031992342 -0.14935635 0.16334702 -0.410886 -0.29255188
0.14767188 -0.13442872 -0.29561153 -0.23305677 -0.0077802003 0.027859554 0.110231824 0.05666175
-0.0029900593 0.37843284 -0.15792438 -0.07010353 0.30537987 -0.1665012 0.371134 -0.2399679
-0.30167228 -0.3231615 -0.10113786 -0.27254567 0.25247583 -0.058388796 0.018698491 0.16209151
0.37189656 -0.22290628 -0.1980999 -0.111521065 0.30424544 0.23518075 0.29463568 -0.28275844
-0.13529278 0.23008613 -0.34728312 -0.12531847 -0.24021225 -0.2743742 -0.042913847 -0.17618588
-0.17975794 0.22242501 0.28833008 0.2337654 -0.0015168117 -0.1708119 -0.26156765 0.07121359
0.40286997 -0.22765665 0.35848334 0.12135298 0.053723972 -0.22400624 0.29100937 -0.13177353
0.10651104 -0.03549944 0.30009753 0.37149835 -0.079709806 0.34868783 0.058297697 0.19830173
0.27237117 -0.16269897 0.031593304 0.15963142 0.3390441 -0.005605758 0.13948934 0.28195637
0.022688376 0.26123095 0.31213355 -0.21989167 -0.09541097 0.35550696 0.28926936 0.042213324
-0.17623469 -0.04755934 0.2889944 0.33822677 0.08454272 0.31136036 0.41310203 0.35615665
-0.069788426 0.11032279 0.26651135 0.0896938 0.10451573 0.36722133 0.18464917 -0.1729385
0.32594097 0.079652674 0.14253607 0.13816655 0.15532494 0.025012854 -0.06552163 -0.07351319
0.37673303 -0.38206044 -0.35280466 0.08663115 -0.384822 0.032475766 0.20434216 -0.09653661
0.062988594 -0.14166927 -0.40279093 -0.08541472 0.03064392 -0.35940847 0.049492545 -0.11237889
-0.16714692 -0.1313515 0.12335612 0.454366 0.34187093 -0.08717739 -0.25585952 -0.08237356
0.2335743 0.18968962 -0.033612464 0.15731473 0.064772554 0.07834742 -0.32997435 -0.15305318
-0.3060749 0.062819906 -0.21891466 0.24942838 -0.37668356 0.06169549 0.30638203 0.2567497
0.19954094 0.35870638 0.107496805 0.11137704 -0.17996457 0.3211469 -0.031907894 -0.13804448
-0.08754287 -0.2700789 -0.1622634 0.01055276 -0.34193638 -0.046750672 0.11612515 0.24731445
0.12559079 0.23537467 0.06665898 0.31634843 0.11173913 -0.17385037 0.14990793 0.26979008
-0.05904087 0.20381473 0.33521202 -0.13869156 0.37637258 0.06186688 0.14195617 -0.20417218
-0.12391887 0.26098478 -0.083432324 -0.17830251 -0.11667418 -0.15949628 0.3745514 0.050540123
0.40415478 0.23253982 0.14007458 -0.04492757 0.34430692 0.07597031 -0.015318903 0.18394898
0.18714538 0.20752303 -0.032905314 -0.14500703 -0.119170114 0.06976998 -0.3203617 -0.03460081
-0.16373684 -0.05462678 -0.09127363 0.14425321 -0.17799523 -0.15699294 -0.19315271 0.21433823
00000000: d221 a0be f9fe cfbd ebe2 343e 52f6 833e
00000010: f736 b1be 0166 abbe 709c 1cbe eec3 193e
00000020: 7a06 ef3d 5393 b9be 31c2 dcbb da2f 2c3e
00000030: e1eb 81be 3148 32bd f2cd 46be 0f46 b9be
00000040: 26cc 12bd 49b3 ec3d 324f 5bbd 3c2b 2f3d
00000050: d586 093e 2cff 90be d897 213c 1a68 a23a
00000060: 03aa 65be 26ec 51be 5a2d 5abe 9e8c ff3c
00000070: 7e07 08be 2f83 b13e d004 26be c2cd 733e
00000080: 6087 603d eb3b 38be e869 2b3e 64ac c83e
00000090: 8567 233e 592b 5bbe 7b08 2e3e ef57 ba3e
000000a0: aae6 273e 709e d4bd b101 313e 670a 033d
000000b0: dff0 18be 7144 273e a65f d2be 5cc9 95be
000000c0: 4c37 173e afa7 09be 655a 97be 6fa6 6ebe
000000d0: 0df1 febb b839 e43c 39c1 e13d 2716 683d
000000e0: dff4 43bb f3c1 c13e eeb6 21be 7192 8fbd
000000f0: c05a 9c3e 4a7f 2abe 4705 be3e 25ba 75be
00000100: ca74 9abe 6d75 a5be 5e21 cfbd 1b8b 8bbe
00000110: 8344 813e 1729 6fbd 942d 993c 51fb 253e
00000120: 3a69 be3e 8b41 64be b3da 4abe 2865 e4bd
00000130: 0fc6 9b3e 39d3 703e 7dda 963e b7c5 90be
00000140: 318a 0abe b39b 6b3e 18cf b1be 7c53 00be
00000150: 33fa 75be c67a 8cbe 6ec6 2fbd 126a 34be
00000160: 7712 38be 62c3 633e 00a0 933e 3260 6f3e
00000170: c1cf c6ba 51e9 2ebe 32ec 85be 6ed8 913d
00000180: f944 ce3e d31e 69be 218b b73e e987 f83d
00000190: ab0d 5c3d e461 65be 2eff 943e a4ef 06be
000001a0: 7622 da3d dc67 11bd 62a6 993e 0835 be3e
000001b0: e53e a3bd 3687 b23e 91c9 6e3d 9c0f 4b3e
000001c0: 3c74 8b3e 8f9a 26be fb67 013d 6b76 233e
000001d0: 3097 ad3e 82b0 b7bb 4bd6 0e3e 965c 903e
000001e0: f9dc b93c 10c0 853e f8cf 9f3e 482b 61be
000001f0: d466 c3bd 0205 b63e 1d1b 943e e1e7 2c3d
00000200: de76 34be 95cd 42bd 13f7 933e 0f2c ad3e
00000210: bc24 ad3d a06a 9f3e 1c82 d33e 2a5a b63e
00000220: 3ced 8ebd eaf0 e13d 2d74 883e 62b1 b73d
00000230: 580c d63d 6f04 bc3e ac14 3d3e ca16 31be
00000240: bce1 a63e f120 a33d faf4 113e 887b 0d3e
00000250: 800d 1f3e c2e7 cc3c 3430 86bd 158e 96bd
00000260: 27e3 c03e 6d9d c3be d0a2 b4be ac6b b13d
00000270: 6407 c5be 4f05 053d 123f 513e fcb4 c5bd
00000280: 2a00 813d c011 11be 9d3a cebe eaed aebd
00000290: f508 fb3c 6304 b8be b2b8 4a3d e726 e6bd
000002a0: 9028 2bbe 0281 06be 22a2 fc3d a9a2 e83e
000002b0: b509 af3e 0f8a b2bd 0500 83be 78b3 a8bd
000002c0: 1a2e 6f3e ff3d 423e 39ad 09bd 1d17 213e
000002d0: 79a7 843d 9d74 a03d 66f2 a8be f9b9 1cbe
000002e0: d9b5 9cbe b9a7 803d 2a2b 60be 276a 7f3e
000002f0: abdc c0be 69b4 7c3d 1bde 9c3e b274 833e
00000300: 7654 4c3e 5da8 b73e 4927 dc3d a519 e43d
00000310: a248 38be 5e6d a43e dab1 02bd 885b 0dbe
00000320: ad49 b3bd c847 8abe 6028 26be 7ce5 2c3c
00000330: 4912 afbe a27d 3fbd 06d3 ed3d 0040 7d3e
00000340: df9a 003e 0f06 713e 8184 883d 6cf8 a13e
00000350: 7cd7 e43d d505 32be 7781 193e ed21 8a3e
00000360: d7d4 71bd cfb4 503e e9a0 ab3e 2905 0ebe
00000370: e8b3 c03e 2068 7d3d f55c 113e 8312 51be
00000380: 2dc9 fdbd cc9f 853e 91de aabd ef94 36be
00000390: dff2 eebd fe52 23be 33c5 bf3e 2903 4f3d
000003a0: 60ed ce3e eb1e 6e3e b66f 0f3e f905 38bd
000003b0: ff48 b03e 5296 9b3d 23fc 7abc 1f5d 3c3e
000003c0: 0aa3 3f3e eb80 543e b9c7 06bd b97c 14be
000003d0: 760f f4bd 90e3 8e3d 7306 a4be 94b9 0dbd
000003e0: a1aa 27be 55c0 5fbd abed babd 1db7 133e
000003f0: 6244 36be c2c2 20be d3c9 45be 7b7b 5b3e

conv1.bias f4 [32]
0.037124805 0.01823547 -0.0201799 -0.17900284 0.2538151 -0.30585024 -0.22896233 0.10437695
-0.2635861 0.19049099 -0.24271563 -0.1334329 0.30553252 0.22348385 -0.015430329 -0.19549137
0.15118556 0.2289422 -0.22243458 -0.11633396 0.26120773 0.15224725 0.10700215 -0.029104479
-0.18561457 -0.33183762 0.28141326 -0.2660554 0.39000076 0.06527856 -0.008624226 0.029287575
00000000: 2e10 183d 8d62 953c 5150 a5bc 854c 37be
00000010: 0ef4 813e 6798 9cbe 1a75 6abe 95c3 d53d
00000020: c2f4 86be 1210 433e 728a 78be a2a2 08be
00000030: c26e 9c3e f3d8 643e 7ecf 7cbc e42e 48be
00000040: 63d0 1a3e d36f 6a3e e4c5 63be 8040 eebd
00000050: 05bd 853e b4e6 1b3e f123 db3d 846c eebc
00000060: bf11 3ebe 9fe6 a9be 6615 903e 6a38 88be
00000070: 2eae c73e c4b0 853d a04c 0dbc 7fec ef3c

bn1.weight f4 [32]
0.9619055 1.106571 1.1254025 0.90512556 0.8852997 1.0592046 0.88297063 1.121344
0.873279 1.1170574 0.9092423 0.8775086 0.8604196 0.89526445 0.76258856 0.86199623
0.94983333 1.1139212 1.0926424 0.9729982 1.0842987 0.88024634 1.0857203 0.91956097
0.93764216 0.90800905 0.9345828 1.0968255 0.8840449 0.94481033 0.8532948 1.062069
00000000: 703f 763f 1ea4 8d3f 300d 903f 4fb6 673f
00000010: 00a3 623f 0494 873f 5d0a 623f 3388 8f3f
00000020: 368f 5f3f bdfb 8e3f 1ac4 683f 67a4 603f
00000030: 7544 5c3f 0d30 653f 0139 433f c9ab 5c3f
00000040: 4728 733f f894 8e3f b5db 8b3f 6916 793f
00000050: 4dca 8a3f d357 613f e2f8 8a3f 5968 6b3f
00000060: 5109 703f 4873 683f d240 6f3f c764 8c3f
00000070: c450 623f 17df 713f 8771 5a3f e1f1 873f

bn1.bias f4 [32]
-0.06963199 -0.17165975 -0.1462757 -0.29214913 -0.32543063 -0.08476856 -0.23088025 -0.121978715
-0.10144432 -0.11544479 -0.07956297 -0.265821 -0.16358337 -0.2461985 -0.23126705 -0.28709486
-0.15304111 -0.13058975 -0.16760077 -0.1578853 -0.14944994 -0.28320578 -0.09337225 -0.14674363
-0.21931937 -0.2753412 -0.29151514 -0.18195038 -0.28275153 -0.03949724 -0.22940087 -0.1421818
00000000: 379b 8ebd 93c7 2fbe 4cc9 15be 9294 95be
00000010: d89e a6be 249b adbd df6b 6cbe facf f9bd
00000020: 0ac2 cfbd 516e ecbd e9f1 a2bd b119 88be
00000030: 6682 27be 761b 7cbe 45d1 6cbe 19fe 92be
00000040: cfb6 1cbe 52b9 05be 899f 2bbe afac 21be
00000050: 6809 19be 5900 91be f339 bfbd f643 16be
00000060: 4295 60be 86f9 8cbe 7941 95be 3351 3abe
00000070: cfc4 90be dcc7 21bd 10e8 6abe 1b98 11be

bn1.running_mean f4 [32]
18.372368 33.66458 26.673145 -25.851538 -20.024466 34.39649 -27.48898 29.072765
-11.309641 31.627205 -23.012442 -28.54931 -38.224472 -35.56437 -51.919716 -41.50569
-36.64341 32.849354 40.27929 -29.264774 31.216099 -51.043198 36.54577 -46.199623
-20.178633 -26.435083 -33.85838 24.381748 -29.7113 23.5121 -28.390749 55.26754
00000000: 9cfa 9241 88a8 0642 9a62 d541 f3cf cec1
00000010: 1b32 a0c1 0196 0942 6ee9 dbc1 0695 e841
00000020: 4af4 34c1 8404 fd41 7b19 b8c1 fd64 e4c1
00000030: dce5 18c2 ea41 0ec2 caad 4fc2 d405 26c2
00000040: da92 12c2 bd65 0342 fe1d 2142 421e eac1
00000050: 92ba f941 3c2c 4cc2 de2e 1242 6acc 38c2
00000060: d76d a1c1 0d7b d3c1 fb6e 07c2 d20d c341
00000070: beb0 edc1 c818 bc41 4120 e3c1 f611 5d42

bn1.running_var f4 [32]
270.11868 920.6855 570.64886 553.46747 342.46 958.59845 594.8573 691.73584
112.68219 791.6505 419.54028 637.5545 1170.605 1043.3947 2108.628 1363.6334
1060.9537 878.4134 1320.5881 676.12427 755.8613 2053.4375 1060.7909 1672.8792
325.7098 542.90454 915.50586 487.58682 721.15936 453.17792 646.9667 2399.404
00000000: 310f 8743 df2b 6644 87a9 0e44 eb5d 0a44
00000010: e13a ab43 4da6 6f44 deb6 1444 18ef 2c44
00000020: 485d e142 a2e9 4544 28c5 d143 7d63 1f44
00000030: 5c53 9244 a16c 8244 0cca 0345 4574 aa44
00000040: 859e 8444 759a 5b44 d212 a544 f407 2944
00000050: 20f7 3c44 0057 0045 4f99 8444 221c d144
00000060: dbda a243 e4b9 0744 60e0 6444 1dcb f343
00000070: 334a 3444 c696 e243 debd 2144 77f6 1545

conv2.weight f4 [64, 32, 3, 3]
0.037810896 0.060758475 0.14567724 0.064246446 0.11388857 0.075460695 0.0026968513 -0.07375146
-0.052419532 0.017881379 -0.0006862264 0.06833307 -0.007471616 0.019730698 0.08863722 -0.0017832428
0.06590591 0.07740946 0.011712498 0.04320807 0.1083919 -0.055708207 0.064758 0.101801164
0.13183253 0.14947318 0.050890483 -0.027538551 -0.044178884 -0.13144332 -0.04490211 -0.08624463
-0.07118631 -0.045304056 -0.02872064 -0.02279761 -0.12876195 -0.029140133 -0.0389462 -0.12477044
-0.06901757 -0.03184871 -0.1142087 -0.05625998 -0.066553794 0.10839236 0.08522115 0.14552242
0.14356782 0.064312875 0.14260878 0.09666281 0.12533478 0.1324495 -0.08927966 -0.035603985
-0.10110068 0.0031098647 -0.08215345 -0.12521785 0.0016563466 -0.06730388 -0.012801647 0.08406877
0.11968835 0.06791617 -0.00012848128 0.050609015 0.14353032 -0.08432022 0.018335063 0.0737038
-0.08438893 -0.11697695 -0.030035466 -0.0632182 -0.13034363 -0.035522845 -0.04928471 -0.06515019
-0.05189652 0.117021605 0.06723329 0.11931238 0.06228972 0.1476557 0.14285827 0.008125693
0.13773993 0.07025165 -0.08698879 -0.09650339 -0.13905567 -0.099253826 -0.056503695 -0.020654038
-0.037974495 -0.06038394 -0.07968591 -0.06396952 -0.096459575 -0.044353236 -0.07925151 -0.034694433
-0.12324141 -0.03056761 -0.035762563 -0.028778186 -0.026668021 -0.03157005 -0.1317369 -0.089495316
-0.072218314 -0.052112095 -0.06753375 -0.08040524 -0.10938288 -0.019822355 -0.077629805 -0.036295045
-0.12924577 -0.044131644 -0.07734812 -0.03606095 -0.10167412 -0.0064726225 -0.051167708 -0.12744346
-0.083477736 -0.09247748 -0.077266 -0.11867515 -0.0426588 -0.042096112 -0.046719246 -0.12530719
-0.12872665 -0.09548088 -0.09976966 -0.12874281 -0.11940393 -0.09476882 -0.10527719 -0.065161206
-0.04216332 -0.11596137 -0.13613094 -0.06986418 -0.04964131 -0.10299173 -0.055868823 -0.0341587
-0.0457757 -0.016726559 0.098533764 0.05002875 0.06469561 0.074929155 0.06449553 -0.0023465054
0.068010196 0.1443667 -0.01995194 0.05489394 0.10423341 -0.054186095 -0.036234356 -0.0035308464
-0.052428946 0.055074025 -0.0016978316 -0.08026913 -0.0998149 -0.067083016 -0.09370864 -0.13127644
-0.09312809 -0.13363475 -0.050328936 -0.0744346 0.058128234 0.064061195 0.05737426 0.13503315
0.08668192 0.09378357 0.03839432 0.042687207 0.13684551 -0.03779794 -0.06605435 -0.068609096
-0.051553205 -0.050063107 -0.06399043 -0.048077375 -0.060332093 -0.13095862 0.035309218 0.011421927
0.024981739 0.05070792 0.0304981 0.111071624 0.053260375 0.09066958 0.03998642 -0.03118721
-0.045995664 -0.028275738 -0.045168627 -0.062356528 -0.078712836 -0.11144765 -0.09838094 -0.104076125
-0.05653718 -0.09212682 -0.11944972 -0.0886212 -0.10039455 -0.032185312 -0.12192295 -0.070969075
-0.130932 -0.1268938 -0.12994193 -0.066139065 -0.0645026 -0.077036284 -0.11655046 -0.02164457
-0.04479455 -0.026991561 -0.09710709 -0.06387037 -0.07570128 -0.02809586 -0.061673097 -0.06365728
-0.08356978 -0.08154912 -0.028475095 0.009039174 0.043166045 0.06767217 0.068281084 0.02099192
0.055029813 -0.04390453 0.004506618 0.09691465 -0.07833209 -0.06984129 -0.10592434 -0.098666325
00000000: 99df 1a3d e1dd 783d 6a2c 153e a493 833d
00000010: 693e e93d 238b 9a3d a8bd 303b 010b 97bd
00000020: ddb5 56bd f87b 923c e0e3 33ba 35f2 8b3d
00000030: 75d4 f4bb 46a2 a13c 6e87 b53d b3bb e9ba
00000040: aef9 863d da88 9e3d c7e5 3f3c f2fa 303d
00000050: 93fc dd3d 4a2e 64bd d89f 843d 217d d03d
00000060: 1bff 063e 7f0f 193e 8a72 503d 8798 e1bc
00000070: ebf4 34bd 1499 06be 46eb 37bd 06a1 b0bd
00000080: 21ca 91bd bf90 39bd 8c47 ebbc 0ec2 babc
00000090: 2cda 03be 4ab7 eebc 0d86 1fbd a587 ffbd
000000a0: 1559 8dbd cb73 02bd 40e6 e9bd dd70 66bd
000000b0: 5b4d 88bd d0fc dd3d 6d88 ae3d d403 153e
000000c0: 7103 133e 78b6 833d 0908 123e 27f7 c53d
000000d0: c357 003e d7a0 073e 41d8 b6bd 7cd5 11bd
000000e0: e00d cfbd dfce 4b3b 1140 a8bd 1c39 00be
000000f0: c519 d93a 9ed6 89bd 00be 51bc 3f2c ac3d
00000100: 2a1f f53d a217 8b3d eeb8 06b9 664b 4f3d
00000110: 9df9 123e 14b0 acbd 6a33 963c 05f2 963d
00000120: 1ad4 acbd 9c91 efbd f00c f6bc 8b78 81bd
00000130: cd78 05be 6780 11bd c4de 49bd 766d 85bd
00000140: 7291 54bd 06a9 ef3d 9bb1 893d 0d5a f43d
00000150: 8123 7f3d 0e33 173e 7049 123e a021 053c
00000160: b20b 0d3e 19e0 8f3d 2e27 b2bd 92a3 c5bd
00000170: 9c64 0ebe 9745 cbbd 6b70 67bd a832 a9bc
00000180: 258b 1bbd 2655 77bd 5e32 a3bd 7402 83bd
00000190: 998c c5bd bdab 35bd 9e4e a2bd c01b 0ebd
000001a0: fe65 fcbd ed68 fabc c47b 12bd 3bc0 ebbc
000001b0: e576 dabc 994f 01bd 0ae6 06be 5249 b7bd
000001c0: 32e7 93bd 7e73 55bd 224f 8abd 81ab a4bd
000001d0: 2204 e0bd 7e62 a2bc 60fc 9ebd 1daa 14bd
000001e0: 0159 04be 62c3 34bd b168 9ebd a6b4 13bd
000001f0: 853a d0bd 4b18 d4bb 3b95 51bd 8a80 02be
00000200: 60f6 aabd d564 bdbd a33d 9ebd f50b f3bd
00000210: feba 2ebd f96c 2cbd ae5c 3fbd 8750 00be
00000220: ebd0 03be 7b8b c3bd 0954 ccbd 28d5 03be
00000230: 0c8a f4bd 2816 c2bd 919b d7bd 3d73 85bd
00000240: 72b3 2cbd 287d edbd e965 0bbe f414 8fbd
00000250: b054 4bbd 54ed d2bd b5d6 64bd fee9 0bbd
00000260: 4d7f 3bbd 2306 89bc 12cc c93d f2ea 4c3d
00000270: 227f 843d 7574 993d 3c16 843d d4c7 19bb
00000280: ee48 8b3d ddd4 133e 4072 a3bc 78d8 603d
00000290: 5378 d53d 3df2 5dbd 7a6a 14bd c665 67bb
000002a0: bcbf 56bd 4d95 613d c689 deba 2464 a4bd
000002b0: c16b ccbd d262 89bd 51ea bfbd 556d 06be
000002c0: f1b9 bebd 8cd7 08be b725 4ebd 2b71 98bd
000002d0: df17 6e3d 8432 833d 4601 6b3d 2146 0a3e
000002e0: 4a86 b13d 9a11 c03d 5d43 1d3d c8d8 2e3d
000002f0: 3b21 0c3e 03d2 1abd 8147 87bd ed82 8cbd
00000300: 7429 53bd f90e 4dbd 6a0d 83bd c8ec 44bd
00000310: c91e 77bd 041a 06be 66a0 103d 0923 3b3c
00000320: 81a6 cc3c 1cb3 4f3d 27d7 f93c 8579 e33d
00000330: 8d27 5a3d f9b0 b93d cdc8 233d 527c ffbc
00000340: f365 3cbd 85a2 e7bc bd02 39bd 8f69 7fbd
00000350: 3234 a1bd aa3e e4bd f27b c9bd dd25 d5bd
00000360: 8893 67bd fcac bcbd 0ea2 f4bd 087f b5bd
00000370: a89b cdbd bfd4 03bd bdb2 f9bd 3c58 91bd
00000380: 0a13 06be 73f0 01be 7f0f 05be eb73 87bd
00000390: f019 84bd 33c5 9dbd 02b2 eebd f44f b1bc
000003a0: 7d7a 37bd 681d ddbc 15e0 c6bd 78ce 82bd
000003b0: 4609 9bbd 4a29 e6bc ee9c 7cbd bf5e 82bd
000003c0: a226 abbd 3a03 a7bd 9a44 e9bc 0b19 143c
000003d0: e1ce 303d b597 8a3d f4d6 8b3d 3ff7 ab3c
000003e0: f166 613d 3dd5 33bd 40ac 933b 307b c63d
000003f0: 936c a0bd f308 8fbd dcee d8bd 9211 cabd

conv2.bias f4 [64]
0.105240606 -0.015891036 -0.047999274 -0.06881818 -0.076028764 -0.06188665 -0.038477913 -0.081111245
-0.010818418 -0.04750204 -0.0013269291 -0.08421516 -0.061881185 -0.03133976 0.040154207 -0.07383665
0.0011425567 0.07434578 0.14776933 0.043308944 -0.023421222 0.04015249 0.053224724 0.03060964
0.01924979 -0.040825088 0.14276718 0.11725222 0.016092455 0.14183526 0.11670767 -0.14179024
0.090516955 0.093160585 -0.04391333 0.11043205 -0.12345375 -0.0066223876 -0.023301259 -0.035237923
0.05570336 0.0926227 -0.06990353 -0.034804992 -0.025294287 -0.017625675 -0.09692914 0.106710464
-0.20558675 -0.06400658 0.17569327 0.017427256 -0.07338054 0.11489818 0.13964342 0.09329621
-0.05781992 -0.12535624 0.106288664 -0.027139831 0.00034135766 0.092560634 0.038048256 -0.041275192
00000000: 6388 d73d eb2d 82bc e39a 44bd 8cf0 8cbd
00000010: f8b4 9bbd db7c 7dbd 049b 1dbd a71d a6bd
00000020: bc3f 31bc 8091 42bd 5aec adba ff78 acbd
00000030: 2077 7dbd 1f5e 00bd bd78 243d ab37 97bd
00000040: d7c1 953a 9a42 983d d850 173e b864 313d
00000050: dddd bfbc f076 243d 2b02 5a3d 11c1 fa3c
00000060: bcb1 9d3c 3538 27bd 8f31 123e ef21 f03d
00000070: 53d4 833c 433d 113e 6e04 ef3d 7631 11be
00000080: f460 b93d faca be3d 77de 33bd 332a e23d
00000090: 52d5 fcbd 9d00 d9bb 48e2 bebc a455 10bd
000000a0: 3529 643d f8b0 bd3d 9529 8fbd ae8f 0ebd
000000b0: f735 cfbc b863 90bc c982 c6bd 048b da3d
000000c0: 5585 52be e215 83bd f0e8 333e 9bc3 8e3c
000000d0: 8948 96bd bd4f eb3d affe 0e3e 1512 bf3d
000000e0: 95d4 6cbd 635d 00be dfad d93d 5a54 debc
000000f0: 40f8 b239 6e90 bd3d 7dd8 1b3d 2d10 29bd

bn2.weight f4 [64]
0.9561593 0.83909 0.81533855 0.9079714 0.9033438 0.9131918 1.114676 1.1195188
0.89558995 0.989056 1.0504571 1.0975006 0.9590098 0.8963962 0.8948663 1.029156
0.8816659 0.87704206 1.0183057 0.8953719 0.8786707 0.9394406 0.8659506 1.1043154
0.90640944 0.90339094 1.1077209 0.9405024 0.8558965 1.0959457 1.1284325 0.9642623
0.8749436 0.8720395 1.0375606 1.1085191 0.89628935 0.9670927 1.1206075 1.085129
1.0228041 0.9369191 1.0286669 0.8968668 1.0049977 0.84182674 0.9183332 0.8736854
0.8704884 0.9119812 0.893735 1.1160381 1.1060439 0.92127657 0.8523793 1.0710403
0.9221343 0.8869091 1.106843 0.8759489 1.1056533 1.1385976 0.94433725 0.8894865
00000000: dbc6 743f 9ace 563f 07ba 503f d070 683f
00000010: 8a41 673f f0c6 693f b4ad 8e3f 644c 8f3f
00000020: 6245 653f c632 7d3f 6175 863f e67a 8c3f
00000030: ab81 753f 397a 653f f515 653f 62bb 833f
00000040: dbb4 613f d485 603f d757 823f 1837 653f
00000050: 90f0 603f 2e7f 703f f0ae 5d3f 355a 8d3f
00000060: 730a 683f a144 673f ccc9 8d3f c4c4 703f
00000070: 081c 5b3f f347 8c3f 7a70 903f e5d9 763f
00000080: 4efc 5f3f fb3d 5f3f c9ce 843f f4e3 8d3f
00000090: 3873 653f 6393 773f 1170 8f3f 82e5 8a3f
000000a0: 3feb 823f eed9 6f3f 5bab 833f 1099 653f
000000b0: c4a3 803f f581 573f e217 6b3f d9a9 5f3f
000000c0: 54d8 5e3f 9a77 693f d1cb 643f 56da 8e3f
000000d0: d992 8d3f c8d8 6b3f 8835 5a3f d917 893f
000000e0: fe10 6c3f 7a0c 633f 08ad 8d3f 303e 603f
000000f0: 0c86 8d3f 91bd 913f 16c0 713f 63b5 633f

bn2.bias f4 [64]
0.0039957794 -0.23624557 -0.14737526 -0.09195283 -0.07940167 -0.15859169 -0.023307478 -0.04422333
-0.08725858 -0.0628942 0.06373906 -0.015914334 0.08253453 -0.060858384 -0.17460074 -0.061351277
-0.12650153 -0.16438414 -0.053600658 -0.12006896 -0.11876388 -0.11840908 -0.17374302 0.014870581
-0.060178813 -0.17098123 -0.01316748 -0.14267305 -0.24502634 -0.032886438 -0.052079014 0.038777832
-0.09836967 -0.098100886 -0.080934286 -0.025724666 -0.19972657 -0.13792466 0.059092797 -0.033370677
-0.013316345 -0.13696054 -0.048102736 -0.13045825 -0.12317042 -0.22859333 -0.16386601 -0.20466653
-0.22557935 -0.1497257 -0.009767918 0.06646102 -0.024704507 -0.11820307 -0.10268248 -0.05922797
-0.16781095 -0.17701338 0.015367996 -0.10318713 0.09173532 -0.048062947 -0.11241407 -0.15754667
00000000: 07ef 823b 5cea 71be 8ae9 16be c451 bcbd
00000010: 589d a2bd dc65 22be 53ef bebc 8623 35bd
00000020: a0b4 b2bd adce 80bd a089 823d c75e 82bc
00000030: dd07 a93d a446 79bd 89ca 32be 7a4b 7bbd
00000040: 9e89 01be 5154 28be 5d8c 5bbd b7e6 f5bd
00000050: 7a3a f3bd 7680 f2bd b1e9 31be bda3 733c
00000060: 0f7e 76bd b415 2fbe 6abc 57bc e218 12be
00000070: 2fe8 7abe eeb3 06bd ce50 55bd 81d5 1e3d
00000080: 0a76 c9bd 1ee9 c8bd e0c0 a5bd 89bc d2bc
00000090: 1f85 4cbe 1f3c 0dbe 4a0b 723d b1af 08bd
000000a0: cd2c 5abc 623f 0cbe 6007 45bd d996 05be
000000b0: c640 fcbd 5f14 6abe 7ecc 27be 1a94 51be
000000c0: 46fe 66be b251 19be 9e09 20bc b71c 883d
000000d0: 1b61 cabc 7314 f2bd 314b d2bd 0799 72bd
000000e0: a2d6 2bbe ff42 35be 0cca 7b3c c653 d3bd
000000f0: badf bb3d a7dd 44bd 5939 e6bd ea53 21be

bn2.running_mean f4 [64]
-0.38715315 -0.119005606 -4.59489 -3.6780365 -2.0404758 5.565288 1.4695792 3.0401092
-4.1071777 5.828683 0.2176022 2.5684369 -0.5380913 -2.1776135 7.453202 1.3742112
-2.5550435 2.520241 2.1758547 -4.3380556 -2.4379394 0.41490912 -1.2713804 3.08875
-4.162456 1.725399 1.9059259 7.169357 1.6115094 2.7155855 3.8271449 -2.9506502
-2.5885167 -1.3082613 2.7377455 2.0380547 1.3613305 5.874281 1.7503438 1.2446306
0.940206 5.5366874 2.034619 -0.8036296 4.2838473 -1.2045133 4.524692 1.1424794
-1.0656825 6.1354547 -1.0148871 1.7457187 1.6500641 1.3774358 -4.889446 2.3928049
6.9127297 7.030996 2.7084875 -6.543872 1.5050892 3.9294863 1.3937802 -1.100723
00000000: f038 c6be 36b9 f3bd 5709 93c0 f364 6bc0
00000010: 2897 02c0 d716 b240 2c1b bc3f 2691 4240
00000020: 006e 83c0 9284 ba40 1cd3 5e3e 4561 2440
00000030: 5ac0 09bf 055e 0bc0 a180 ee40 27e6 af3f
00000040: d585 23c0 a14b 2140 3441 0b40 5ad1 8ac0
00000050: 3307 1cc0 f86e d43e 98bc a2bf 14ae 4540
00000060: d732 85c0 e0d9 dc3f 61f5 f33f 5f6b e540
00000070: f145 ce3f 27cc 2d40 f1ef 7440 74d7 3cc0
00000080: 42aa 25c0 1b75 a7bf 3937 2f40 7d6f 0240
00000090: 1440 ae3f 1cfa bb40 440b e03f 0e50 9f3f
000000a0: 57b1 703f 8b2c b140 3337 0240 abba 4dbf
000000b0: 4715 8940 7e2d 9abf 47ca 9040 c43c 923f
000000c0: 4968 88bf a555 c440 d2e7 81bf b673 df3f
000000d0: 4d35 d33f d14f b03f 5776 9cc0 b723 1940
000000e0: 1535 dd40 ebfd e040 dc57 2d40 6667 d1c0
000000f0: c3a6 c03f b47c 7b40 6467 b23f 7ee4 8cbf

bn2.running_var f4 [64]
57.487183 47.50227 16.432823 39.87561 61.580994 51.08856 48.178783 37.040207
45.57875 49.121876 40.860355 29.424763 43.141148 64.01425 99.7891 29.727839
48.77793 32.004513 39.31751 57.045338 43.59079 44.351006 45.933384 46.057617
51.430573 28.8817 48.434837 97.63606 39.21723 33.44999 44.41777 57.66017
107.505775 77.50507 50.502556 42.639065 39.10302 46.50439 22.38525 46.587276
88.85792 24.313828 43.88334 47.20175 26.956654 45.28544 33.184673 43.549942
44.476162 60.268803 102.337875 18.71248 45.433083 35.52965 84.74716 24.574959
73.80286 81.65801 37.0361 99.88013 10.378151 59.8259 52.75413 64.927414
00000000: e0f2 6542 5302 3e42 6c76 8341 a080 1f42
00000010: f052 7642 af5a 4c42 13b7 4042 2c29 1442
00000020: a450 3642 cd7c 4442 0171 2342 ea65 eb41
00000030: 8990 2c42 4c07 8042 0594 c742 9dd2 ed41
00000040: 9a1c 4342 9f04 0042 2145 1d42 6d2e 6442
00000050: f85c 2e42 6e67 3142 c9bb 3742 003b 3842
00000060: e8b8 4d42 b90d e741 46bd 4142 aa45 c342
00000070: 72de 1c42 cacc 0542 ccab 3142 04a4 6642
00000080: f502 d742 9902 9b42 9e02 4a42 678e 2a42
00000090: 7e69 1c42 7f04 3a42 fe14 b341 5f59 3a42
000000a0: 41b7 b142 b882 c241 8a88 2f42 98ce 3c42
000000b0: 3aa7 d741 4a24 3542 1bbd 0442 2433 2e42
000000c0: 97e7 3142 4113 7142 feac cc42 29b3 9541
000000d0: 7abb 3542 5d1e 0e42 8c7e a942 8499 c441
000000e0: 109b 9342 e750 a342 f724 1442 a0c2 c742
000000f0: e80c 2641 b94d 6f42 3b04 5342 d6da 8142

conv3.weight f4 [128, 64, 3, 3]
0.04972477 0.01610877 -0.005314922 0.042185813 0.0552442 0.032207362 0.05135634 0.0316604
0.038175635 0.06636111 -0.018572407 -6.2554405e-05 0.059644647 0.01305969 0.01878135 0.016011542
0.09355628 0.022372505 -0.008480547 0.032085184 0.030223437 -0.009372506 0.012910925 0.03856513
-0.021387402 0.0063658417 0.05776548 0.034220334 0.04498784 0.014715203 0.043653946 0.046866234
0.026386704 0.052203313 0.048533022 0.06537505 0.040711984 0.038778145 0.07393115 0.09513002
0.03609421 0.08109659 0.019517656 0.058460485 0.095581666 -0.011512393 0.0098841265 -0.026557544
0.064026885 -0.0054452727 0.0136137 0.069674425 -0.0012434244 0.010515554 -0.067978814 -0.1000252
-0.09434649 -0.0568119 -0.088355534 -0.09638253 -0.13919976 -0.12593503 -0.09759769 -0.05686761
-0.11588685 -0.06215272 -0.06351294 -0.057720363 -0.08436868 -0.058297865 -0.05558646 -0.08247154
-0.01263864 0.008657369 -0.028690873 0.06817576 0.065041095 0.036800843 0.024932977 0.022868726
-0.0056934413 2.0413543e-05 -0.007269473 0.017177433 0.008761261 0.04011267 0.030665928 0.059185907
0.03497787 0.04855474 -0.023852723 0.016687337 -0.045189545 -0.02503392 -0.01908184 -0.087063044
0.009501858 0.032880843 0.04757379 -0.05617988 -0.10118142 -0.10856547 -0.039369676 -0.090581186
-0.10797003 -0.07066228 -0.09413363 -0.10230668 -0.069003016 -0.09257167 -0.063035265 -0.063330576
-0.07334968 -0.05912074 -0.06692151 -0.04349935 0.0371342 -0.009073825 0.070756175 -0.0014757275
-0.013385848 0.016971832 -0.010301625 -0.029626906 0.009974703 0.02213181 0.040914986 0.044948276
0.0393278 0.03241819 0.034069143 0.029655067 0.032526024 0.008225642 0.014493232 -0.049753547
-0.08731155 -0.058518477 -0.08422274 -0.07505061 -0.08103698 -0.056867957 -0.060966846 -0.063449204
0.058151405 0.032998912 0.0487625 0.015469292 0.01627433 0.04741848 0.05399236 0.006684169
0.064314835 0.010905303 -0.0011836679 -0.043398473 -0.009853672 0.042484336 0.0227793 0.073383845
-0.019236386 0.0014539431 -0.10265664 -0.08267487 -0.06325737 -0.1092569 -0.09781821 -0.073156096
-0.090318725 -0.07966865 -0.065161556 0.03419962 0.0046384633 -0.0078950515 0.08062056 0.06247333
0.03193896 0.012397517 0.06392068 0.023079863 0.049172793 0.013652438 0.014814556 0.022118455
0.031799994 0.0032120897 0.040346727 0.032693267 0.04769906 -0.063124605 -0.012127677 -0.006309906
-0.027337328 -0.05454747 -0.0079701645 -0.026627166 -0.078996606 -0.025777685 0.02480845 0.055777553
0.05433296 0.050919827 0.04605896 0.026583457 0.09102751 -0.0011877723 0.03317859 -0.11821606
-0.084951915 -0.043432247 -0.08444601 -0.059580818 -0.07434297 -0.09928626 -0.12662399 -0.023286832
0.013503838 0.026687967 0.028603 0.05973287 0.0058849533 0.0004543545 0.06608149 0.002853246
0.06036546 -0.0017248286 0.026141807 -0.038643494 0.03174264 0.014332436 0.01821616 0.015839811
0.07244514 0.026600894 -0.03158396 -0.051222555 -0.1044922 -0.039369185 -0.05221315 -0.046779316
-0.07397703 -0.10462337 -0.06745486 0.02515984 0.02453531 0.031795014 -0.012666669 0.0449476
0.011548929 -0.010793907 0.0044726753 0.06118467 -0.015050839 -0.028440364 0.034284458 0.058230136
00000000: 33ac 4b3d 8af6 833c cc28 aebb 08cb 2c3d
00000010: be47 623d deeb 033d 075b 523d 56ae 013d
00000020: 0e5e 1c3d 55e8 873d 2925 98bc a42f 83b8
00000030: f24d 743d 4ff8 553c 59db 993c a32a 833c
00000040: 6f9a bf3d 8b46 b73c fef1 0abc c16b 033d
00000050: 2497 f73c 248f 19bc 5888 533c 78f6 1d3d
00000060: a234 afbc 8d98 d03b 7f9b 6c3d 9f2a 0c3d
00000070: 2b45 383d 0918 713c 7bce 323d cff6 3f3d
00000080: ee28 d83c 24d3 553d 90ca 463d 5be3 853d
00000090: 9cc1 263d d5d5 1e3d 3769 973d 87d3 c23d
000000a0: 86d7 133d f815 a63d 7ee3 9f3c 4374 6f3d
000000b0: 52c0 c33d 7a9e 3cbc 08f1 213c 358f d9bc
000000c0: 8720 833d 426e b2bb ff0b 5f3c 77b1 8e3d
000000d0: 66fa a2ba 6e49 2c3c 7a38 8bbd 03da ccbd
000000e0: bc38 c1bd 98b3 68bd bff3 b4bd 3464 c5bd
000000f0: 628a 0ebe 1df5 00be 4ce1 c7bd 03ee 68bd
00000100: 1656 edbd da93 7ebd 1313 82bd 306c 6cbd
00000110: 7dc9 acbd bec9 6ebd a1ae 63bd d7e6 a8bd
00000120: 4c12 4fbc a3d7 0d3c 1f09 ebbc bc9f 8b3d
00000130: 4434 853d 7bbc 163d 3e40 cc3c 3257 bb3c
00000140: 0c90 babb c03d ab37 c234 eebb b0b7 8c3c
00000150: 648b 0f3c 2f4d 243d 1d37 fb3c ec6c 723d
00000160: f444 0f3d 56e1 463d c966 c3bc e2b3 883c
00000170: ac18 39bd ef13 cdbc 8551 9cbc 1c4e b2bd
00000180: aead 1b3c 10ae 063d bcdc 423d e01c 66bd
00000190: 3438 cfbd 9357 debd 1942 21bd a182 b9bd
000001a0: 641f ddbd 63b7 90bd 22c9 c0bd 2a86 d1bd
000001b0: 7451 8dbd 3796 bdbd a218 81bd 76b3 81bd
000001c0: 5b38 96bd 9728 72bd 250e 89bd 602c 32bd
000001d0: 081a 183d 61aa 14bc 9de8 903d 336d c1ba
000001e0: 5150 5bbc 8308 8b3c 26c8 28bc 20b4 f2bc
000001f0: f06c 233c c54d b53c 7996 273d af1b 383d
00000200: 3016 213d f0c8 043d 168c 0b3d 2fef f23c
00000210: 023a 053d d8c4 063c 0575 6d3c 60ca 4bbd
00000220: 66d0 b2bd 12b1 6fbd f97c acbd 22b4 99bd
00000230: b7f6 a5bd 60ee 68bd 5fb8 79bd a8f1 81bd
00000240: 2b30 6e3d de29 073d 30bb 473d ea72 7d3c
00000250: be51 853c e139 423d 1827 5d3d e006 db3b
00000260: 7fb7 833d 28ac 323c 4e25 9bba 99c2 31bd
00000270: 4c71 21bc 0e04 2e3d a89b ba3c 454a 963d
00000280: a095 9dbc 3c92 be3a a53d d2bd 7151 a9bd
00000290: 148d 81bd 15c2 dfbd ea54 c8bd ddd2 95bd
000002a0: 06f9 b8bd 5129 a3bd 6c73 85bd e714 0c3d
000002b0: 40fe 973b 3f5a 01bc 641c a53d 09e4 7f3d
000002c0: 6dd2 023d f51e 4b3c d8e8 823d fb11 bd3c
000002d0: 6969 493d 7aae 5f3c c0b8 723c c331 b53c
000002e0: b640 023d ec81 523b 9c42 253d 60e9 053d
000002f0: 1760 433d 7947 81bd 2ab3 46bc 54c3 cebb
00000300: 88f2 dfbc 2b6d 5fbd 4b95 02bc 3721 dabc
00000310: f9c8 a1bd b92b d3bc 173b cb3c 0177 643d
00000320: 3d8c 5e3d 4f91 503d 52a8 3c3d 8dc5 d93c
00000330: a26c ba3d 06af 9bba 46e6 073d 431b f2bd
00000340: 45fb adbd 03e6 31bd 08f2 acbd 040b 74bd
00000350: 2141 98bd 9856 cbbd b8a9 01be 07c4 bebc
00000360: 343f 5d3c b9a0 da3c d750 ea3c 74aa 743d
00000370: 91d6 c03b 6e36 ee39 bb55 873d 86fd 3a3b
00000380: c641 773d a513 e2ba 5827 d63c a448 1ebd
00000390: 9204 023d 98d2 6a3c 0e3a 953c 7ec2 813c
000003a0: 1e5e 943d 1eea d93c 2f5e 01bd bece 51bd
000003b0: 0200 d6bd 9541 21bd 75dd 55bd ab9b 3fbd
000003c0: 4581 97bd c744 d6bd c625 8abd 021c ce3c
000003d0: 46fe c83c 7d3b 023d dc87 4fbc fa1a 383d
000003e0: b837 3d3c edd8 30bc 858f 923b c79c 7a3d
000003f0: cb97 76bc c4fb e8bc dc6d 0c3d b982 6e3d

conv3.bias f4 [128]
-0.040500686 -0.07976381 -0.017441588 0.13097818 0.042938076 -0.06006175 0.048860572 0.07464795
0.022780497 0.08388108 -0.09335947 -0.13361412 -0.10190083 -0.12197173 -0.046281405 -0.017792115
-0.056148708 0.016985895 -0.13468327 -0.06602697 -0.0058837314 -0.03185346 0.13649623 -0.06335969
0.11754302 0.048618145 -0.003318334 -0.02668018 -0.06843939 -0.027588496 0.007780866 -0.0011094401
-0.065401636 0.047323473 -0.07737742 0.025478812 0.081775166 -0.14589682 0.035965413 -0.023196865
-0.05342485 0.0056115426 0.039893467 -0.016479433 0.039142605 -0.058882583 0.042620398 0.01396977
0.0642275 0.124836035 0.013010513 -0.13229002 0.029780226 0.088713534 -0.024690107 -0.0027123885
-0.014899376 -0.01953943 -0.10681276 -0.011238964 -0.042507585 -0.0052025644 0.018438287 0.046441704
-0.05608815 0.038318302 -0.08376427 -0.05789892 -0.03134151 0.104119204 0.12714168 0.02033496
-0.066814125 0.14447887 0.053977743 0.030706868 0.036393587 -0.016544886 -0.01990461 -0.03855222
-0.118596084 0.0072104493 0.10977883 -0.019282661 -0.047328826 -0.0035806554 0.034586914 0.051684227
0.01805685 0.056470633 -0.087093025 -0.020154126 0.06123446 -0.07608606 -0.08051402 -0.09896943
-0.0074235364 0.07579382 0.08143368 -0.059135538 -0.04751571 -0.03004366 -0.034593005 0.028055754
-0.055149212 -0.008409499 0.041494776 0.004848459 -0.075972535 -0.04513633 -0.086843826 0.06680249
0.05257248 -0.084925435 -0.06732094 0.022280246 -0.08718466 -0.23076817 0.03382447 -0.11585379
-0.028406734 0.02352347 -0.006283678 -0.097851686 0.027185723 -0.10564809 0.064467184 0.021455606
00000000: 0ce4 25bd 355b a3bd a9e1 8ebc 251f 063e
00000010: d6df 2f3d 4f03 76bd 0622 483d 06e1 983d
00000020: 2a9e ba3c d8c9 ab3d 4033 bfbd 24d2 08be
00000030: 62b1 d0bd 50cc f9bd 9291 3dbd c5c0 91bc
00000040: 30fc 65bd 0126 8b3c 69ea 09be 2639 87bd
00000050: 51cc c0bb c678 02bd abc5 0b3e bac2 81bd
00000060: 65ba f03d d223 473d 6878 59bb 6590 dabc
00000070: f329 8cbd 4501 e2bc a3f6 fe3b a26a 91ba
00000080: 4bf1 85bd 42d6 413d 0e78 9ebd f1b8 d03c
00000090: bd79 a73d fa65 15be 7850 133d 5a07 bebc
000000a0: 04d4 5abd 08e1 b73b 5567 233d e0ff 86bc
000000b0: ff53 203d dd2e 71bd ba92 2e3d 76e1 643c
000000c0: b589 833d 09aa ff3d 0c2a 553c 0977 07be
000000d0: a9f5 f33c 71af b53d e842 cabc 54c2 31bb
000000e0: 831c 74bc 2811 a0bc a6c0 dabd a223 38bc
000000f0: 6f1c 2ebd 467a aabb e40b 973c a839 3e3d
00000100: b0bc 65bd a7f3 1c3d 9a8c abbd 6b27 6dbd
00000110: f55f 00bd 733c d53d 6e31 023e 8195 a63c
00000120: d8d5 88bd 45f2 133e c417 5d3d f88c fb3c
00000130: 7111 153d 2489 87bc fe0e a3bc efe8 1dbd
00000140: 81e2 f2bd a245 ec3b b9d3 e03d acf6 9dbc
00000150: dfdb 41bd 6ea9 6abb 02ab 0d3d d7b2 533d
00000160: f6eb 933c c04d 673d d45d b2bd 441a a5bc
00000170: fcd0 7a3d 02d3 9bbd 89e4 a4bd 7cb0 cabd
00000180: 2341 f3bb ca39 9b3d b4c6 a63d 1b38 72bd
00000190: d59f 42bd 1f1e f6bc 65b1 0dbd 2ed5 e53c
000001a0: 24e4 61bd ffc7 09bc 6df6 293d d2df 9e3b
000001b0: 7d97 9bbd dfe0 38bd 2ddb b1bd becf 883d
000001c0: 3e56 573d 63ed adbd 90df 89bd 1085 b63c
000001d0: df8d b2bd 7e4e 6cbe 878b 0a3d c044 edbd
000001e0: 3db5 e8bc 4bb4 c03c 50e7 cdbb 7766 c8bd
000001f0: 98b4 de3c 075e d8bd 5f07 843d abc3 af3c

bn3.weight f4 [128]
0.816899 0.8086976 0.8149799 0.8114057 0.8157625 0.80524445 0.8250434 0.7443597
0.8185747 0.8080021 0.8047366 0.81092983 0.7673849 0.7887857 0.76066434 0.8142317
0.7981785 0.8079759 0.8382513 0.80199635 0.7419564 0.8182175 0.7490706 0.81289554
0.74961907 0.800313 0.79079455 0.83337164 0.8276739 0.7471938 0.81743395 0.8237742
0.77533525 0.7412354 0.7432729 0.7895959 0.77864015 0.75897396 0.8065366 0.78681713
0.71754926 0.83038366 0.91756743 0.7925413 0.7763344 0.8191007 0.8154475 0.8271984
0.8072957 0.758965 0.7212918 0.83328485 0.8037107 0.8165444 0.82449853 0.8061074
0.75288224 0.8215111 0.8065308 0.79143685 0.8099899 0.81326354 0.82189375 0.82641935
0.7537613 0.8084151 0.8029712 0.78679657 0.7356934 0.74399865 0.808224 0.7949745
0.71048754 0.8425216 0.76840633 0.7906736 0.7935334 0.75726444 0.8004806 0.8104947
0.84758353 0.75860447 0.82620555 0.77506846 0.732079 0.7387766 0.76109284 0.81258506
0.81707114 0.7975095 0.7654924 0.79805636 0.75991124 0.83282024 0.80914706 0.80196375
0.8110033 0.7485691 0.8333936 0.80712104 0.77530843 0.83318174 0.80856985 0.79346985
0.780021 0.81485486 0.83009636 0.8015172 0.7901135 0.7761233 0.78237253 0.8202653
0.8234482 0.8144052 0.7988935 0.7786903 0.82897073 0.76692075 0.83053 0.8153654
0.7993575 0.7450749 0.7980138 0.774789 0.8021569 0.8124252 0.81165195 0.8320436
00000000: 4b20 513f ce06 4f3f 86a2 503f 49b8 4f3f
00000010: d0d5 503f 8024 4e3f 0b36 533f 5b8e 3e3f
00000020: 1d8e 513f 3ad9 4e3f 3803 4e3f 1999 4f3f
00000030: 5673 443f dced 493f e6ba 423f 7d71 503f
00000040: 6d55 4c3f 82d7 4e3f a397 563f a24f 4d3f
00000050: dbf0 3d3f b476 513f 17c3 3f3f ec19 503f
00000060: 09e7 3f3f 50e1 4c3f 8371 4a3f d857 553f
00000070: 70e2 533f 1848 3f3f 5a43 513f dee2 523f
00000080: 5f7c 463f 9ac1 3d3f 2247 3e3f f522 4a3f
00000090: f654 473f 1e4c 423f 2f79 4e3f d96c 493f
000000a0: 4fb1 373f 0694 543f b3e5 6a3f fde3 4a3f
000000b0: dabd 463f 95b0 513f 2bc1 503f 46c3 533f
000000c0: eeaa 4e3f 884b 423f 94a6 383f 2852 553f
000000d0: fcbf 4d3f 0e09 513f 5612 533f 0e5d 4e3f
000000e0: e4bc 403f 8d4e 523f cd78 4e3f 9b9b 4a3f
000000f0: 805b 4f3f 0a32 503f a167 523f 3890 533f
00000100: 80f6 403f 4bf4 4e3f 858f 4d3f 806b 493f
00000110: 6756 3c3f b276 3e3f c5e7 4e3f 7383 4b3f
00000120: 83e2 353f 7faf 573f 47b6 443f 9669 4a3f
00000130: 0125 4b3f 15dc 413f 4cec 4c3f 957c 4f3f
00000140: 3cfb 583f e733 423f 3582 533f e36a 463f
00000150: 8869 3b3f 7720 3d3f fbd6 423f 9305 503f
00000160: 932b 513f 9529 4c3f 4ff7 433f 6c4d 4c3f
00000170: 8b89 423f b533 553f 4324 4f3f 7f4d 4d3f
00000180: ea9d 4f3f 39a2 3f3f 4859 553f 7c9f 4e3f
00000190: 9d7a 463f 664b 553f 6ffe 4e3f d720 4b3f
000001a0: 75af 473f 549a 503f 3281 543f 3b30 4d3f
000001b0: e144 4a3f 04b0 463f 9149 483f e8fc 513f
000001c0: 80cd 523f dc7c 503f 4984 4c3f 3f58 473f
000001d0: 6d37 543f eb54 443f 9d9d 543f c9bb 503f
000001e0: b1a2 4c3f 3bbd 3e3f a24a 4c3f 9258 463f
000001f0: 285a 4d3f 19fb 4f3f 6cc8 4f3f cf00 553f

bn3.bias f4 [128]
-0.19320573 -0.17230253 -0.19137971 -0.1646506 -0.19394724 -0.13674419 -0.1481347 -0.20420188
-0.20439215 -0.1816381 -0.1876509 -0.16547072 -0.18560489 -0.16772066 -0.17063257 -0.18444599
-0.17106664 -0.16857116 -0.1443328 -0.19446284 -0.1791488 -0.1786543 -0.18031722 -0.17277372
-0.20092037 -0.17995438 -0.13801485 -0.15133892 -0.10919424 -0.20347881 -0.15944631 -0.17983595
-0.1689206 -0.17794302 -0.17261316 -0.19078168 -0.16849984 -0.19390386 -0.16441186 -0.18766204
-0.22741513 -0.14935385 -0.039332185 -0.1639067 -0.20289172 -0.17011069 -0.14333393 -0.14978449
-0.19465485 -0.20644958 -0.21447484 -0.16667968 -0.1958099 -0.17117871 -0.16653618 -0.19058827
-0.20455755 -0.15934323 -0.20403953 -0.17853878 -0.17983502 -0.22161762 -0.16741373 -0.19461058
-0.20622657 -0.15056281 -0.18052983 -0.1518636 -0.1836016 -0.2016948 -0.11570175 -0.22186978
-0.21021123 -0.14074185 -0.16667949 -0.1884839 -0.15286537 -0.20962529 -0.15514919 -0.19117635
-0.14601846 -0.19465612 -0.16974182 -0.16355777 -0.1921473 -0.17660676 -0.15429266 -0.18739456
-0.19887534 -0.16857949 -0.22939625 -0.17275566 -0.20397696 -0.18109359 -0.19974956 -0.18679619
-0.18563734 -0.20157763 -0.1539843 -0.15161723 -0.16300541 -0.16177973 -0.19332555 -0.19569264
-0.15855266 -0.16680588 -0.15254666 -0.1466545 -0.18874955 -0.15811265 -0.16397116 -0.16790687
-0.15905869 -0.16920011 -0.19372368 -0.17624806 -0.1469406 -0.20620984 -0.18785168 -0.18422405
-0.17808257 -0.21190225 -0.17018184 -0.1759968 -0.18310194 -0.18710251 -0.19447401 -0.16369255
00000000: b9d7 45be 1370 30be 0bf9 43be 2b9a 28be
00000010: 1b9a 46be ab06 0cbe 9fb0 17be 4c1a 51be
00000020: 2d4c 51be 57ff 39be 8f27 40be 2871 29be
00000030: 350f 3ebe f7be 2bbe 4eba 2ebe 69df 3cbe
00000040: 182c 2fbe eb9d 2cbe facb 13be 4421 47be
00000050: c872 37be 27f1 36be 14a5 38be 98eb 30be
00000060: 12be 4dbe f645 38be c453 0dbe 97f8 1abe
00000070: 3ba1 dfbd c05c 50be e545 23be ea26 38be
00000080: 86f9 2cbe b236 36be 81c1 30be 465c 43be
00000090: 398b 2cbe bc8e 46be 955b 28be 7a2a 40be
000000a0: 83df 68be 37f0 18be c91a 21bd 28d7 27be
000000b0: d9c2 4fbe 7f31 2ebe 21c6 12be 1b61 19be
000000c0: 9a53 47be 8567 53be 4b9f 5bbe 14ae 2abe
000000d0: 6482 48be 7949 2fbe 7688 2abe 9229 43be
000000e0: 8977 51be df2a 23be bdef 50be dfd2 36be
000000f0: ac26 38be bbef 62be 816e 2bbe ff47 47be
00000100: 0f2d 53be 232d 1abe d0dc 38be 2282 1bbe
00000110: 0f02 3cbe 1589 4ebe 0af5 ecbd d531 63be
00000120: 9d41 57be a21e 10be 07ae 2abe ec01 41be
00000130: bd88 1cbe 03a8 56be 6edf 1ebe bcc3 43be
00000140: dd85 15be ef53 47be cdd0 2dbe b07b 27be
00000150: 43c2 44be 67d8 34be e5fe 1dbe 5ce4 3fbe
00000160: faa5 4bbe 1aa0 2cbe dae6 6abe dce6 30be
00000170: 56df 50be 9970 39be 268b 4cbe 8047 3fbe
00000180: b717 3ebe 5e6a 4ebe 0fae 1dbe 8c41 1bbe
00000190: e4ea 26be 96a9 25be 22f7 45be a763 48be
000001a0: a15b 22be 29cf 2abe 3135 1cbe 992c 16be
000001b0: 9047 41be 48e8 21be 0ee8 27be c7ef 2bbe
000001c0: 48e0 22be cb42 2dbe 805f 46be 5f7a 34be
000001d0: 9977 16be ac28 53be 315c 40be 3ba5 3cbe
000001e0: 475b 36be e7fc 58be 2644 2ebe 8138 34be
000001f0: 137f 3bbe cd97 3fbe 3224 47be 059f 27be

bn3.running_mean f4 [128]
-2.4843237 -2.2189922 -7.371088 -4.740072 -4.55172 -3.4138522 -5.7237415 3.0266945
-6.1833916 -2.9230402 -5.3960567 1.5087963 -0.84207124 -1.9212137 0.65748465 -6.6560254
-1.0461699 0.09439729 -4.7241325 -7.51371 -0.41843456 -0.31022143 0.7829511 -4.4191084
-1.1086624 -0.6153674 -1.4557958 2.2275648 -8.452915 0.117642276 -5.9471636 -0.82786757
-6.6576667 0.84509844 -4.842469 -6.382735 3.873957 -4.101067 -6.320549 -3.509492
3.106344 -4.3330965 -10.298216 -1.18573 1.8163099 -3.1500201 -9.697362 -6.0580673
0.1923259 -0.93134964 1.18747 -7.5518684 -2.3911104 -7.262877 -8.366458 -2.648256
1.796927 -1.3605301 -3.0573702 -3.3927276 -6.349118 -1.2540708 -10.602515 -5.293066
4.539767 -0.31502396 -4.5362473 -6.6939883 0.8651742 -0.344213 -8.723457 2.0846329
2.7831166 -10.766918 -0.9828594 -2.700034 -6.6494007 5.57715 -2.043056 -6.7952037
-6.1852365 4.7029986 -7.298527 -1.9909248 1.0128884 -2.8559942 -1.3054641 -5.925221
-3.755892 -4.5577903 2.4788847 -2.6936097 -0.9992337 -2.3945613 -4.347446 -1.1150459
-1.6367896 1.6730108 -4.582846 -2.067562 0.35911638 -6.05826 -6.247532 0.478724
-1.4024057 -1.0855038 -10.158957 -8.544901 -1.5916352 -2.26024 -0.42400283 -1.2922374
-2.040436 -1.5168824 -6.2670593 -1.1078079 -6.4227586 2.03062 -0.9523776 -4.792983
-1.1797669 0.01347168 0.1098438 -6.4550943 -5.789407 -3.8754542 -2.3265576 -5.3831472
00000000: 29ff 1ec0 f803 0ec0 f4df ebc0 abae 97c0
00000010: b1a7 91c0 8e7c 5ac0 e428 b7c0 5db5 4140
00000020: 58de c5c0 1713 3bc0 7fac acc0 3d20 c13f
00000030: fb91 57bf 55ea f5bf ea50 283f 29fe d4c0
00000040: e5e8 85bf 5e53 c13d 182c 97c0 5070 f0c0
00000050: 0e3d d6be 58d5 9ebe 7c6f 483f 5669 8dc0
00000060: a6e8 8dbf b888 1dbf 8457 babf 6c90 0e40
00000070: 243f 07c1 6fee f03d 2a4f bec0 21ef 53bf
00000080: 9b0b d5c0 5f58 583f 82f5 9ac0 5d3f ccc0
00000090: e9ee 7740 f13b 83c0 f041 cac0 849b 60c0
000000a0: 57ce 4640 baa8 8ac0 7ec5 24c1 00c6 97bf
000000b0: d87c e83f ee99 49c0 6528 1bc1 b0db c1c0
000000c0: 15f1 443e ee6c 6ebf 04ff 973f e8a8 f1c0
000000d0: f407 19c0 7d69 e8c0 03dd 05c1 077d 29c0
000000e0: b401 e63f da25 aebf f4ab 43c0 7322 59c0
000000f0: fa2b cbc0 6485 a0bf e7a3 29c1 cc60 a9c0
00000100: c545 9140 d24a a1be f028 91c0 2735 d6c0
00000110: 0e7c 5d3f b03c b0be 4893 0bc1 a06a 0540
00000120: 951e 3240 4c45 2cc1 ac9c 7bbf 5bcd 2cc0
00000130: e4c7 d4c0 0378 b240 6ec1 02c0 4f72 d9c0
00000140: 75ed c5c0 f77e 9640 888d e9c0 a0d6 febf
00000150: 54a6 813f 9cc8 36c0 7319 a7bf 699b bdc0
00000160: 8960 70c0 6bd9 91c0 0ca6 1e40 1a64 2cc0
00000170: c8cd 7fbf 7e40 19c0 471e 8bc0 d3b9 8ebf
00000180: 5282 d1bf 3825 d63f ada6 92c0 f052 04c0
00000190: 1ade b73e 44dd c1c0 c8eb c7c0 501b f53e
000001a0: 0882 b3bf caf1 8abf 168b 22c1 eab7 08c1
000001b0: b4ba cbbf c6a7 10c0 e616 d9be 0968 a5bf
000001c0: 8196 02c0 3429 c2bf c08b c8c0 a6cc 8dbf
000001d0: 3d87 cdc0 aef5 0140 05cf 73bf 1e60 99c0
000001e0: 9a02 97bf 52b8 5c3c c9f5 e03d 2290 cec0
000001f0: d242 b9c0 7107 78c0 52e6 14c0 be42 acc0

bn3.running_var f4 [128]
123.13823 79.78756 267.40622 183.41234 201.3976 41.449245 176.27013 152.88536
270.61606 135.58733 183.42816 30.163307 56.835068 19.000534 88.36451 237.5475
89.86803 62.698647 55.070335 306.87936 79.82949 141.3973 94.27641 139.85904
42.15337 73.45946 47.100163 21.258863 61.50126 74.17427 53.41767 177.01851
40.31834 70.90714 43.776176 249.96884 112.77872 19.609999 227.09685 33.865887
161.6042 138.6739 359.54056 148.76712 99.71097 84.79645 185.82092 185.5458
108.67946 52.171013 108.61859 195.80038 128.04433 290.2023 286.51645 127.86978
138.03075 62.687683 152.91142 116.64475 255.32898 53.80865 470.89572 201.46031
194.50522 86.908966 123.35514 89.89268 114.00067 68.41066 68.63223 98.20997
156.608 450.99835 77.5169 90.73991 180.44023 206.51404 70.40807 231.36505
218.88628 47.30816 245.2997 45.036366 114.19345 66.74473 50.533783 229.30495
143.2961 51.320553 157.32967 57.145527 54.433968 20.869373 159.17973 128.82292
114.38328 111.924774 152.43059 78.5062 106.51545 196.82076 202.4605 107.8469
59.906464 71.98159 365.50195 84.87685 85.133446 30.00815 25.432508 174.53008
95.006256 90.21141 173.9122 35.81304 202.58727 39.441242 98.92255 168.8705
55.997677 72.9273 115.561874 39.676567 188.81256 125.62294 48.10531 269.33957
00000000: c646 f642 3b93 9f42 ffb3 8543 8f69 3743
00000010: c965 4943 07cc 2542 2745 3043 a7e2 1843
00000020: db4e 8743 5b96 0743 9c6d 3743 744e f141
00000030: 1c57 6342 1801 9841 a1ba b042 298c 6d43
00000040: 6ebc b342 6acb 7a42 0648 5c42 8f70 9943
00000050: b3a8 9f42 b565 0d43 868d bc42 eadb 0b43
00000060: 0d9d 2842 3eeb 9242 9166 3c42 2712 aa41
00000070: 4a01 7642 3a59 9442 b2ab 5542 bd04 3143
00000080: fb45 2142 75d0 8d42 ce1a 2f42 06f8 7943
00000090: b48e e142 47e1 9c41 cb18 6343 ab76 0742
000000a0: ad9a 2143 85ac 0a43 31c5 b343 62c4 1443
000000b0: 046c c742 c897 a942 28d2 3943 ba8b 3943
000000c0: e25b d942 1eaf 5042 b83c d942 e6cc 4343
000000d0: 590b 0043 e519 9143 1b42 8f43 54bd ff42
000000e0: df07 0a43 30c0 7a42 53e9 1843 1d4a e942
000000f0: 3854 7f43 0f3c 5742 a772 eb43 d775 4943
00000100: 5681 4243 64d1 ad42 d5b5 f642 0dc9 b342
00000110: 5800 e442 42d2 8842 b443 8942 816b c442
00000120: a69b 1c43 ca7f e143 a708 9b42 d57a b542
00000130: b370 3443 9883 4e43 efd0 8c42 745d 6743
00000140: e3e2 5a43 8e3b 3d42 b94c 7543 3d25 3442
00000150: 0c63 e442 4d7d 8542 9822 4a42 114e 6543
00000160: cd4b 0f43 3f48 4d42 6554 1d43 0595 6442
00000170: 62bc 5942 7af4 a641 032e 1f43 abd2 0043
00000180: 3dc4 e442 7cd9 df42 3b6e 1843 2d03 9d42
00000190: e907 d542 1dd2 4443 e375 4a43 9db1 d742
000001a0: 38a0 6f42 93f6 8f42 40c0 b643 f2c0 a942
000001b0: 5344 aa42 b110 f041 c775 cb41 b387 2e43
000001c0: 3403 be42 3e6c b442 86e9 2d43 8e40 0f42
000001d0: 5796 4a43 d5c3 1d42 58d8 c542 d9de 2843
000001e0: 9ffd 5f42 c7da 9142 ae1f e742 ceb4 1e42
000001f0: 04d0 3c43 f23e fb42 d66b 4042 77ab 8643
