models/saved_models/ser_mel.pt (torch, 971166 bytes, 20 tensors)

conv1.weight f4 [32, 1, 3, 3]
0.08297313 -0.14479275 -0.1709619 0.124145225 -0.11798834 0.123356655 0.0043166447 0.108637944
-0.061540313 0.30508167 -0.21078952 0.058615007 0.28171778 0.018751718 0.27581146 -0.049022045
-0.2735455 -0.24149631 0.09673698 -0.28433093 -0.15676819 -0.3218507 0.09358263 0.02287066
0.031460736 -0.074712925 -0.23745967 0.3270496 0.2745805 -0.1880466 0.31285903 0.31311807
-0.19207625 0.28581405 0.07303522 -0.28275442 -0.036934905 -0.104957454 -0.13646933 0.2890594
-0.17204164 0.31853938 0.26720497 -0.030459631 0.21307293 -0.21451059 -0.26488388 -0.09744812
0.2804404 0.2949288 0.07255937 0.096561134 0.17355633 -0.081877425 -0.2199526 0.23633444
-0.23420455 -0.17790449 -0.2554245 0.21641172 0.021265967 -0.28711623 0.30100054 0.041630935
-0.042988397 0.308834 -0.13152619 -0.09901377 -0.13842641 0.00022024331 0.2756181 0.13634868
-0.2667441 0.26410463 -0.18749402 0.34003633 0.09498478 0.31023404 -0.17654268 0.09688495
-0.1401651 0.31243882 -0.320618 -0.14298797 0.10322813 0.13083017 0.11252554 -0.26347575
-0.094523974 -0.12472711 -0.2672931 -0.15088378 -0.26629174 0.14260456 -0.004485458 0.30302376
-0.04858903 -0.30438262 -0.29551825 -0.21100916 0.09522458 -0.24385661 -0.007521607 -0.25034335
-0.2479891 0.15854801 0.19055608 -0.16514768 0.25888425 -0.072885156 -0.10975372 -0.101801276
0.14053299 0.30587962 0.31804723 0.022200357 0.082226455 0.05195759 0.31122625 -0.1892205
0.08448245 0.16854346 -0.10171759 -0.17263633 0.18065432 0.17228986 -0.315772 -0.07735496
-0.10982834 -0.1386124 -0.26517928 0.3029972 -0.31813517 0.15743174 -0.12253948 0.08388991
-0.30957526 -0.33976346 -0.27986693 0.30292702 -0.33954564 0.06024188 -0.27775538 0.0910375
-0.11903551 0.20564085 0.061741054 -0.21390305 0.32093108 0.00937601 -0.2402361 -0.18264195
0.027294211 -0.18398447 -0.07128127 0.30939856 0.3045364 0.21768141 0.07789391 -0.1385247
-0.15919934 0.064743385 0.24996889 -0.21552184 -0.15061955 0.26074556 0.1416062 -0.07666756
-0.05583143 0.3220165 0.30636406 0.051372975 -0.22295307 0.26349044 0.1515263 0.26069582
0.0631675 -0.0046603 0.19609988 0.3147707 0.2345199 0.21896575 0.08406437 -0.05008393
0.015072683 -0.11582096 0.027893163 -0.2290453 0.20594455 0.32110238 0.2074538 -0.2623074
-0.0034429922 0.080735944 0.28731745 0.2440379 0.15154213 -0.14369701 0.25482926 -0.3394204
-0.24365658 0.044437844 0.11715249 0.10998851 -0.29748654 0.264333 -0.29524043 -0.00015571315
-0.1572496 0.027169457 -0.28146768 0.1534872 -0.1202119 -0.11567693 -0.21715617 -0.06234498
-0.16447343 -0.24979298 -0.19568664 0.1191818 0.12509765 -0.058320742 -0.025323339 0.059255913
0.21703884 -0.24664186 -0.00065154966 -0.12177227 -0.26020676 0.051503368 -0.0341419 -0.21865317
-0.05199925 0.005989653 0.33860636 0.05384702 0.1196387 -0.19088675 0.08044724 0.24397366
0.33973742 -0.14663512 -0.10846763 -0.087299734 0.06284251 -0.21613765 0.07049621 -0.071474336
0.04037864 -0.28014892 0.021365684 -0.09927024 0.22779112 0.05547497 0.17072764 0.23343948
00000000: d1ed a93d 8d44 14be a310 2fbe da3f fe3d
00000010: dfa3 f1bd 6aa2 fc3d a472 8d3b 927d de3d
00000020: b211 7cbd aa33 9c3e 35d9 57be 4a16 703d
00000030: 503d 903e 349d 993c 2937 8d3e 57cb 48bd
00000040: 280e 8cbe cf4a 77be 0a1e c63d d393 91be
00000050: d787 20be 9dc9 a4be 40a8 bf3d 405b bb3c
00000060: f9dc 003d 1703 99bd a128 73be 0c73 a73e
00000070: d195 8c3e 4a8f 40be 0f2f a03e 0351 a03e
00000080: a3af 44be 3856 923e 7d93 953d 30c5 90be
00000090: 0e49 17bd eff3 d6bd 9ebe 0bbe 98ff 933e
000000a0: af2b 30be 9817 a33e 17cf 883e 7a86 f9bc
000000b0: ca2f 5a3e aaa8 5bbe dc9e 87be e192 c7bd
000000c0: e295 8f3e e800 973e 029a 943d d8c1 c53d
000000d0: c0b8 313e 5aaf a7bd 413b 61be a801 723e
000000e0: 51d3 6fbe 982c 36be 00c7 82be 099b 5d3e
000000f0: f735 ae3c e600 93be be1c 9a3e 3385 2a3d
00000100: 9a14 30bd 7d1f 9e3e cdae 06be bbc7 cabd
00000110: a7bf 0dbe 1df1 6639 d11d 8d3e fd9e 0b3e
00000120: af92 88be b938 873e 6ffe 3fbe 3e19 ae3e
00000130: 6187 c23d ffd6 9e3e 9bc7 34be 9e6b c63d
00000140: 7187 0fbe fbf7 9f3e 0b28 a4be 706b 12be
00000150: 4569 d33d 58f8 053e ca73 e63d 4be6 86be
00000160: c995 c1bd ed70 ffbd a4da 88be 4781 1abe
00000170: 6457 88be ee06 123e c0fa 92bb ee25 9b3e
00000180: 4a05 47bd 0ad8 9bbe 2b4e 97be c912 58be
00000190: 1b05 c33d 8cb5 79be d077 f6bb 012d 80be
000001a0: dbf0 7dbe 695a 223e 2221 433e 791c 29be
000001b0: 7a8c 843e d044 95bd 8fc6 e0bd 307d d0bd
000001c0: e1e7 0f3e 419c 9c3e 16d7 a23e 86dd b53c
000001d0: 5866 a83d 7bd1 543d 0c59 9f3e 05c3 41be
000001e0: 2205 ad3d a896 2c3e 5051 d0bd 94c7 30be
000001f0: 72fd 383e c16c 303e deac a1be 476c 9ebd
00000200: aeed e0bd 69f0 0dbe 94c5 87be 7322 9b3e
00000210: 9de2 a2be c935 213e fbf5 fabd 79ce ab3d
00000220: a680 9ebe 7af5 adbe b84a 8fbe 4019 9b3e
00000230: edd8 adbe 31c0 763d f435 8ebe de71 ba3d
00000240: e4c8 f3bd 8493 523e 30e4 7c3d 6709 5bbe
00000250: 1451 a43e d69d 193c 7400 76be 7e06 3bbe
00000260: 1c98 df3c 6d66 3cbe eafb 91bd 7d69 9e3e
00000270: 32ec 9b3e e0e7 5e3e d886 9f3d 6bd9 0dbe
00000280: 2705 23be 2e98 843d d8f7 7f3e c2b1 5cbe
00000290: 033c 1abe 7180 853e 3701 113e e203 9dbd
000002a0: 7faf 64bd 59df a43e c0db 9c3e 786c 523d
000002b0: cf4d 64be 38e8 863e b629 1b3e ec79 853e
000002c0: f65d 813d 6eb5 98bb 68ce 483e a029 a13e
000002d0: fc25 703e 8f38 603e f129 ac3d cf24 4dbd
000002e0: 6af3 763c 8a33 edbd 3480 e43c da8a 6abe
000002f0: 21e3 523e 8867 a43e c56e 543e 284d 86be
00000300: d3a3 61bb e358 a53d 461b 933e 12e5 793e
00000310: dc2d 1b3e 4f25 13be fb78 823e 83c8 adbe
00000320: 1c81 79be 7504 363d a5ed ef3d a841 e13d
00000330: 2850 98be a856 873e c129 97be ee46 23b9
00000340: 0a06 21be 7b92 de3c 881c 90be c02b 1d3e
00000350: a831 f6bd 07e8 ecbd 305e 5ebe 735d 7fbd
00000360: b96b 28be bbc9 7fbe 1462 48be 9615 f43d
00000370: 9919 003e bbe1 6ebd e472 cfbc 54b6 723d
00000380: 6e3f 5e3e af8f 7cbe c2cc 2aba bd63 f9bd
00000390: d239 85be 32f5 523d 60d8 0bbd 9ee6 5fbe
000003a0: 2afd 54bd da44 c43b d05d ad3e b18e 5c3d
000003b0: 2205 f53d d177 43be 86c1 a43d 3bd4 793e
000003c0: 10f2 ad3e 8427 16be 4724 debd 34ca b2bd
000003d0: 93b3 803d 3053 5dbe 5160 903d 2361 92bd
000003e0: 1364 253d ae6f 8fbe 1607 af3c 324e cbbd
000003f0: 1342 693e b939 633d 3ad3 2e3e c20a 6f3e

conv1.bias f4 [32]
0.06915914 -0.2515426 -0.11892402 0.32462782 -0.09307468 -0.09145153 0.052431997 0.3080032
0.11391297 0.12158695 0.27787262 0.2707215 -0.2559252 -0.10263312 -0.029580321 -0.23257974
-0.18345834 -0.05847045 0.051556204 0.17404103 -0.19576125 0.30766624 -0.17289814 0.1505557
0.1537337 0.28003046 0.1545664 -0.11007543 -0.2789782 -0.1298941 -0.0073675034 0.15171811
00000000: 4fa3 8d3d 31ca 80be 708e f3bd 9e35 a63e
00000010: f09d bebd f14a bbbd efc2 563d 98b2 9d3e
00000020: 344b e93d 9402 f93d 5245 8e3e 029c 8a3e
00000030: a108 83be 5031 d2bd 6e52 f2bc 6229 6ebe
00000040: 81dc 3bbe b67e 6fbd 992c 533d d037 323e
00000050: a375 48be 6e86 9d3e 360c 31be 462b 1a3e
00000060: 5e6c 1d3e 2760 8f3e a846 1e3e 3a6f e1bd
00000070: 3bd6 8ebe f502 05be 196b f1bb fe5b 1b3e

bn1.weight f4 [32]
0.98693293 0.9838725 1.0119044 1.0100212 0.9920804 0.9858351 1.0085928 0.99863756
0.9951597 0.9856659 1.0124415 1.0101413 1.0146574 1.0131571 1.0110092 1.0152543
0.9896297 1.0009665 0.9969316 0.9974793 0.9972205 1.0144278 0.9998004 1.0110958
0.98751265 1.0120498 1.0114747 0.99186146 0.9914074 0.99245214 1.0003756 1.0020839
00000000: a3a7 7c3f 11df 7b3f 1586 813f 6048 813f
00000010: fbf8 7d3f b05f 7c3f 9219 813f b6a6 7f3f
00000020: c9c2 7e3f 9a54 7c3f af97 813f 4f4c 813f
00000030: 4be0 813f 22af 813f c068 813f daf3 813f
00000040: 5f58 7d3f ac1f 803f e936 7f3f ce5a 7f3f
00000050: d849 7f3f c5d8 813f ebf2 7f3f 966b 813f
00000060: a1cd 7c3f d98a 813f 0178 813f a2ea 7d3f
00000070: e0cc 7d3f 5811 7e3f 4f0c 803f 4944 803f

bn1.bias f4 [32]
-0.017100444 -0.009072838 -0.0007601705 -0.009911793 -0.016330488 -0.01671028 0.0044309157 -0.016259125
-0.006685464 -0.012322809 -0.006706898 -0.0069173556 -0.0051208083 -0.0045897327 0.0010103334 -0.001158785
-0.009971442 -0.010802049 -0.016819568 -0.008959357 -0.008589226 -0.0031685475 0.0025077795 -0.020199656
-0.01284413 -0.008061872 -0.005705051 -0.013622023 -0.01634295 -0.009161019 -0.011399851 -0.013802379
00000000: 3b16 8cbc 3ea6 14bc 2e46 47ba 1365 22bc
00000010: 84c7 85bc ffe3 88bc 3731 913b db31 85bc
00000020: bd11 dbbb 9be5 49bc 8ac5 dbbb fcaa e2bb
00000030: 74cc a7bb 7865 96bb 2a6d 843a 5fe2 97ba
00000040: 425f 23bc 14fb 30bc 31c9 89bc 44ca 12bc
00000050: d3b9 0cbc 68a7 4fbb 8f59 243b c079 a5bc
00000060: 3070 52bc f115 04bc 70f1 babb e82e 5fbc
00000070: a6e1 85bc 1918 16bc 71c6 3abc 6023 62bc

bn1.running_mean f4 [32]
1.9363104 -5.716979 28.267271 -31.187105 -20.482216 -9.045396 13.718969 -11.490236
-11.616058 9.8620205 30.63462 23.511326 -28.635267 -17.553097 30.224537 34.203403
4.089901 -14.53659 -26.368023 -36.328255 -13.284501 -29.849026 12.861513 26.50736
5.965763 30.000376 -24.403955 18.865906 -13.144911 -9.824059 -34.87946 7.4223433
00000000: 05d9 f73f 7ef1 b6c0 5f23 e241 317f f9c1
00000010: 94db a3c1 f1b9 10c1 e680 5b41 02d8 37c1
00000020: 60db 39c1 d6ca 1d41 b413 f541 3217 bc41
00000030: 0715 e5c1 be6c 8cc1 dacb f141 49d0 0842
00000040: 78e0 8240 df95 68c1 b6f1 d2c1 2250 11c2
00000050: 518d 54c1 ceca eec1 c2c8 4d41 130f d441
00000060: 88e7 be40 c500 f041 4d3b c3c1 60ed 9641
00000070: 8e51 52c1 582f 1dc1 9184 0bc2 d683 ed40

bn1.running_var f4 [32]
7.839848 44.80118 629.5756 892.1958 335.06973 76.896996 171.0114 117.854965
115.221886 83.58818 730.889 441.19345 629.6367 249.85814 744.07904 935.1723
34.875874 175.30852 557.33026 1043.5289 140.75883 731.83527 146.37668 544.50165
38.131195 700.6462 477.30533 282.761 141.7548 87.76035 970.3672 64.69524
00000000: 09e0 fa40 6934 3342 d764 1d44 880c 5f44
00000010: ed88 a743 43cb 9942 eb02 2b43 beb5 eb42
00000020: 9b71 e642 262d a742 e5b8 3644 c398 dc43
00000030: c068 1d44 afdb 7943 0f05 3a44 07cb 6944
00000040: e580 0b42 fb4e 2f43 2355 0b44 ed70 8244
00000050: 43c2 0c43 75f5 3644 6e60 1243 1b20 0844
00000060: 5886 1842 5b29 2f44 15a7 ee43 6861 8d43
00000070: 3bc1 0d43 4d85 af42 8097 7244 f663 8142

conv2.weight f4 [64, 32, 3, 3]
-0.014103028 0.0030032308 -0.044853315 -0.007575832 -0.0012018062 -0.02388027 -0.008508691 0.011858027
-0.010530231 0.041192256 -0.044085912 0.035943978 -0.0468409 -0.010062843 0.04039931 0.0030643863
-0.05441911 -0.027217418 0.06434609 -0.046169706 0.05935163 0.02606719 0.024698045 0.058711544
0.06752132 -0.04620519 -0.014521486 -0.0280508 -0.05534283 -0.00970053 -0.0035059864 0.01810147
-0.0138572045 -0.044132452 0.037480827 -0.019132065 0.022457326 0.012663092 -0.0020025556 -0.018740252
-0.052082766 -0.042177126 -0.047876578 -0.03029291 -0.002951745 -0.010546833 0.04866227 0.01878222
-0.026523 0.012817808 0.03797584 0.04122627 0.045699507 -0.06421871 0.04209107 0.00050837174
-0.0011621675 -0.0335045 0.0055604572 0.047132835 -0.045112476 0.05434576 0.058571916 0.035935365
-0.043940958 0.049528297 -0.0558641 -0.032486632 -0.0010381644 -0.01829768 -0.029913539 -0.03803013
-0.0055476273 -0.048191004 0.05367356 -0.032060668 -0.023673883 0.042886317 0.054836713 0.041727286
0.011722478 -0.03622809 -0.0020890506 -0.01312774 0.0003930031 0.035341527 0.04004805 0.06644817
0.06265162 0.03720213 0.04271342 0.048277587 -0.02198623 0.043918055 0.014788031 -0.031527605
0.02659435 -0.0047639767 -0.0080799805 -0.04326824 -0.036599673 -0.04123791 0.028653594 0.021962764
0.04721223 0.0071873288 -0.005853687 0.005032358 -0.03958287 -0.022613341 0.02915685 -0.04244941
0.063159294 -0.052748352 0.03829376 -0.012379718 0.057150327 0.0109447455 -0.01452925 -0.032006
0.059525996 0.015128975 -0.03628786 -0.003592895 -0.021258865 -0.05404021 0.0071215793 -0.0011841356
0.03509515 -0.02776913 -0.020508816 0.06019556 0.020454055 -0.0015453892 -0.0030561844 0.031977117
-0.019043552 -0.018526454 0.02040503 -0.045109067 0.058321863 -0.03232165 0.03186422 -0.035458922
0.011125451 -0.012997016 -0.04381812 0.05254015 -0.023753667 -0.0097588785 0.0140774865 0.04982911
0.04246846 0.031376798 0.028541725 -0.022838444 -0.024515538 -0.052274603 0.05274983 -0.030915571
0.025704155 0.0016063987 -0.0451653 0.015472879 -0.03263902 -0.028804855 0.049657803 -0.034914307
0.0595963 -0.04910092 0.008504281 -0.010349975 0.008286549 0.039990608 -0.02495153 -0.025401417
-0.03943516 0.0011596883 0.019974941 -0.002869212 0.03365796 0.04918687 -0.0047674202 -0.030547967
0.0131257465 -0.048360907 0.025322534 0.041201286 0.017274782 -0.036075898 0.006733587 -0.013077827
0.007717097 0.011607695 0.030205373 0.05441369 0.027294615 0.0070780525 0.067669556 -0.036585663
-0.0040368275 -0.0028865174 0.0436568 0.0534575 0.021586759 0.010288546 0.007855441 0.06440432
-0.022150572 0.048659943 0.053277064 0.06672775 0.03295258 0.02278215 -0.006649536 0.029272158
-0.006765646 -0.023356102 0.026210196 0.056879032 0.04436071 -0.013074317 0.009371838 0.027625125
-0.010583039 0.031017018 0.028959328 -0.00088252797 -0.017278975 0.03551111 0.046885427 0.066143826
-0.04183009 -0.0066234637 -0.0347552 -0.02421336 0.020791497 -0.042287193 0.03738286 0.04984924
0.015731117 0.0026629376 0.06363556 -0.033609863 -0.032873847 0.01386469 -0.0060603684 -0.0012176645
0.02924661 0.057291582 -0.028394146 0.059287824 0.017891094 0.043221187 0.011509101 0.04837363
00000000: 6310 67bc dad1 443b 1cb8 37bd af3e f8bb
00000010: ed85 9dba 8ea0 c3bc 0968 0bbc 2c48 423c
00000020: fd86 2cbc 36b9 283d 6e93 34bd fe39 133d
00000030: 3edc 3fbd 9fde 24bc bf79 253d dfd3 483b
00000040: 93e6 5ebd 10f7 debc e2c7 833d 721c 3dbd
00000050: b21a 733d dc8a d53c 8e53 ca3c 847b 703d
00000060: 9e48 8a3d a741 3dbd 87eb 6dbc cbca e5bc
00000070: 2aaf 62bd f9ee 1ebc b1c4 65bb 8949 943c
00000080: 5409 63bc 3bc4 34bd 7f85 193d d9ba 9cbc
00000090: 6df8 b73c dc78 4f3c 4f3d 03bb 2885 99bc
000000a0: bd54 55bd ecc1 2cbd 3b1a 44bd d628 f8bc
000000b0: 1072 41bb a0cc 2cbc 1752 473d 2cdd 993c
000000c0: c346 d9bc c901 523c 8e8c 1b3d e1dc 283d
000000d0: 682f 3b3d 1985 83bd b067 2c3d 4044 053a
000000e0: df53 98ba 043c 09bd 7f34 b63b 5c0e 413d
000000f0: dcc7 38bd a999 5e3d 1be9 6f3d f630 133d
00000100: 6ffb 33bd 2fde 4a3d c1d1 64bd b410 05bd
00000110: 0413 88ba 04e5 95bc 3d0d f5bc 7bc5 1bbd
00000120: dfc8 b5bb ee63 45bd cfd8 5b3d 0c52 03bd
00000130: bbef c1bc 90a9 2f3d 769c 603d 3bea 2a3d
00000140: a30f 403c e863 14bd 74e8 08bb bb15 57bc
00000150: fc0b ce39 47c2 103d 6d09 243d fa15 883d
00000160: 7e4f 803d 4361 183d 44f4 2e3d b8be 453d
00000170: 771c b4bc 6be3 333d 7f49 723c 1723 01bd
00000180: 65dc d93c 221b 9cbb e561 04bc 0a3a 31bd
00000190: 8ae9 15bd 15e9 28bd f1ba ea3c 41eb b33c
000001a0: 9c61 413d af83 eb3b 49d0 bfbb 7be6 a43b
000001b0: a621 22bd 9d3f b9bc 59da ee3c 6fdf 2dbd
000001c0: a959 813d a80e 58bd ebd9 1c3d 4dd4 4abc
000001d0: 7616 6a3d 9751 333c 170c 6ebc b918 03bd
000001e0: 88d1 733d 85df 773c 94a2 14bd c776 6bbb
000001f0: 1227 aebc 4459 5dbd 235c e93b ff34 9bba
00000200: efbf 0f3d 167c e3bc 1b02 a8bc 9f8f 763d
00000210: 438f a73c a88e caba 444a 48bb 70fa 023d
00000220: 3901 9cbc cac4 97bc 7328 a73c 49c4 38bd
00000230: e8e2 6e3d b563 04bd 0e84 023d 603d 11bd
00000240: 8647 363c 70f1 54bc a17a 33bd 5734 573d
00000250: 0d97 c2bc b4e3 1fbc 42a5 663c 9c19 4c3d
00000260: 68f3 2d3d f584 003d 56d0 e93c b017 bbbc
00000270: cfd4 c8bc e51d 56bd 3510 583d a742 fdbc
00000280: 8591 d23c cc8d d23a 40ff 38bd f581 7d3c
00000290: 7eb0 05bd 29f8 ebbc fb65 4b3d 4e02 0fbd
000002a0: 401b 743d 0c1e 49bd 8a55 0b3c f192 29bc
000002b0: 4ec4 073c 31cd 233d 2767 ccbc a216 d0bc
000002c0: c386 21bd af00 983a 7da2 a33c 6409 3cbb
000002d0: eedc 093d 2c78 493d 0538 9cbb bb3f fabc
000002e0: 5f0d 573c 1616 46bd 3471 cf3c aec2 283d
000002f0: d883 8d3c 52c4 13bd 6ca5 dc3b 6244 56bc
00000300: b4df fc3b 342e 3e3c 4271 f73c e4e0 5e3d
00000310: f598 df3c 02ef e73b 5696 8a3d d9da 15bd
00000320: 5d47 84bb ba2b 3dbb 79d1 323d 40f6 5a3d
00000330: b7d6 b03c 4a91 283c 1cb4 003c 6ae6 833d
00000340: 1e75 b5bc a64f 473d 0d39 5a3d 8fa8 883d
00000350: 49f9 063d a2a1 ba3c 5ae4 d9bb 2acc ef3c
00000360: 5ab2 ddbb 4c55 bfbc c4b6 d63c fdf9 683d
00000370: 93b3 353d a935 56bc 568c 193c 164e e23c
00000380: 7c64 2dbc 6717 fe3c 1d3c ed3c 7359 67ba
00000390: a38c 8dbc 1974 113d ef0a 403d 6a76 873d
000003a0: 0756 2bbd a409 d9bb 785b 0ebd 195b c6bc
000003b0: ee52 aa3c 5635 2dbd c51e 193d b72e 4c3d
000003c0: 8bde 803c ae84 2e3b 5c53 823d 7faa 09bd
000003d0: baa6 06bd ba28 633c 0e96 c6bb 0a9a 9fba
000003e0: 9696 ef3c 94aa 6a3d d79a e8bc cad7 723d
000003f0: 5890 923c b308 313d ab90 3c3c 6d23 463d

conv2.bias f4 [64]
-0.0250802 0.013213982 -0.02755217 -0.035511263 -0.020921692 0.03444971 -0.026764693 0.041810203
-0.020491775 0.02789866 -0.05267486 0.016672192 0.03254662 -0.036442894 -0.044525657 0.00096418266
0.05109554 -0.02638677 0.05893331 -0.014675042 -0.034593906 0.014165305 0.0021175828 -0.041806556
-0.03416179 -0.05674531 0.028494837 -0.020786962 -0.04883041 0.03139431 0.015127013 -0.0507356
-0.05395033 0.030678174 -0.05022864 -0.030449748 -0.043294393 0.02022039 -0.03730019 -0.027743889
-0.007962867 -0.045858126 -0.026568532 -0.0052348054 -0.02063876 0.028752433 0.033628177 0.031237412
0.02115099 0.012330063 -0.047900435 -0.054664474 -0.041684385 0.008760803 0.0148591455 -0.026264967
0.048358623 0.015616489 0.027501555 -0.020320717 0.052633457 -0.037876472 -0.022818405 0.026294284
00000000: fe74 cdbc 757f 583c 17b5 e1bc 4274 11bd
00000010: f863 abbc 241b 0d3d a141 dbbc 2d41 2b3d
00000020: 5ede a7bc bb8b e43c 98c1 57bd 1f94 883c
00000030: 9b4f 053d 2545 15bd 8960 36bd 34c1 7c3a
00000040: 8f49 513d 1129 d8bc 0e64 713d 966f 70bc
00000050: 57b2 0dbd 9815 683c 25c7 0a3b 5a3d 2bbd
00000060: 3ced 0bbd c56d 68bd 016e e93c 6b49 aabc
00000070: 6502 48bd 5297 003d 4bd7 773c 22d0 4fbd
00000080: 05fb 5cbd cb50 fb3c 8cbc 4dbd c071 f9bc
00000090: 7655 31bd 3ba5 a53c 16c8 18bd 2747 e3bc
000000a0: af76 02bc bbd5 3bbd 40a6 d9bc bb88 abbb
000000b0: 9e12 a9bc 398a eb3c b3bd 093d 9ae5 ff3c
000000c0: d744 ad3c 0804 4a3c 3f33 44bd dbe7 5fbd
000000d0: 3fbd 2abd 7989 0f3c c673 733c a129 d7bc
000000e0: b113 463d 4ddc 7f3c f14a e13c a277 a6bc
000000f0: 2e96 573d 5c24 1bbd aaed babc 1c67 d73c

bn2.weight f4 [64]
1.0156715 1.0077579 0.9831496 1.003631 1.0126417 1.0056589 1.0132655 1.0051641
0.9775751 0.9997239 0.9853256 1.0068134 0.98755324 0.9907441 1.0034484 0.98242986
1.0095794 1.0079346 0.9837337 1.0110831 0.9722773 0.98642266 1.0136881 0.9829615
0.9887846 1.0073911 1.0151881 0.9883145 1.0080199 0.9977346 1.0127157 1.0078794
0.99086964 0.98586977 0.9914617 0.99586177 1.0091118 0.98109454 1.0117619 1.007234
0.9987017 1.0105673 1.0154719 0.9790813 0.99729663 0.98577565 0.9827031 1.0124425
1.0171951 0.9860343 1.0098561 0.9875138 0.9895797 0.9873556 1.0143667 0.98582834
0.9879563 1.014796 0.9884989 0.9933779 1.0123984 0.9848461 1.0022733 0.98729825
00000000: 8601 823f 36fe 803f b1af 7b3f fb76 803f
00000010: 3e9e 813f 6eb9 803f afb2 813f 38a9 803f
00000020: 5d42 7a3f e8ed 7f3f 4c3e 7c3f 43df 803f
00000030: 4ad0 7c3f 68a1 7d3f ff70 803f 8680 7b3f
00000040: e639 813f 0004 813f f9d5 7b3f 2c6b 813f
00000050: 2ae7 783f 3286 7c3f 88c0 813f 5da3 7b3f
00000060: fd20 7d3f 31f2 803f aff1 813f 2e02 7d3f
00000070: cc06 813f 896b 7f3f aba0 813f 3102 813f
00000080: a2a9 7d3f f661 7c3f 6fd0 7d3f ccf0 7e3f
00000090: 932a 813f 0329 7b3f 6a81 813f 0bed 803f
000000a0: eaaa 7f3f 455a 813f fcfa 813f 12a5 7a3f
000000b0: d54e 7f3f cb5b 7c3f 6e92 7b3f b797 813f
000000c0: 7333 823f be6c 7c3f f742 813f b4cd 7c3f
000000d0: 1855 7d3f 56c3 7c3f c5d6 813f 3f5f 7c3f
000000e0: b4ea 7c3f d6e4 813f 440e 7d3f 044e 7e3f
000000f0: 4596 813f e01e 7c3f 7e4a 803f 94bf 7c3f

bn2.bias f4 [64]
0.009577897 0.0004213663 -0.00976512 -0.019749364 0.0087797325 0.004310675 0.0042288047 -0.01079985
-0.026673326 -0.0193098 -0.01812403 -0.010699911 -0.00808945 -0.008705645 -0.019320108 0.007976633
-0.0070756725 -0.0056757582 -0.0055912584 -0.019739024 -0.015403502 -0.017702349 -0.00901105 -0.010254192
-0.014587312 -0.006592645 -0.0076055815 -0.010183089 -0.022503966 -0.020352006 0.008710752 -0.013945978
-0.014864908 -0.02546495 -0.03144385 -0.015076454 -0.0073708114 -0.027505953 -0.0033099442 -0.010578219
-0.011725643 0.00701513 0.0077225515 -0.015928738 -0.010171094 -0.029326769 -0.011116165 0.009691136
0.0023408236 -0.0071079526 0.0078738835 -0.0145314615 9.709472e-05 -0.008482596 0.0103580095 0.004745405
-0.0045642774 0.013044087 -0.017438235 -0.009446395 0.008919281 -0.0054080607 -0.013104082 -0.0055779475
00000000: 9dec 1c3c d4ea dc39 e2fd 1fbc 6bc9 a1bc
00000010: ded8 0f3c 9040 8d3b c991 8a3b dbf1 30bc
00000020: 0582 dabc 962f 9ebc d978 94bc ae4e 2fbc
00000030: 9d89 04bc 1fa2 0ebc 3445 9ebc 6cb0 023c
00000040: 0bdb e7bb b6fb b9bb e036 b7bb bcb3 a1bc
00000050: f85e 7cbc 8404 91bc 15a3 13bc 3301 28bc
00000060: 9fff 6ebc 1d07 d8bb 3e38 f9bb f9d6 26bc
00000070: 3d5a b8bc 40b9 a6bc 8bb7 0e3c ac7d 64bc
00000080: f18b 73bc df9b d0bc 44cb 00bd 3b03 77bc
00000090: d986 f1bb 2a54 e1bc a6eb 58bb 4450 2dbc
000000a0: e91c 40bc 2ddf e53b 750d fd3b fc7c 82bc
000000b0: a9a4 26bc b13e f0bc 9320 36bc 92c7 1e3c
000000c0: 8168 193b d4e9 e8bb 7601 013c 5e15 6ebc
000000d0: 559f cb38 96fa 0abc a4b4 293c 587f 9b3b
000000e0: ef8f 95bb deb6 553c a1da 8ebc 0dc5 1abc
000000f0: 2d22 123c 1a36 b1bb 81b2 56bc 37c7 b6bb

bn2.running_mean f4 [64]
0.58140075 0.50611126 0.3031361 1.2143455 0.4381664 0.53245914 0.6280224 1.1365813
0.7242623 1.2733022 0.5892471 1.2125192 -0.3466167 -0.99133235 1.3789858 -1.0776442
0.8521892 0.2545995 -0.03962748 0.21751633 -1.102756 0.2520014 1.6759039 -1.3828701
-0.26257706 0.1951592 1.4462508 0.12526304 1.4421118 0.94537127 0.53563666 1.5377791
0.5773712 0.82830554 0.90732896 0.6860348 1.1022779 0.6376797 0.7800327 0.5173975
-0.13567817 0.5510848 0.45040625 -0.06981675 0.4306649 1.1735153 0.558383 0.56796545
0.22098824 -0.19611491 0.67594755 -0.121101975 -1.0714366 -1.0964034 0.3646197 -0.138007
-0.48244137 0.8696421 0.5406711 0.41453695 0.83181846 -0.9432349 1.0978632 -0.47876728
00000000: aed6 143f 8290 013f a834 9b3e ac6f 9b3f
00000010: 5957 e03e 3e4f 083f 13c6 203f 7f7b 913f
00000020: 4169 393f 91fb a23f e6d8 163f d433 9b3f
00000030: be77 b1be f5c7 7dbf 9b82 b03f 3ff0 89bf
00000040: 1229 5a3f de5a 823e 6d50 22bd 9abc 5e3e
00000050: 1c27 8dbf 5406 813e 0584 d63f e301 b1bf
00000060: 8070 86be d0d7 473e bf1e b93f f444 003e
00000070: 1f97 b83f da03 723f 7c1f 093f f2d5 c43f
00000080: 99ce 133f d50b 543f b646 683f fa9f 2f3f
00000090: 7117 8d3f fa3e 233f 39b0 473f 2a74 043f
000000a0: 38ef 0abe e513 0d3f a69b e63e 16fc 8ebd
000000b0: 1c80 dc3e c035 963f 30f2 0e3f 2f66 113f
000000c0: be4a 623e 59d2 48be e60a 2d3f 5004 f8bd
000000d0: d624 89bf f256 8cbf 6faf ba3e b551 0dbe
000000e0: 8e02 f7be dda0 5e3f 6c69 0a3f 303e d43e
000000f0: 0ef2 543f d877 71bf c886 8c3f fc20 f5be

bn2.running_var f4 [64]
0.921677 0.91010255 2.6462634 0.5979796 0.99062455 0.71640694 1.1316947 1.1205013
2.0825303 0.6323763 0.5814108 0.75301605 1.1552912 1.4688822 0.792415 2.135748
1.3107866 1.6906728 2.2088826 0.97583675 0.73024756 1.7718906 1.0920862 2.1566553
1.0955114 0.8872537 0.6936024 1.5069498 0.83254915 0.8891626 0.77853066 0.99191004
1.3335896 0.7607451 0.5394804 0.9424579 0.7259656 1.5801265 1.7162875 1.0217189
1.4202454 1.6685389 1.2334368 2.3773577 1.1780555 0.5166238 0.98949254 0.9009953
1.0964338 2.1195118 0.6619738 1.8750377 0.55226356 0.4313149 2.1229615 2.4746506
0.87512827 1.5165235 2.108139 0.7757668 1.0238924 2.3306704 1.053414 1.1830467
00000000: 06f3 6b3f 7bfc 683f 615c 2940 3115 193f
00000010: 9299 7d3f 7266 373f 5fdb 903f 966c 8f3f
00000020: 2d48 0540 6ae3 213f 57d7 143f a9c5 403f
00000030: 95e0 933f 5504 bc3f b6db 4a3f 18b0 0840
00000040: dbc7 a73f f767 d83f 555e 0d40 70d0 793f
00000050: 81f1 3a3f 50cd e23f 7bc9 8b3f a406 0a40
00000060: b839 8c3f 0f23 633f ed8f 313f bbe3 c03f
00000070: f121 553f 29a0 633f c94d 473f d1ed 7d3f
00000080: 10b3 aa3f 31c0 423f 631b 0a3f ec44 713f
00000090: e2d8 393f 9641 ca3f 4faf db3f afc7 823f
000000a0: 9aca b53f af92 d53f 42e1 9d3f a126 1840
000000b0: 86ca 963f 7541 043f 624f 7d3f a1a7 663f
000000c0: f157 8c3f 15a6 0740 1d77 293f 3c01 f03f
000000d0: 2561 0d3f 4ed5 dc3e 9ade 0740 ad60 1e40
000000e0: 6808 603f 711d c23f c0eb 0640 a798 463f
000000f0: e80e 833f b429 1540 45d6 863f 136e 973f

conv3.weight f4 [128, 64, 3, 3]
-0.04901054 -0.017676014 -0.0016107111 -0.027393615 -0.0011286577 -0.05235508 0.008776051 -0.0052642557
-0.05158525 -0.049533237 0.02169933 0.027898537 -0.0147195915 -0.050301157 -0.02908669 -0.025481764
-0.019852828 0.010516313 0.007563033 0.015264002 0.012573463 -0.010166993 0.04176092 -0.0068191853
-0.020691846 0.021226628 -0.027305199 0.029633516 0.041826475 0.0062498827 -0.025983272 0.022854889
0.0025877776 0.0023518815 0.039732933 0.03759248 -0.03428794 0.030594645 -0.02037201 -0.028649881
-0.038967714 -0.014117413 -0.033776455 0.0071280333 0.033374697 0.030068658 0.025330398 0.013375949
-0.004724146 0.027347773 -0.026643243 0.021040225 -0.03929528 -0.013130734 0.02388487 -0.03730148
0.0017828158 -0.04421655 -0.018226024 -0.004473055 -0.015728734 0.018560223 0.030033363 0.039937872
0.0137955295 0.0021658011 0.023252226 -0.0062264283 0.026285117 0.01641594 0.024190893 -0.010024544
0.01299681 0.003266369 0.0052162264 0.027505824 0.023003047 0.040883873 -0.021991374 -0.033364635
0.043938175 0.014925776 0.041948345 0.034033064 -0.01177946 0.05599716 0.032627817 0.032900505
-0.030690437 0.0068846154 -0.04152465 0.024334056 -0.013388761 -0.010297312 0.016468711 0.017778687
-0.03531674 -0.024539758 0.012712981 -0.018701093 0.03577828 -0.018577084 -0.0110994 0.041894108
-0.00991257 -0.0010731776 0.031504016 0.038502216 -0.032559708 -0.02650106 0.0018762479 -0.010457299
-0.03754907 -0.024240227 0.03786488 -0.014365814 -0.02872764 -0.019323368 -0.019760251 0.00042438443
-0.026890809 0.023855614 0.036667157 -0.008594659 -0.027120681 -0.02313626 0.029309735 -0.011276807
0.02674347 -0.024755804 -0.0020823507 0.002772765 0.019489594 0.038329687 -0.018574897 -0.04389575
-0.021574354 -0.04507492 0.019027801 -0.031464905 -0.017377071 -0.03332799 0.012198125 -0.021661084
-0.014857864 -0.033525303 -0.029713053 -0.0443613 -0.03165518 -0.05171717 -0.0047403625 -0.04002994
0.022695603 -0.01050314 -0.04834435 0.008848594 -0.04317031 0.0117533645 -0.023393968 -0.0077129835
0.030054947 -0.0075954436 -0.00625835 0.032124292 -0.017354911 -0.032974955 0.034276422 -0.036521826
0.007533738 -0.04171073 -0.0016640715 -0.017057272 -0.002396804 -0.029580934 -0.00034988776 -0.018095113
0.00846108 -0.0051925206 0.0041863727 -0.0013012969 0.0068057836 -0.02201555 0.010825236 -0.030360252
0.044161435 -0.013820241 0.03487358 0.02785702 0.013085367 0.020670505 -0.002449223 -0.023081232
0.049024906 0.042811543 0.0008180985 0.048617586 0.039691385 0.036840476 0.030152662 0.025678854
0.0137192635 -0.007195468 0.021162808 -0.020480473 0.047405306 0.034641072 0.02570654 -0.0014662003
-0.033087883 0.02473917 0.029890213 -0.009000466 -0.03548498 0.0038452463 0.048951562 -0.020098021
0.015876498 -0.03563622 0.031967375 0.011925983 -0.007662749 0.015661506 -0.007560432 0.03774405
0.03490868 -0.03943526 -0.012233693 0.0021945701 0.0033352894 -0.03208652 -0.002348212 0.013775486
-0.0142075885 -0.0035539707 -0.0050718817 0.0005159657 -0.01351084 -0.027777346 0.04044121 -0.006136984
-0.011657015 0.016855447 0.026741294 0.03603244 -0.026314635 0.039339602 0.009100872 -0.0034952618
0.009392612 0.034697868 -0.021722078 -0.013175048 0.005255792 0.025299713 0.024388807 0.028599473
00000000: 47bf 48bd 4acd 90bc 7f1e d3ba 9368 e0bc
00000010: 78ef 93ba 4872 56bd 6dc9 0f3c c77f acbb
00000020: 0e4b 53bd 5de3 4abd cbc2 b13c 798b e43c
00000030: 712a 71bc 9608 4ebd 3647 eebc 22bf d0bc
00000040: 66a2 a2bc 9d4c 2c3c 52d3 f73b dd15 7a3c
00000050: ed00 4e3c 7693 26bc 800d 2b3d 7973 dfbb
00000060: f281 a9bc 77e3 ad3c 27af dfbc fdc1 f23c
00000070: 3d52 2b3d d1cb cc3b dfda d4bc 2d3a bb3c
00000080: b497 293b 0622 1a3b 00bf 223d 93fa 193d
00000090: 8371 0cbd 9fa1 fa3c 34e3 a6bc 28b3 eabc
000000a0: 9c9c 1fbd b94c 67bc 2e59 0abd 4792 e93b
000000b0: e8b3 083d 8c52 f63c b281 cf3c cc26 5b3c
000000c0: 02cd 9abb 7008 e03c ee42 dabc 8d5c ac3c
000000d0: 16f4 20bd 4a22 57bc 34aa c33c 70c9 18bd
000000e0: 5fad e93a 6a1c 35bd be4e 95bc b492 92bb
000000f0: 8cd9 80bc 9c0b 983c 8708 f63c e595 233d
00000100: a506 623c 1df0 0d3b 747b be3c 1107 ccbb
00000110: e353 d73c b97a 863c fb2b c63c fc3d 24bc
00000120: 92f0 543c 9410 563b e1ec aa3b e553 e13c
00000130: e370 bc3c d975 273d 4127 b4bc 5ba9 08bd
00000140: 84f8 333d 3e8b 743c 07d2 2b3d 4166 0b3d
00000150: a3fe 40bc 475d 653d bfa4 053d aec2 063d
00000160: 836a fbbc 5798 e13b c015 2abd 3758 c73c
00000170: 895c 5bbc 0fb6 28bc 64e9 863c 9ca4 913c
00000180: 49a8 10bd 9a07 c9bc 1b4a 503c 0933 99bc
00000190: 3f8c 123d f82e 98bc 42da 35bc 2899 2b3d
000001a0: 5568 22bc dda9 8cba 5b0a 013d 80b4 1d3d
000001b0: 545d 05bd c018 d9bc 6fec f53a 1755 2bbc
000001c0: 0ecd 19bd 7193 c6bc 3418 1b3d 975e 6bbc
000001d0: 3a56 ebbc 0a4c 9ebc 40e0 a1bc ea7f de39
000001e0: 1d4a dcbc d96c c33c 4d30 163d 9dd0 0cbc
000001f0: 312c debc 4188 bdbc f81a f03c 5bc2 38bc
00000200: 1f15 db3c afcc cabc 0c78 08bb 47b7 353b
00000210: a4a8 9f3c 97ff 1c3d 622a 98bc 08cc 33bd
00000220: b3bc b0bc 7ba0 38bd 31e0 9b3c 58e1 00bd
00000230: 5c5a 8ebc ee82 08bd a5da 473c 9672 b1bc
00000240: 666e 73bc d451 09bd ca68 f3bc 32b4 35bd
00000250: dda8 01bd 62d5 53bd 0b55 9bbb 6ff6 23bd
00000260: 21ec b93c 5d15 2cbc ba04 46bd b1f9 103c
00000270: 5ad3 30bd 2f91 403c b5a4 bfbc 32bd fcbb
00000280: cb35 f63c 33e3 f8bb d812 cdbb c394 033d
00000290: e32b 8ebc bf10 07bd 6f65 0c3d e997 15bd
000002a0: 93dd f63b dfd8 2abd f91c daba b1bb 8bbc
000002b0: b313 1dbb b753 f2bc 2471 b7b9 343c 94bc
000002c0: 57a0 0a3c 0526 aabb d72d 893b 4790 aaba
000002d0: 0d03 df3b f459 b4bc 555c 313c 10b6 f8bc
000002e0: 9fe2 343d 4b6e 62bc 99d7 0e3d 6834 e43c
000002f0: 0264 563c 3155 a93c 2583 20bb da14 bdbc
00000300: 57ce 483d 285b 2f3d a975 563a 3c23 473d
00000310: 6f93 223d 0ae6 163d b702 f73c 765c d23c
00000320: c3c6 603c f6c7 ebbb a05d ad3c aac6 a7bc
00000330: 112c 423d cce3 0d3d 8696 d23c 852d c0ba
00000340: 2987 07bd cda9 ca3c 52dc f43c b176 13bc
00000350: b358 11bd 8700 7c3b 6f81 483d 9ba4 a4bc
00000360: 6e0f 823c 49f7 11bd 39f0 023d 3365 433c
00000370: cc17 fbbb 8f4c 803c 80bd f7bb 8199 1a3d
00000380: 67fc 0e3d de86 21bd d46f 48bc c7d2 0f3b
00000390: df94 5a3b 286d 03bd 76e4 19bb 93b2 613c
000003a0: f2c6 68bc bce9 68bb 0732 a6bb df41 073a
000003b0: 925c 5dbc 518d e3bc afa5 253d c118 c9bb
000003c0: 11fd 3ebc 6f14 8a3c 8f10 db3c c096 133d
000003d0: ca91 d7bc 9022 213d d31b 153c c310 65bb
000003e0: 78e3 193c 5a1f 0e3d 80f2 b1bc 28dc 57bc
000003f0: c738 ac3b 5841 cf3c 09cb c73c 7149 ea3c

conv3.bias f4 [128]
0.03627361 0.036145844 -0.011709834 -0.011304375 -0.0054484163 0.013607991 -0.0012002611 0.051424384
-0.045615196 -0.02303625 0.01612227 -0.016047701 0.02472187 -0.0023937963 -0.004717624 0.02874042
-0.031793408 -0.028020099 0.012035343 0.03143038 -0.04441401 0.036924575 -0.0069186254 0.005024158
0.0072287708 -0.018555239 -0.029477067 -0.002294818 0.024576219 0.0365401 -0.01339442 0.015834935
0.018791644 0.034361 -0.024487086 0.0062404904 -0.043760378 -0.030333053 -0.013202731 -0.014298505
0.03884594 -0.03326304 -0.037543267 -0.02596 -0.026812408 0.006049437 0.026296875 0.045679934
-0.031852223 -0.019625928 -0.03343686 -0.016130958 0.0062429127 0.0007457123 -0.014005249 0.031706743
0.023083543 0.03340159 -0.018065186 0.015033999 -0.006713611 0.011641402 0.005449404 0.019923182
-0.045631625 -0.002955169 -0.0030886407 0.012297662 -0.03208183 0.015475348 0.0017263694 0.029604243
-0.035485826 0.024223678 0.02361103 -0.021833356 0.026462974 -0.036553532 0.0078984015 -0.025667759
-0.007848832 -0.012348966 -0.011163517 0.0022377002 -0.031082526 -0.01591986 0.010052067 -0.00912353
-0.04353012 0.017722089 0.024650965 -0.0021610297 -0.023707835 -0.035028767 -0.022884006 -0.046742894
0.0071502714 -0.0054090978 -0.020198826 -0.015999282 -0.007087767 -0.0019882955 -0.04473065 0.0025917925
0.005310783 0.009012361 -0.034061957 -0.0096711805 -0.045913804 0.015690275 -0.07268436 0.006784504
0.04116752 -0.006432715 0.028310254 -0.0011764981 0.043362748 -0.0006398627 -0.028128546 0.029330129
0.0009279481 0.03266886 0.008200759 -0.027831871 0.013771662 -0.03231388 -0.026436547 -0.041065533
00000000: a393 143d aa0d 143d 9bda 3fbc fc35 39bc
00000010: a188 b2bb 0df4 5e3c 1452 9dba 60a2 523d
00000020: 00d7 3abd 85b6 bcbc da12 843c 7876 83bc
00000030: 8585 ca3c 3de1 1cbb 4c96 9abb 0771 eb3c
00000040: ce39 02bd 688a e5bc e32f 453c 24bd 003d
00000050: 77eb 35bd 393e 173d a3b5 e2bb b1a1 a43b
00000060: 53df ec3b 2801 98bc e479 f1bc a864 16bb
00000070: 1154 c93c 12ab 153d 4574 5bbc 44b8 813c
00000080: eff0 993c 1fbe 0c3d 2499 c8bc 077d cc3b
00000090: 153e 33bd 067d f8bc 4450 58bc 4744 6abc
000000a0: ec1c 1f3d d33e 08bd f8c6 19bd 11aa d4bc
000000b0: b2a5 dbbc 5b3a c63b 8b6c d73c e21a 3b3d
000000c0: 7a77 02bd 8ec6 a0bc 17f5 08bd 1225 84bc
000000d0: 5991 cc3b e87b 433a 4676 65bc eede 013d
000000e0: b319 bd3c 1bd0 083d 71fd 93bc 2a51 763c
000000f0: dafd dbbb 94bb 3e3c ea90 b23b f135 a33c
00000100: 3ae8 3abd 82ab 41bb cb6a 4abb 227c 493c
00000110: 3d68 03bd 508c 7d3c 5847 e23a 9984 f23c
00000120: 9659 11bd bc70 c63c eb6b c13c dedb b2bc
00000130: e1c8 d83c 28b9 15bd 4c68 013c 3145 d2bc
00000140: 6398 00bc 5153 4abc 2fe7 36bc 61a6 123b
00000150: c8a0 febc 5e6a 82bc 6db1 243c dc7a 15bc
00000160: a44c 32bd ea2d 913c d2f0 c93c 10a0 0dbb
00000170: ef36 c2bc 537a 0fbd 3d77 bbbc 7a75 3fbd
00000180: d34c ea3b cd3e b1bb 0278 a5bc ed10 83bc
00000190: 8040 e8bb 104e 02bb 7c37 37bd 10db 293b
000001a0: 1406 ae3b 95a8 133c 8d84 0bbd df73 1ebc
000001b0: 1d10 3cbd e488 803c 8adb 94bd 8b50 de3b
000001c0: 469f 283d 86c9 d2bb e8ea e73c ba34 9aba
000001d0: 239d 313d 75bc 27ba d66d e6bc bd45 f03c
000001e0: 8b41 733a c8cf 053d 7a5c 063c aaff e3bc
000001f0: 89a2 613c 8f5b 04bd 7591 d8bc 5534 28bd

bn3.weight f4 [128]
0.9762847 0.97526675 0.9740412 0.9729891 0.9754735 0.9788104 0.97810555 0.9729494
0.97374475 0.9818237 0.9752932 0.97051036 0.9750146 0.97799486 0.97942287 0.9806488
0.97702456 0.9742113 0.9740013 0.98131406 0.9771242 0.975772 0.9745931 0.98164916
0.9774978 0.97605973 0.98010176 0.9771732 0.9744664 0.9770634 0.9790415 0.98029083
0.9796833 0.97934765 0.97799605 0.97623754 0.98001444 0.97309524 0.9774446 0.9820234
0.97954357 0.9774284 0.97756255 0.9756727 0.9809429 0.97022873 0.9752772 0.9730954
0.9819054 0.9702124 0.9796079 0.9769636 0.9732242 0.9807782 0.97003454 0.9744051
0.97912604 0.9750465 0.9694399 0.9784621 0.97617954 0.9760647 0.96630716 0.9720484
0.97473824 0.9748707 0.9664115 0.9721607 0.97209245 0.9746331 0.97481203 0.9792236
0.9699703 0.976331 0.97029495 0.97287405 0.97766834 0.97591746 0.97761697 0.9751298
0.9734158 0.9691038 0.9775469 0.97947437 0.9750194 0.9767971 0.97536737 0.97964334
0.9755716 0.97159266 0.9824753 0.98483866 0.9747074 0.9741233 0.97483605 0.9793336
0.9757918 0.97780985 0.9750468 0.97498655 0.97733074 0.9764538 0.98140633 0.9682877
0.97698814 0.9768673 0.97739995 0.9810831 0.9780152 0.97577757 0.9752683 0.9721149
0.9714857 0.97424763 0.97785014 0.9792416 0.9782216 0.97305655 0.9760724 0.9774388
0.97525644 0.9709335 0.9710901 0.9762299 0.9789949 0.97894126 0.9783819 0.97642225
00000000: cbed 793f 15ab 793f c45a 793f d015 793f
00000010: a2b8 793f 5293 7a3f 2065 7a3f 3613 793f
00000020: 5647 793f cc58 7b3f d1ac 793f 5e73 783f
00000030: 8f9a 793f df5d 7a3f 75bb 7a3f cd0b 7b3f
00000040: 481e 7a3f e965 793f 2658 793f 6637 7b3f
00000050: d024 7a3f 32cc 793f ef7e 793f 5c4d 7b3f
00000060: 4c3d 7a3f 0ddf 793f f3e7 7a3f 0628 7a3f
00000070: a176 793f d420 7a3f 77a2 7a3f 57f4 7a3f
00000080: 86cc 7a3f 87b6 7a3f f35d 7a3f b4ea 793f
00000090: 3ae2 7a3f c51c 793f cf39 7a3f e365 7b3f
000000a0: 5ec3 7a3f bf38 7a3f 8a41 7a3f b0c5 793f
000000b0: 131f 7b3f e960 783f c4ab 793f c81c 793f
000000c0: 275e 7b3f d75f 783f 95c7 7a3f 491a 7a3f
000000d0: 3925 793f 4814 7b3f 2f54 783f 9d72 793f
000000e0: 01a8 7a3f a69c 793f 372d 783f 7e7c 7a3f
000000f0: e7e6 793f 60df 793f e85f 773f 2ad8 783f
00000100: 7288 793f 2091 793f be66 773f 86df 783f
00000110: 0ddb 783f 8e81 793f 488d 793f 66ae 7a3f
00000120: f94f 783f d4f0 793f 4065 783f 460e 793f
00000130: 7948 7a3f bad5 793f 1b45 7a3f 1ba2 793f
00000140: c731 793f 3017 783f 8340 7a3f d5be 7a3f
00000150: df9a 793f 600f 7a3f adb1 793f e8c9 7a3f
00000160: 0fbf 793f 4cba 783f 8083 7b3f 631e 7c3f
00000170: 6d86 793f 2560 793f db8e 793f 9bb5 7a3f
00000180: 7ecd 793f bf51 7a3f ab9c 793f b898 793f
00000190: 5932 7a3f e0f8 793f 723d 7b3f b4e1 773f
000001a0: e51b 7a3f fa13 7a3f e236 7a3f 4328 7b3f
000001b0: 345f 7a3f 8fcc 793f 2fab 793f 86dc 783f
000001c0: 49b3 783f 4b68 793f 6354 7a3f 94af 7a3f
000001d0: bb6c 7a3f 3c1a 793f e1df 793f 6e39 7a3f
000001e0: 68aa 793f 198f 783f 5c99 783f 34ea 793f
000001f0: 699f 7a3f e59b 7a3f 3c77 7a3f cff6 793f

bn3.bias f4 [128]
-0.025428176 -0.021941146 -0.024073271 -0.021829128 -0.0227422 -0.023875041 -0.020624097 -0.024694478
-0.021269286 -0.018240035 -0.020823643 -0.02520444 -0.022486832 -0.020737592 -0.023104925 -0.020223752
-0.020287404 -0.0306085 -0.025088169 -0.019627905 -0.023209019 -0.028012639 -0.023477716 -0.0221251
-0.024736831 -0.02146434 -0.024809819 -0.019341119 -0.023488462 -0.023612285 -0.023658307 -0.02042657
-0.02202816 -0.022687893 -0.01952706 -0.024008814 -0.026260233 -0.023929834 -0.021402998 -0.02145729
-0.022252504 -0.018878194 -0.022249216 -0.022847462 -0.017884439 -0.02878302 -0.023690516 -0.022890035
-0.023837062 -0.029801935 -0.0201689 -0.019876134 -0.0239963 -0.021593647 -0.027015267 -0.025924744
-0.023654485 -0.021614391 -0.026727486 -0.027079877 -0.02178827 -0.02055341 -0.031796686 -0.025194734
-0.026376335 -0.019656545 -0.02773938 -0.027563095 -0.026886497 -0.023426736 -0.023087714 -0.021403654
-0.02720197 -0.022661041 -0.023484996 -0.021941109 -0.020416664 -0.027231216 -0.024831114 -0.021204248
-0.021729572 -0.024625896 -0.019218985 -0.019118309 -0.024971524 -0.02195163 -0.023505224 -0.017155008
-0.023708306 -0.023849072 -0.019805646 -0.015776377 -0.027105875 -0.024804577 -0.025210004 -0.018541338
-0.020411493 -0.023914628 -0.02538678 -0.021187292 -0.023806017 -0.024974685 -0.01591936 -0.03266783
-0.020236753 -0.025736766 -0.024115106 -0.022843087 -0.023893919 -0.025310136 -0.021629866 -0.022037746
-0.02680996 -0.021936001 -0.018202007 -0.021272585 -0.02581536 -0.026345529 -0.025533639 -0.022841124
-0.020482415 -0.026995685 -0.028104713 -0.023794057 -0.020433722 -0.024729107 -0.0225939 -0.022209248
00000000: c04e d0bc ebbd b3bc 4f35 c5bc 00d3 b2bc
00000010: da4d babc 9795 c3bc def3 a8bc 134c cabc
00000020: ed3c aebc 206c 95bc 5896 aabc 8b79 cebc
00000030: 4e36 b8bc e2e1 a9bc 8a46 bdbc 48ac a5bc
00000040: c531 a6bc adbe fabc b485 cdbc b3ca a0bc
00000050: d720 bebc c37a e5bc 5754 c0bc b33f b5bc
00000060: e5a4 cabc fcd5 afbc f63d cbbc 4471 9ebc
00000070: e06a c0bc 8d6e c1bc 11cf c1bc 9f55 a7bc
00000080: 6674 b4bc f6db b9bc 37f7 9fbc 22ae c4bc
00000090: b31f d7bc 8008 c4bc 5755 afbc 33c7 afbc
000000a0: e24a b6bc 71a6 9abc fd43 b6bc 9a2a bbbc
000000b0: 6382 92bc 5eca ebbc 9d12 c2bc e283 bbbc
000000c0: f145 c3bc 3023 f4bc 4039 a5bc 46d3 a2bc
000000d0: e393 c4bc 29e5 b0bc 1f4f ddbc 2160 d4bc
000000e0: 0dc7 c1bc aa10 b1bc 9af3 dabc 9ed6 ddbc
000000f0: 507d b2bc a05f a8bc 3e3d 02bd 3065 cebc
00000100: 2f13 d8bc c306 a1bc b23d e3bc 00cc e1bc
00000110: 1241 dcbc 6de9 bfbc 7222 bdbc b756 afbc
00000120: aad6 debc a6a3 b9bc 9b63 c0bc d7bd b3bc
00000130: d940 a7bc 0014 dfbc 9f6a cbbc 88b4 adbc
00000140: 3702 b2bc 3fbc c9bc 2271 9dbc 009e 9cbc
00000150: 1591 ccbc e8d3 b3bc 078e c0bc a988 8cbc
00000160: ec37 c2bc 215f c3bc 733f a2bc 763d 81bc
00000170: 240d debc f832 cbbc 3685 cebc 01e4 97bc
00000180: 0136 a7bc 9ce8 c3bc f0f7 cfbc f990 adbc
00000190: d604 c3bc b697 ccbc 5169 82bc b4ce 05bd
000001a0: 8cc7 a5bc e9d5 d2bc 0b8d c5bc 6d21 bbbc
000001b0: 2ebd c3bc 3457 cfbc 1e31 b1bc 8188 b4bc
000001c0: 90a0 dbbc 21b3 b3bc 601c 95bc d843 aebc
000001d0: bc7a d3bc 94d2 d7bc ec2b d1bc 4f1d bbbc
000001e0: bdca a7bc 0e26 ddbc db3b e6bc c1eb c2bc
000001f0: 9f64 a7bc b294 cabc d816 b9bc 2bf0 b5bc

bn3.running_mean f4 [128]
0.24004284 -0.05226703 -0.84980017 -0.52235293 -0.8496587 -0.74408686 -1.359142 -0.5134757
-0.4585947 -1.1525778 -0.7317928 -0.6674615 -1.3452003 -0.9962613 -0.63275325 -1.3915135
-0.54801285 -0.43689105 -1.3640454 -0.8377765 -0.07741971 -0.81295526 -0.5019891 -1.1317742
1.1199658 -0.9100929 1.4799141 -0.5673891 -1.8418026 -0.40322465 -0.6642516 -1.0606698
-1.0795594 -0.797959 -0.53370965 -0.51892024 -0.4151777 0.11629757 -0.44822776 -1.2560015
-0.27728394 -2.0447025 -1.5471306 0.2788155 -0.45663604 -0.72746295 -0.5929918 -0.7962686
-0.22494365 -0.73808044 -0.66364676 -1.1812071 -0.33470196 0.0738362 -0.3839333 -0.8199524
-0.9149641 -1.3600914 -0.6706174 -1.0222625 -0.34273732 -1.357258 -0.57094723 -0.45007503
-0.75109726 0.58961546 -0.76743275 -1.7357779 1.2343969 -1.4828575 -0.4419398 -0.75796455
-0.5121238 -0.46692055 -0.39589226 -0.6199253 0.36942646 0.36954534 -1.1136189 -1.1331042
-1.0138235 -0.2950417 -1.57938 -1.2280461 -1.5218595 -0.8860772 -1.590177 -0.93790615
-0.8872005 -0.4431153 -1.0764842 -0.5450015 -0.82244325 1.0393032 0.45090428 -1.9529455
-0.16544442 -1.0798911 0.8596899 -0.466161 -0.9960994 -0.5596329 -1.8164756 -0.5470107
0.13658401 -0.35504135 1.0823686 -0.12762447 -0.22335312 -1.2184973 -1.1996791 -0.29568538
-1.6364179 -0.33466184 0.19492461 0.7524621 0.9844778 -1.3491062 -0.75105584 1.8535622
-0.2499934 -0.68347204 -0.11389516 -1.0920101 -1.5038241 -0.69308704 -0.6988936 -1.7949531
00000000: cacd 753e f415 56bd 818c 59bf ecb8 05bf
00000010: 3c83 59bf 7a7c 3ebf 5df8 adbf 2573 03bf
00000020: edcc eabe ab87 93bf c656 3bbf c2de 2abf
00000030: 862f acbf fb0a 7fbf 1efc 21bf 1d1d b2bf
00000040: 924a 0cbf 2fb0 dfbe 0a99 aebf 8578 56bf
00000050: 3a8e 9ebd d61d 50bf 5c82 00bf fadd 90bf
00000060: 0a5b 8f3f d9fb 68bf d36d bd3f 6940 11bf
00000070: 30c0 ebbf 7673 cebe 650c 2abf 07c4 87bf
00000080: 012f 8abf 0b47 4cbf 32a1 08bf f5d7 04bf
00000090: 2c92 d4be 6c2d ee3d 1c7e e5be a8c4 a0bf
000000a0: 29f8 8dbe 68dc 02c0 6008 c6bf e8c0 8e3e
000000b0: 33cc e9be 033b 3abf 50ce 17bf 42d8 4bbf
000000c0: a157 66be d7f2 3cbf c1e4 29bf cb31 97bf
000000d0: 0e5e abbe 6f37 973d e892 c4be 67e8 51bf
000000e0: 163b 6abf 7a17 aebf 95ad 2bbf 7fd9 82bf
000000f0: 447b afbe a1ba adbf 9929 12bf 3c70 e6be
00000100: e947 40bf 0af1 163f 7976 44bf f82d debf
00000110: b800 9e3f 46ce bdbf ef45 e2be f709 42bf
00000120: 8c1a 03bf 3610 efbe 64b2 cabe 6db3 1ebf
00000130: 7725 bd3e 0c35 bd3e 108b 8ebf 8f09 91bf
00000140: f8c4 81bf b50f 97be 2029 cabf 9d30 9dbf
00000150: 4bcc c2bf f5d5 62bf ec8a cbbf 9e1a 70bf
00000160: 921f 63bf 02e0 e2be 3cca 89bf 3885 0bbf
00000170: a48b 52bf e307 853f eddc e63e 1efa f9bf
00000180: 436a 29be df39 8abf a314 5c3f a8ac eebe
00000190: 5f00 7fbf 1a44 0fbf 4682 e8bf e508 0cbf
000001a0: aedc 0b3e fbc7 b5be 0e8b 8a3f fdaf 02be
000001b0: aeb6 64be b8f7 9bbf 168f 99bf 1364 97be
000001c0: 2476 d1bf cc58 abbe 519a 473e 5ba1 403f
000001d0: bd06 7c3f 83af acbf 3245 40bf 8741 ed3f
000001e0: 45fe 7fbe 06f8 2ebf de41 e9bd fdc6 8bbf
000001f0: 4f7d c0bf 276e 31bf b1ea 32bf 06c1 e5bf

bn3.running_var f4 [128]
4.515316 8.200593 3.9392374 3.6291978 9.808527 8.876576 3.178283 2.477505
4.579671 2.4840426 3.9041631 4.269647 5.1626773 3.9373987 6.9134297 13.578295
2.292886 3.2444162 2.4892695 9.744045 7.1100335 2.7854722 6.326059 7.51362
3.105333 9.566227 3.0918868 2.695947 2.7559726 2.972838 7.526422 9.314174
7.7841425 4.2698274 2.9100382 3.0931826 5.3832455 2.778012 4.5697536 8.2349205
5.3903227 4.2320623 2.0907354 6.5925603 5.8029346 2.6505022 4.1899834 4.5744267
4.091841 3.8203115 3.4043717 3.9856994 4.587434 5.1179476 4.6468444 3.4590375
10.358527 4.6549106 0.8151158 7.0392494 3.6905217 2.9643435 2.0580306 4.766037
1.3403369 2.3762836 3.1564057 2.940623 2.7006147 1.4126937 8.022015 7.4835405
4.7245293 7.056942 1.833986 3.2014909 0.993802 3.8503904 9.390578 4.9031467
4.0670786 5.0334625 1.9751797 3.6371024 1.8708317 11.038022 2.5951183 9.208606
2.0538275 5.1810336 9.176346 6.3357654 2.0870843 2.1518395 2.969379 2.8990202
4.1232853 9.510984 3.3589375 4.9998703 9.99611 9.22954 2.9860632 1.3982301
1.5824593 5.8261414 3.1587174 6.9309983 3.6971457 2.3665211 8.024521 4.425884
3.4566395 3.1889207 2.5926218 1.9841267 2.1072824 3.2017436 2.9131098 2.151259
1.8420408 4.901883 2.0250108 1.834597 2.524765 6.470139 9.242858 2.863095
00000000: 787d 9040 a135 0341 771c 7c40 c744 6840
00000010: baef 1c41 7506 0e41 fd68 4b40 718f 1e40
00000020: aa8c 9240 8efa 1e40 cfdd 7940 f3a0 8840
00000030: a734 a540 57fe 7b40 d13a dd40 b240 5941
00000040: a5be 1240 84a4 4f40 3150 1f40 9ce7 1b41
00000050: 6585 e340 2d45 3240 136f ca40 936f f040
00000060: c7bd 4640 440f 1941 79e1 4540 658a 2c40
00000070: db61 3040 fa42 3e40 73d8 f040 db06 1541
00000080: b217 f940 6da2 8840 113e 3a40 b4f6 4540
00000090: 8c43 ac40 f3ca 3140 6c3b 9240 3cc2 0341
000000a0: 867d ac40 0e6d 8740 9cce 0540 41f6 d240
000000b0: a4b1 b940 d4a1 2940 5814 8640 b461 9240
000000c0: 5df0 8240 fc7f 7440 3ae1 5940 b315 7f40
000000d0: 42cc 9240 3ac6 a340 f3b2 9440 df60 5d40
000000e0: 87bc 2541 07f5 9440 6eab 503f 8841 e140
000000f0: 8231 6c40 ceb7 3d40 c6b6 0340 6083 9840
00000100: 2990 ab3f 0815 1840 8d02 4a40 2b33 3c40
00000110: dfd6 2c40 26d3 b43f 2c5a 0041 2a79 ef40
00000120: 582f 9740 78d2 e140 0ec0 ea3f 3ae5 4c40
00000130: cf69 7e3f cc6c 7640 cf3f 1641 94e6 9c40
00000140: 8225 8240 2012 a140 b0d2 fc3f 49c6 6840
00000150: 6a77 ef3f bd9b 3041 6b16 2640 7356 1341
00000160: e971 0340 07cb a540 50d2 1241 97be ca40
00000170: ca92 0540 bdb7 0940 4e0a 3e40 8c89 3940
00000180: f4f1 8340 fe2c 1841 d5f8 5640 f0fe 9f40
00000190: 11f0 1f41 32ac 1341 a91b 3f40 34f9 b23f
000001a0: 078e ca3f c06f ba40 6d28 4a40 bdca dd40
000001b0: 099e 6c40 1575 1740 7064 0041 d7a0 8d40
000001c0: 9539 5d40 4717 4c40 84ed 2540 ddf7 fd3f
000001d0: b7dd 0640 5ee9 4c40 6470 3a40 3aae 0940
000001e0: fec7 eb3f 3adc 9c40 c799 0140 13d4 ea3f
000001f0: c095 2140 610b cf40 bfe2 1341 f33c 3740
