models/saved_models/ser_mel.pt (torch, 386590 bytes, 20 tensors)

conv1.weight f4 [32, 1, 5, 5]
000000 22 21 de bc 00 36 6d be e8 a8 16 be 9e e4 ad bd
       -0.027115408 -0.2316513 -0.1471287 -0.08490871
000010 ce 17 63 be 1b 5d 45 3e 14 36 45 be be f6 fd bd
       -0.2217705 0.19273798 -0.1925891 -0.12400578
000020 8c 70 14 3e f2 cf 8b be 55 13 68 3e 1e 55 1d 3d
       0.14496058 -0.27307087 0.22663625 0.038411252
000030 db bb c9 bd 1c a8 88 bb b8 96 94 be 52 92 68 3e
       -0.09850284 -0.004170431 -0.2902124 0.22712067
000040 4e 43 97 be f7 a9 81 3d 95 b3 d3 3c 4e 40 7c be
       -0.29543537 0.06331246 0.025842467 -0.24633905
000050 f3 15 23 bd 44 fe 07 be 64 37 f1 3d c3 a6 1d ba
       -0.039815854 -0.13280588 0.11778143 -0.0006013924
000060 48 27 2d be 5e 28 1d bc c7 14 1b 3d c0 53 27 3d
       -0.16909516 -0.009592144 0.03786161 0.040851355
000070 5d 58 e8 3d e3 9d 03 be 94 29 08 3e 06 20 a2 3d
       0.11344979 -0.12853198 0.13297111 0.07916264
000080 a6 6b 03 be 6e 50 28 3e 48 83 a6 bd e0 66 8e 3e
       -0.12834033 0.16436931 -0.08130509 0.27812862
000090 eb 38 86 3e 64 62 24 3e b6 15 17 be 6a e7 5b bd
       0.262153 0.16053158 -0.14754376 -0.05368749
0000a0 af 38 21 3e 92 5b 2c 3e 84 51 f6 3d 62 6f 20 be
       0.1574428 0.16831806 0.120272666 -0.15667489
0000b0 1e f5 28 3e a4 0d 2f 3e d2 24 06 bd 5e ad 0b bc
       0.16499755 0.17095047 -0.03274996 -0.008525221
0000c0 4e 4b 24 3e 78 ee b6 bd ee 6e 97 3d 33 aa 2f 3e
       0.16044351 -0.08932203 0.07394205 0.1715477
0000d0 57 60 17 3e ed 1a bc bd b3 27 a0 bd ac bc 07 be
       0.14782844 -0.09184823 -0.07820072 -0.13255566
0000e0 ee 81 e9 3d 1c ba 0f bd 56 c3 1c bc 08 f6 f2 bd
       0.11401735 -0.035089597 -0.009568056 -0.11863333
0000f0 25 64 99 bd f5 1e 72 be 02 07 32 be f2 e9 6d be
       -0.07489804 -0.23644622 -0.17385486 -0.23233774
000100 5d f7 11 be 6b 0a b1 be ef 74 89 be 58 50 9d bd
       -0.14254518 -0.3457826 -0.26847026 -0.0768134
000110 2e cc 5a be 47 92 c7 3d 6a 9d df be d7 cd c5 be
       -0.21366951 0.09744697 -0.43674785 -0.38633606
000120 1c f3 1a be 7d e5 1f 3e 02 72 3b be 17 af 6b 3d
       -0.15131801 0.15614887 -0.1830521 0.057540026
000130 55 c4 ec bc 13 34 a4 3d b8 7b 30 bd 98 2a bb 3d
       -0.028902212 0.08017745 -0.043086737 0.091389835
000140 a3 29 6a be 52 d3 05 be e8 0a 1d 3e 0e e8 97 3e
       -0.22867446 -0.13068894 0.15336192 0.2966923
000150 f9 3c 4b 3e 59 d5 4c 3d 02 90 5c be 1f 8a 59 bd
       0.19847478 0.05000815 -0.2153931 -0.05311024
000160 8d e3 90 3e be 4d 16 3e 4d 33 7a be 0d 9e f0 bd
       0.28298607 0.14678094 -0.24433632 -0.11748896
000170 11 62 93 bd 25 d0 15 bd 25 3d 81 3e e0 2b bb 3d
       -0.07196439 -0.036575455 0.25241962 0.09139228
000180 31 18 e1 3d 00 ba 20 3d 73 89 88 3c dd 5c d3 3c
       0.10990942 0.039239883 0.016667103 0.025801117
000190 48 9b 19 3e a0 39 62 3e 88 3c 73 3d b0 89 d7 bc
       0.15000641 0.22092295 0.0593839 -0.026310772
0001a0 ce b6 f4 bd a3 75 2d 3d d6 e3 4e bd 54 af 3c bd
       -0.1194893 0.042348515 -0.05051025 -0.046065643
0001b0 fb c9 a7 3d 21 ce aa 3c 98 0b e8 3c df fb 47 3e
       0.081928216 0.020850243 0.02832584 0.19529675
0001c0 b7 18 01 be 95 10 88 3c 5b 86 8f 3d aa 8b f9 bd
       -0.12607084 0.01660947 0.07008048 -0.12184842
0001d0 d1 67 1d be 3b 10 d0 3d 39 24 e7 3c 73 ea f5 bd
       -0.15371634 0.10159346 0.028215514 -0.12007608
0001e0 fd 40 8d 3e 3a f1 5e 3e 71 24 2c 3e e4 89 82 3e
       0.27588645 0.21771708 0.16810776 0.25495827
0001f0 35 17 81 bd 98 b8 6e 3e 0f 15 5e 3e 2f 1c 52 3e
       -0.063032545 0.23312604 0.2168772 0.20518564
000200 f6 52 52 3e a3 52 e0 3d c8 9d be 3d 35 8c b7 3d
       0.2053946 0.10953262 0.09307438 0.08962289
000210 f4 ff e5 bd 8c 9f 1f 3e 22 d9 c2 bd 28 35 06 3e
       -0.1123046 0.15588206 -0.09514071 0.13106215
000220 6d 6f a1 3d 48 ec 0e be 4b c1 c2 3d 2e 9e cb bd
       0.07882581 -0.13957322 0.09509524 -0.0994228
000230 af 0c 3d bd 74 93 00 3e 72 91 11 be 09 9e 11 be
       -0.046154674 0.12556249 -0.14215639 -0.14220442
000240 81 e6 aa 3c d0 77 6d 3e 77 19 cc bd 58 89 33 bd
       0.020861866 0.23190236 -0.099657945 -0.043832153
000250 88 58 93 3d cb f8 b2 3d 2d 3d 1a be f2 5d 3c be
       0.0719462 0.0873886 -0.15062399 -0.18395212
000260 26 9a 6e 3d 5a 7f 33 3e d4 b6 81 bd b9 5d 98 3c
       0.058252476 0.1752905 -0.063337 0.018599378
000270 5f ed 34 3e f7 73 18 3e 3d 9e 5e 3d 18 1c c4 be
       0.17668675 0.14887987 0.054350127 -0.38302684
000280 59 6d a4 bd c2 ce 90 3c aa 85 8e 3e 38 00 af 3e
       -0.08028669 0.017676715 0.27836353 0.34179854
000290 97 75 cd bc 17 75 f5 bd cc 90 bb bb 09 85 4f 3e
       -0.025080485 -0.11985224 -0.0057240482 0.20265593
0002a0 da 46 a8 bd a8 60 c2 bd 6e 9a 11 be d6 c9 b5 3d
       -0.08216639 -0.09491092 -0.14219067 0.08876388
0002b0 f9 87 85 3e 0e 9d ca 3e 8d 25 57 be 9b 65 0e be
       0.260803 0.39572948 -0.21010418 -0.13905947
0002c0 e0 22 3f be f2 21 4c 3e d3 02 3e 3e a6 fb 55 bc
       -0.18665648 0.19934824 0.18555765 -0.013060486
0002d0 c0 24 62 be 25 53 a8 3d 93 83 50 3e c6 dd 85 3d
       -0.22084332 0.082189836 0.20362692 0.065364406
0002e0 08 ad 9c bc 48 a2 10 be 95 f2 82 be 97 8f 5c 3e
       -0.019125476 -0.14124405 -0.255757 0.2153915
0002f0 8c 8b a9 3d 8f b6 c6 3d cf e1 1e bd 32 c0 8d be
       0.082785696 0.09702789 -0.038789567 -0.27685696
000300 f7 79 67 3c 08 45 99 3e 7a 43 a8 bb df 63 60 bd
       0.0141282 0.2993548 -0.005134997 -0.054782744
000310 9c e0 66 3c 11 2f 75 3d 7f 81 84 bc 1e 5b 35 3d
       0.014091637 0.05985934 -0.01617503 0.04427635
000320 09 bd bc 3b e8 07 02 3e 54 7a 60 3e fd 6f 47 3e
       0.0057598394 0.12698328 0.21921664 0.19476314
000330 31 e3 de 3d 7f d7 8a 3d 9a dd 00 3e fc f3 b5 bd
       0.10883177 0.06779384 0.12584534 -0.08884427
000340 0c 4e 00 3e 93 84 19 bc 5a ca bb bd 72 9d 05 3e
       0.12529773 -0.009369987 -0.09169455 0.13048342
000350 cf d7 3c bc 58 ec 20 bd 8e 45 65 3d f9 17 97 bd
       -0.011526062 -0.039287895 0.055974536 -0.07377619
000360 3a 4f 9d bd e8 49 18 3d 78 6f 86 3e 2d 8c 2c 3d
       -0.07681127 0.037179857 0.2625692 0.04212587
000370 b0 10 b3 3c 21 79 6b 3e 97 15 f8 bc bd e0 22 3e
       0.021858543 0.22995426 -0.030283732 0.15906043
000380 71 6d 87 3d 2a f1 49 bb 77 be b0 3e 1a 42 1a 3e
       0.06612671 -0.003081391 0.34520313 0.15064278
000390 1d 7c c4 bd ef ab 5c be 44 b0 27 bd a6 f2 c1 3e
       -0.09593985 -0.21549962 -0.040939584 0.3788044
0003a0 9e 7e 09 3e 8c 3f fb 3d bb 78 13 be 5a 61 d4 bc
       0.13427207 0.1226798 -0.14401524 -0.025925327
0003b0 58 d4 cb 3e c5 d3 bc 3e b6 e9 03 3e bd 0f 26 3d
       0.39810443 0.36880317 0.12882122 0.040542353
0003c0 c4 40 b1 be 0b d4 73 3e c0 37 14 3e a8 1d 70 3d
       -0.34619725 0.23811357 0.14474392 0.058622032
0003d0 bb b7 7f 3d 02 6d 64 bd 13 26 e1 3c 36 b9 e1 3d
       0.06243108 -0.05576802 0.027483976 0.11021654
0003e0 e9 51 3c 3e 24 a3 4a bb 6e fe d6 bd 33 0a 17 3e
       0.18390621 -0.0030919993 -0.10497747 0.14749984
0003f0 79 54 3e be ad 6a b1 3a ce 2e c8 be 81 6e 26 bd
       -0.18586911 0.001353582 -0.3909821 -0.04063273

conv1.bias f4 [32]
000000 78 0b 5f be c4 ac 02 be 28 b5 9a bd f0 b5 73 3c
       -0.21781719 -0.12761217 -0.07554084 0.01487492
000010 8a 14 70 3e 6f a0 2b bd 53 4a 88 bd 53 04 ab 3d
       0.23445335 -0.04190105 -0.06654801 0.08350434
000020 ad 95 a7 bd 2b d6 18 be b8 2b 63 bc 28 54 25 be
       -0.08182845 -0.14925449 -0.013865404 -0.16145384
000030 25 3d 8c bc b6 2c 2d be b2 4e 86 3d ea a0 53 3d
       -0.017119 -0.16911587 0.06557979 0.05166713
000040 7b 19 93 bd 5e 93 98 3c f8 ce d1 bd cb bc 9b bd
       -0.071825944 0.018624958 -0.10244554 -0.07604369
000050 cc b4 f5 3c 8b 42 19 be 68 17 2a be 87 e8 e7 bd
       0.029993437 -0.1496679 -0.16610491 -0.11323648
000060 39 cd a2 be de 06 dd 3d 8a 57 cb bd 1b 68 64 be
       -0.31797197 0.107923254 -0.09928806 -0.22305338
000070 1f 8a 81 be 97 f8 19 3e 0c bc 9e bd 21 dd 10 3c
       -0.2530069 0.15036236 -0.07750711 0.008841784

bn1.weight f4 [32]
000000 cf a1 82 3f 9f 87 5c 3f 71 53 7a 3f 47 2d 90 3f
       1.020563 0.8614444 0.9778357 1.1263818
000010 79 b8 69 3f 4e 67 7a 3f 58 fd 7e 3f e2 d8 88 3f
       0.9129711 0.9781388 0.9960532 1.0691187
000020 d5 06 70 3f df 25 87 3f c2 d8 81 3f fc 7a 7e 3f
       0.93760425 1.0558432 1.0144274 0.9940641
000030 be b4 91 3f 8e cb 78 3f b0 47 8d 3f c4 46 64 3f
       1.1383283 0.971856 1.1037502 0.8917048
000040 de ca 86 3f a9 1c 82 3f bc e0 78 3f 8e 9b 87 3f
       1.053066 1.0164996 0.9721792 1.0594347
000050 37 d3 78 3f 83 0b 80 3f 96 72 8d 3f 79 14 89 3f
       0.9719729 1.0003513 1.1050594 1.0709373
000060 f4 db 73 3f d8 55 6e 3f ce 20 90 3f 08 7e 89 3f
       0.95257497 0.9309974 1.1260011 1.0741587
000070 36 0e 8f 3f 4b 6b 59 3f 05 5d 70 3f 59 93 70 3f
       1.1176212 0.8492934 0.93891937 0.93974835

bn1.bias f4 [32]
000000 e1 82 0e 3d 3d 1a 9b bc 0a f5 8d 3d 30 1a 10 bc
       0.034792785 -0.01893341 0.06931503 -0.008795306
000010 47 82 ee bc 05 88 f4 bd 2f 7b 23 3d eb cf 6f 3d
       -0.029114855 -0.11940006 0.0399124 0.058547895
000020 56 3e 4d be 87 fe 55 3d 4b d6 3a 3d 0f c9 06 3d
       -0.2004331 0.05224469 0.045614522 0.03290659
000030 97 2c 05 3e d4 bf 91 3d e0 a6 83 3d 3c 67 12 be
       0.13005291 0.071166664 0.06428313 -0.14297193
000040 39 21 d2 bd 9f 5f 11 3d a7 05 f6 bd 21 28 ee 3d
       -0.10260243 0.035491582 -0.12012797 0.11628748
000050 e7 83 96 3d 2a 49 6e bd 09 7d aa 3d b2 57 aa 3d
       0.07349377 -0.058175243 0.0832463 0.08317508
000060 d6 d8 1e bd db 58 ee bb e0 fe 87 3d 14 2a 3c 3d
       -0.03878101 -0.007273776 0.066404104 0.045938566
000070 53 54 28 3e 0c a2 82 be d5 e2 c2 3c 9e 12 38 be
       0.16438417 -0.25514257 0.023789803 -0.17975852

bn1.running_mean f4 [32]
000000 f7 73 5a 42 a5 27 38 c2 44 58 89 42 98 a0 d3 c1
       54.613247 -46.038715 68.67239 -26.453415
000010 e9 d8 0b c2 60 7f 1e c2 65 23 f6 c1 ed dc c7 c0
       -34.961826 -39.62439 -30.767282 -6.2457185
000020 9b 50 4e c2 c6 11 8f c2 84 a5 74 42 1a 4c 10 41
       -51.578716 -71.53471 61.161636 9.0185795
000030 82 8d 65 c1 50 18 92 40 09 0a 20 42 84 6d 0f c2
       -14.347048 4.565468 40.0098 -35.85695
000040 5a cd 5c 3f 31 82 38 c1 28 56 9e 42 af b5 ff c1
       0.8625084 -11.531785 79.168274 -31.963713
000050 80 d3 1c 42 24 48 23 c2 06 67 40 c2 de 16 6d c2
       39.206543 -40.82045 -48.10061 -59.27233
000060 d6 31 71 c2 48 5e a1 42 6a 0d 04 c2 61 13 80 42
       -60.298668 80.68414 -33.0131 64.03785
000070 6f 1c 19 42 76 1a 45 41 51 aa 01 42 74 de 27 c2
       38.277767 12.31896 32.416325 -41.96724

bn1.running_var f4 [32]
000000 98 80 16 45 6f bd d7 44 7f 75 75 45 f7 6e 2c 44
       2408.037 1725.9198 3927.3435 689.7338
000010 23 75 83 44 f8 ed 9e 44 a0 74 5b 44 e4 28 42 43
       1051.6605 1271.4365 877.82227 194.15973
000020 1c ce 01 45 bd 16 80 45 c6 74 3a 45 87 f6 52 43
       2076.8818 4098.8423 2983.2983 210.963
000030 f5 84 f4 43 2e 2b 29 43 4b 9c b8 44 a8 84 83 44
       489.03873 169.16867 1476.8842 1052.1455
000040 de 45 4c 43 82 c0 c3 43 eb ab 9c 45 b0 f1 86 44
       204.27292 391.50397 5013.4897 1079.5527
000050 13 e4 9e 44 05 7c a7 44 7e ef eb 44 65 04 2e 45
       1271.1273 1339.8756 1887.4841 2784.2747
000060 9f 9a 39 45 f6 39 a3 45 73 8c 72 44 cd e5 58 45
       2969.6638 5223.245 970.1945 3470.3625
000070 2a 4e a4 44 3d a1 8c 43 8c 25 5e 44 48 09 ae 44
       1314.4426 281.25967 888.5867 1392.29

conv2.weight f4 [64, 32, 3, 3]
000000 3b be 6d bc 49 86 63 bd 13 32 2c bd ac 9b ea bb
       -0.0145106865 -0.055547986 -0.042039942 -0.007159671
000010 9b 9b 8f bd 59 0d be bd 6a ad 01 bd 22 bc bc bd
       -0.07012101 -0.092798896 -0.03165952 -0.09215571
000020 97 48 4f bd ed 30 b4 bb c5 59 07 3c fb 8d 6f bd
       -0.050606336 -0.0054989965 0.008261149 -0.058485013
000030 e2 49 50 bc 25 19 b7 3c 2b e9 1a 3d d8 a6 96 3b
       -0.012712928 0.022350857 0.037820023 0.004597526
000040 5b 5a d5 3b 7b 91 6f bb 5d 7c db bd 3a a7 a8 bc
       0.0065110154 -0.003655522 -0.1071708 -0.020587552
000050 c4 17 a4 bd 82 a2 dd bd 07 c7 35 bc 94 86 ad bc
       -0.080123454 -0.108220115 -0.011094815 -0.021182336
000060 07 7e 94 bd b7 33 c2 bd 4a c9 ff bc f7 49 9d 3c
       -0.072506 -0.0948252 -0.031223912 0.019200308
000070 f5 ec 5e 3d af 50 46 3d 13 e5 9e 3c 14 52 8b 3d
       0.0544252 0.04841679 0.01939634 0.068027645
000080 ff a7 06 3e 21 9d 8f bb 07 8e 01 3e 48 9b 06 3d
       0.13150023 -0.004382745 0.12651835 0.03286293
000090 6f c1 c1 bd 09 49 90 bc 7d e8 4b bd 5e 69 20 bd
       -0.09460723 -0.01761295 -0.049782265 -0.039162986
0000a0 75 8c 67 bd e7 55 19 bd df 8c ec bc 94 1e 30 bd
       -0.056530435 -0.03743544 -0.028875766 -0.04299791
0000b0 ea c0 ca bd ca 6e b1 bc 81 06 0b 3c 6e 9a d8 bb
       -0.09900077 -0.021659274 0.008485437 -0.0066102063
0000c0 99 3e bd bb 12 1f c0 3c f8 85 bb 3c 5a 95 27 3d
       -0.0057752845 0.023452315 0.02289103 0.040913917
0000d0 ed 6f ee 3c 71 ec 8b ba 38 f0 05 3e 31 19 f8 3d
       0.029106105 -0.0010675323 0.13079917 0.1211418
0000e0 3b d7 1b 3e 11 d3 fc 3d 9a a3 4d 3d a2 f7 53 3d
       0.15218823 0.12344945 0.05020485 0.051749833
0000f0 f8 22 0e 3d c6 c3 e0 3d 6d 60 b8 3d 97 65 5e 3d
       0.034701318 0.10974841 0.09002767 0.054296102
000100 d0 1e 7d 3d 3f 7e fc 3d bb 5f 77 3d 8e 42 81 3c
       0.061796963 0.12328767 0.06039403 0.015778806
000110 4b 1f b3 3d cd 9f 87 3d c9 1a 87 3d 03 c8 0e 3e
       0.08746203 0.066222765 0.06596906 0.13943486
000120 40 a7 88 3c 67 06 02 3d 7c 93 43 3b 7d 88 3c 3d
       0.016681314 0.031744387 0.0029842546 0.046028603
000130 bc 8e 9b 3c 21 7a 32 3d e9 c2 4c bd e7 81 74 bd
       0.01898896 0.043573502 -0.04999057 -0.059694197
000140 a9 37 4c bd c5 c0 5d 3d 8f 4b c5 3d 7c 91 18 3e
       -0.04985777 0.054138917 0.09633552 0.14899248
000150 e4 f9 09 3e bf bb f1 3d 73 40 c7 3d e7 7f 62 3d
       0.13474232 0.11803388 0.097290896 0.05529776
000160 66 60 18 3d 80 2c 15 3e 5e 1a 52 bd 41 3f b4 bd
       0.037201308 0.14567757 -0.051294677 -0.08801127
000170 49 a9 aa bc 6b 67 9c bd 8f 7d 72 bd 3d 4b 38 bd
       -0.020832675 -0.07636913 -0.059201773 -0.044993628
000180 cf fb 70 bd 8e 03 9a bd 12 48 c7 bc 35 4a 64 3c
       -0.058833893 -0.07520209 -0.024326358 0.013933708
000190 db 64 01 3c 96 da 5c bd 60 f9 5e bb 89 4b 78 3c
       0.007897581 -0.053919397 -0.003402315 0.015154728
0001a0 46 4b 5c bd 20 8a 4c 3b c2 cd 7d bd d1 f4 e9 bc
       -0.053782724 0.0031210259 -0.061963804 -0.02855912
0001b0 8a 1a 51 3c 7b 32 ee 3d 40 5b d7 3d 21 a0 c0 3d
       0.012762675 0.11630722 0.105154514 0.09405542
0001c0 8b 90 02 3e 05 26 74 3d b7 32 a6 3c 9a 84 b2 3d
       0.12750451 0.05960657 0.020287855 0.08716698
0001d0 7f 0f 0a 3e fd b2 d8 bc 7e 4c 77 3d 91 7f d5 3d
       0.13482474 -0.026452536 0.060375683 0.10424722
0001e0 5c 10 cc bc 10 fb bf 3d c7 c8 b2 3d db 94 4e 3b
       -0.024910145 0.09374058 0.087297015 0.003152183
0001f0 85 02 f3 ba 36 d2 af 3d 74 c4 dd 3d 5c 87 1b 3c
       -0.001854018 0.085850164 0.10828486 0.009492721
000200 0b b8 a2 3c 3d 8a b0 3d aa 35 8c 3d 23 d7 6f 3d
       0.01986315 0.08620117 0.06846173 0.05855478
000210 2f 80 d4 3d 97 b7 fd 3d 41 35 45 3d 5f ab 57 bd
       0.103760116 0.123885326 0.04814649 -0.052653667
000220 e1 7a ec 3c 81 b3 00 3d e7 81 c1 bc dd e7 fc bb
       0.028867187 0.03142119 -0.023621513 -0.00771807
000230 56 b2 33 bd d9 3c ae bc 22 f1 56 bd db be 26 bc
       -0.043871246 -0.021269249 -0.052476056 -0.010177339
000240 37 c3 22 3a bb 58 4d 3d 22 a7 ff 3d 82 8c 0a bc
       0.0006208899 0.050133448 0.1248305 -0.008456351
000250 62 9d 0a 3e 6b 0d 0d 3e db 30 2b 3d 13 d5 0a 3d
       0.135366 0.1377465 0.04179464 0.03389461
000260 82 ef dc 3d af 66 90 3c 44 ad 73 3d 87 d9 c5 3d
       0.1078787 0.017627088 0.05949141 0.09660631
000270 6a 39 7f 3d 02 c9 f5 3d c8 5e f7 3d 36 4c 78 bb
       0.062310614 0.1200123 0.12078625 -0.0037887222
000280 06 b5 a3 3d a5 4b 26 3d e7 ed 31 3d f6 f8 60 3d
       0.07993512 0.040599484 0.043439772 0.054924928
000290 a1 69 fa 3c 94 29 4a 3d 99 d3 7c 3d 6a 77 4e 3d
       0.030567946 0.04935606 0.061725233 0.05040685
0002a0 de 89 18 3e 50 91 f0 3d 93 98 95 3d 7d 90 1b 3e
       0.14896342 0.11746466 0.07304492 0.15191837
0002b0 91 bb f8 3d c6 e2 0c 3e cc 8c 4f 3d 25 c7 0a 3d
       0.121451505 0.13758382 0.050671384 0.033881325
0002c0 be 6b e6 3d e5 bf f5 3d 4a 29 b6 3d a7 e9 b0 3d
       0.11251019 0.119994916 0.08894594 0.08638316
0002d0 60 a7 80 bc 5c 51 d9 bd 67 bf f2 bc 3b ad 4c bd
       -0.01570481 -0.10611221 -0.029632283 -0.049969893
0002e0 80 a1 b1 bd 2f 2e 2c bd 5b d1 2a bd ca e3 61 bd
       -0.08673382 -0.04203623 -0.041703563 -0.055148877
0002f0 50 39 62 bd 14 c7 f7 3a 63 d7 82 bd 17 24 67 3b
       -0.05523044 0.0018903934 -0.06388738 0.0035269314
000300 cb 7c 73 3c d0 e3 46 3c 98 c4 86 bd 79 93 48 bd
       0.014861296 0.012139276 -0.06580466 -0.048968766
000310 5f 1f 0c 3d 2e 73 11 bd 19 24 11 3e ac b1 ad 3d
       0.034209605 -0.035510235 0.14173926 0.08481154
000320 ca 86 36 3d cb 7a 2d 3d 59 b1 f8 3d 17 59 79 3d
       0.04456214 0.042353433 0.121432014 0.06087598
000330 17 52 dd 3d 0e 80 4b 3d 1f 6a 9b 3d e2 b1 f4 3d
       0.10806673 0.04968267 0.075886 0.11947991
000340 1c 8c d9 3d a9 e0 b2 3d 5e 92 c8 3d d1 9d 83 3d
       0.10622427 0.08734257 0.09793542 0.064265855
000350 36 b4 9a 3d c0 99 9b 3d 76 f6 f7 3d 1f d1 e2 3d
       0.07553904 0.07597685 0.121075556 0.11075043
000360 c4 78 98 3d 39 56 57 3d 95 d2 ca 3d 9f 17 00 3e
       0.07444909 0.052572463 0.099034466 0.1250901
000370 d6 1d 2f 3d 48 d6 19 3e 68 6d e2 3c 57 7f ed 3d
       0.042753063 0.15023148 0.02764006 0.11596554
000380 bb 8d 36 3d 62 af db bd 2c a7 0d bd 4e 31 9d bc
       0.04456876 -0.10726811 -0.034583256 -0.01918855
000390 eb fc bc bd 15 65 bc ba 18 12 4a b9 61 55 51 bd
       -0.09227928 -0.0014373387 -0.00019270962 -0.051106814
0003a0 49 d3 5b bd 82 15 9e bd 36 68 df 3d 73 95 1f 3e
       -0.053668294 -0.07718946 0.109085485 0.15584354
0003b0 3b 1a bd 3d 76 55 11 3e 09 78 b0 3d 86 f0 95 3d
       0.09233519 0.14192757 0.08616645 0.07321267
0003c0 81 22 e4 3c 4e 12 f0 3d 02 46 c0 3d d2 f2 f1 3d
       0.027848484 0.11722241 0.09388353 0.118138924
0003d0 7c 5f b7 3d 2d 26 c2 3d ac 04 e9 3d 10 0e f7 3d
       0.08953759 0.09479938 0.11377844 0.12063229
0003e0 aa bd 10 3e af c2 e6 3d 84 04 67 3d 8e e9 a5 3d
       0.14134851 0.11267602 0.05640079 0.08101188
0003f0 f9 8b 54 3d eb b4 17 3e 5e d3 ea 3d 0e 04 d4 3d
       0.0518913 0.14815108 0.11466096 0.10352336

conv2.bias f4 [64]
000000 4c 90 13 bd c8 36 e1 bd eb b1 00 3e 7e ac 1e be
       -0.036026284 -0.10996777 0.1256787 -0.15495488
000010 10 d4 51 be 98 88 0b bd c4 d1 40 3e e0 d2 98 bd
       -0.20491052 -0.034065813 0.18830019 -0.07462096
000020 e6 ef a9 bd c5 9c 98 3d 9c 72 b9 3d 0d d8 3a be
       -0.0829771 0.074517764 0.09055063 -0.1824648
000030 5d cd 12 3e 0d 3f de 3d 40 0f 92 bd d6 49 9b 3d
       0.14336152 0.1085187 -0.07131815 0.075824425
000040 be d2 e2 3d f1 cb 21 3d 14 0f e7 bd a2 93 89 3d
       0.11075352 0.039501134 -0.11282173 0.06717612
000050 81 0c d1 bd 18 ea 43 3c 86 06 13 3e d1 7b 19 3d
       -0.10207463 0.011957668 0.14357957 0.037471596
000060 8f 4d 51 3d 01 f1 ef 3d 6c 69 11 3e 0d 3c aa bd
       0.051099356 0.1171589 0.14200372 -0.08312235
000070 a6 ef 85 3d 82 10 77 3d a3 60 93 bd 32 1d 5f bd
       0.0653985 0.060318477 -0.07196166 -0.054471202
000080 0e fb cf 3d f1 67 d6 bb 12 ff 19 3d 12 4a 05 3d
       0.10155307 -0.0065431525 0.03759677 0.032541342
000090 65 ba 4c be 00 8c aa 3d 56 96 9b bc 50 9c b6 3b
       -0.19992979 0.08327484 -0.018992584 0.005572833
0000a0 18 75 91 bc 03 d6 e6 bd 08 61 9e bd 14 6c e6 3c
       -0.01775603 -0.11271288 -0.07733351 0.028127708
0000b0 4d 9d 4a 3e 24 1f 14 be c4 59 01 bd e0 e2 6d bc
       0.19786568 -0.14465004 -0.031579748 -0.014519423
0000c0 3f bc 01 3e 19 9e 98 3d e8 be 02 3e ef 27 5d bd
       0.12669466 0.0745203 0.12768137 -0.05399316
0000d0 20 ca 73 3d 15 d5 86 3d 9c bb 45 3d e9 05 47 be
       0.059518933 0.06583611 0.04827462 -0.19435848
0000e0 86 8d 7d bc 9f d6 d9 bd 42 4b 21 3e 4d f0 3a be
       -0.015475636 -0.10636639 0.15751365 -0.1825573
0000f0 cc bf 4a 3d f5 b3 a6 3d 3c 03 e5 bd 5c 5f ae 3e
       0.049499318 0.08139793 -0.111822575 0.34057128

bn2.weight f4 [64]
000000 f4 5b 92 3f 8b c6 6e 3f 73 a8 40 3f c1 52 83 3f
       1.1434312 0.932717 0.75257033 1.025963
000010 60 23 87 3f 24 cd 68 3f 9d ce 86 3f f0 ae 6f 3f
       1.055767 0.9093802 1.0531803 0.9362631
000020 0c 88 66 3f 4f 6c 9b 3f f3 e5 93 3f 79 a1 88 3f
       0.9005134 1.2142428 1.155455 1.0674278
000030 ae 78 81 3f a1 94 8f 3f 28 db 82 3f 4a 62 61 3f
       1.0114954 1.1217233 1.0223131 0.880406
000040 9c a8 7f 3f dd 65 7a 3f 73 d6 6b 3f 7f a6 46 3f
       0.9986665 0.9781168 0.921241 0.775978
000050 d0 f6 7f 3f ab ab 92 3f ac 44 7f 3f 53 9d 5e 3f
       0.9998598 1.1458639 0.9971416 0.8695881
000060 1f a4 81 3f b2 ff 74 3f 0d 82 94 3f c3 14 6a 3f
       1.0128211 0.9570266 1.1602188 0.9143793
000070 0e 80 88 3f db 21 76 3f 05 30 92 3f 4f 6b 7d 3f
       1.0664079 0.9614541 1.1420904 0.98991865
000080 20 c9 86 3f 70 fe 80 3f 1b f5 61 3f 24 10 6f 3f
       1.0530128 1.0077648 0.88264626 0.93384004
000090 7a 3f 80 3f ed 93 83 3f 05 e9 84 3f 1d d0 68 3f
       1.0019372 1.0279518 1.0383612 0.90942556
0000a0 5b f9 82 3f a8 da 80 3f 3b 3f 7f 3f e6 66 7e 3f
       1.0232347 1.0066729 0.9970586 0.9937576
0000b0 fb 67 87 3f de 99 75 3f 3f 28 86 3f 8a d2 82 3f
       1.0578607 0.9593791 1.0481032 1.0220501
0000c0 02 32 86 3f 91 04 76 3f 92 6b 7a 3f 0c e2 80 3f
       1.0484011 0.9610072 0.9782039 1.0068984
0000d0 82 01 86 3f 0b 8f 86 3f 70 8e 8f 3f 20 a1 85 3f
       1.046921 1.0512403 1.1215343 1.0439796
0000e0 15 52 95 3f af 68 54 3f 2c 5d 57 3f 65 98 94 3f
       1.1665674 0.82972234 0.84126544 1.1609007
0000f0 24 fc 7b 3f 8a 38 58 3f 0d ac 92 3f b8 0e 88 3f
       0.9843161 0.8446127 1.1458756 1.0629492

bn2.bias f4 [64]
000000 2f 4b 23 be aa 40 0b 3d 15 6f 85 be a7 b1 d0 bd
       -0.15946649 0.033997215 -0.2606131 -0.101901345
000010 1b d9 1f bd 05 dc c4 bc 5d 88 35 be b2 b5 61 bd
       -0.039025407 -0.024030695 -0.177278 -0.05510492
000020 22 11 2e 3c c7 ee ea bd ba d1 37 bd ff 9e dc bd
       0.010624202 -0.114713244 -0.044877745 -0.107725136
000030 19 c1 20 bc a9 84 72 be 4c 6f a3 be f5 f2 2f be
       -0.009811663 -0.23683418 -0.3192085 -0.17182525
000040 48 7f 64 bc 29 46 c4 bc 33 20 3f be 48 42 0d 3d
       -0.013946362 -0.023959236 -0.18664627 0.03448704
000050 f5 db e6 3d 04 05 04 be 88 4a a9 bd 45 6b 58 bd
       0.11272422 -0.12892538 -0.08266169 -0.052836675
000060 ed 03 a7 bd 8f 09 d8 bd e2 ad d3 bd b0 a0 5f bd
       -0.08155046 -0.10548698 -0.103359 -0.054596603
000070 2f cd 23 be d9 58 3d be fa 59 7b be c9 3d 08 bd
       -0.1599624 -0.18490924 -0.24546042 -0.033262048
000080 8e 66 64 bd a6 9a 0d 3c d3 65 d9 bd cc 32 a6 3d
       -0.055761866 0.008642828 -0.106151246 0.081151575
000090 b8 46 45 bd e9 8d a2 bd 87 9e 5a bd 6b 38 9a 3c
       -0.048163146 -0.079372235 -0.05337384 0.01882573
0000a0 45 2d 9e 3d e0 98 79 bd 6b e6 2c bd e8 0c 6f bd
       0.07723478 -0.06093681 -0.04221193 -0.058361918
0000b0 0e 01 e6 bc 92 fe 90 bb a7 91 02 be c5 02 18 be
       -0.028076675 -0.0044248784 -0.12750874 -0.14844806
0000c0 d7 bd 78 3d 27 0f 7d bc c0 82 99 bd 62 03 d6 bd
       0.06072792 -0.015445507 -0.07495642 -0.10449864
0000d0 b6 b9 5b be 00 53 88 bc 99 17 50 3c 7a f1 0f 3c
       -0.21457562 -0.01664114 0.012700939 0.0087856
0000e0 85 a4 91 3d c2 7b 04 be f8 72 73 3d bd 0f 36 be
       0.07111458 -0.12937835 0.059435815 -0.17779441
0000f0 ed 90 73 be d7 7f 95 be 0d ab 11 be f4 d4 ed bc
       -0.23785754 -0.29199097 -0.14225407 -0.029032208

bn2.running_mean f4 [64]
000000 06 e6 85 40 6e 38 8e 40 cc 74 c4 c0 e0 c9 55 c0
       4.184329 4.4443884 -6.1392574 -3.3404465
000010 b4 8c dd 3f c8 5f 3d c0 a0 8c ec 40 5e 23 e5 bf
       1.7308564 -2.958971 7.392166 -1.7901418
000020 f1 e1 57 c0 1c 7e 5f 40 3b c6 9b 40 a1 3b 3c 40
       -3.3731654 3.492072 4.867948 2.9411395
000030 00 ba e5 c0 8e 3c 99 40 77 0b ab 40 b6 4c b6 c0
       -7.178955 4.788642 5.3451495 -5.696864
000040 d2 75 41 3f 01 5c a4 c0 0f 6a 0a 40 fc 06 d7 40
       0.75570405 -5.136231 2.1627233 6.7196026
000050 da c2 24 3f d1 81 80 40 cf 73 6a c0 9a 56 97 c0
       0.6435982 4.0158467 -3.6633184 -4.7293215
000060 9e 29 81 c0 d8 d0 97 40 25 a0 6d 40 88 77 1f bf
       -4.03633 4.7442436 3.7128994 -0.62291765
000070 4c cd 01 41 7e 22 9e 40 82 b5 5d 40 37 81 e5 c0
       8.112621 4.9417105 3.4642034 -7.1720233
000080 3e 34 27 40 39 5a e4 bf 79 03 fe 3f f8 b0 db c0
       2.6125636 -1.7840034 1.984481 -6.8653526
000090 53 69 ce c0 03 a5 f4 3f e0 6c aa c0 7d 83 a5 c0
       -6.450357 1.9112858 -5.3257904 -5.172301
0000a0 ff fb 02 c1 c6 36 d2 be b9 18 89 c0 b2 4a 50 bd
       -8.1865225 -0.41057414 -4.284268 -0.050852485
0000b0 25 bd a3 3e f0 cb c9 c0 2e 6f d8 3e 96 35 df 40
       0.31980243 -6.3061447 0.42272323 6.9752913
0000c0 07 31 d8 c0 ce ac 70 bf 90 14 64 40 0d 13 1c 40
       -6.755985 -0.9401368 3.563755 2.4386628
0000d0 d4 09 97 40 df 42 b1 c0 90 1a 93 bf 0c 78 94 be
       4.7199497 -5.539413 -1.1492481 -0.28997838
0000e0 d4 50 56 c0 66 ce c7 c0 81 60 03 41 50 7c 4c 40
       -3.3486834 -6.243945 8.211061 3.1950874
0000f0 2c bb 30 40 09 b9 cb 40 a8 7c 7c 40 12 25 82 c0
       2.761424 6.3663373 3.9451084 -4.067025

bn2.running_var f4 [64]
000000 e9 a5 29 41 d2 c2 f4 40 03 ed 85 41 05 d0 dc 40
       10.603005 7.648782 16.740728 6.900393
000010 06 02 a3 40 a7 e8 bc 40 e1 32 dc 41 bd c3 45 41
       5.093997 5.9034 27.524843 12.360288
000020 ff 7a ce 41 64 2c 0f 41 a1 12 8f 41 f0 90 4f 41
       25.810057 8.948338 17.884096 12.972885
000030 d3 45 9c 41 fe 6c 3a 41 d0 b4 8e 41 29 e7 2b 41
       19.534094 11.651609 17.838287 10.743936
000040 cb e6 81 41 ea 40 4d 41 d8 7a af 41 0a 2a b6 41
       16.237692 12.828348 21.934982 22.770527
000050 8e 8b 8d 40 2d 5f 1d 41 df bf 1a 41 f5 91 af 41
       4.4232855 9.835736 9.671844 21.946268
000060 cf 67 8c 40 ef b0 e6 41 52 0a 28 41 29 94 fa 40
       4.387672 28.836393 10.50252 7.830586
000070 32 b1 f0 41 82 f1 33 41 4e 67 31 41 5e 45 a5 41
       30.086521 11.246462 11.087721 20.65887
000080 12 ac 6c 41 43 e6 89 41 68 e9 99 41 f9 73 ad 41
       14.792009 17.237432 19.238968 21.681627
000090 e8 07 67 41 36 54 bc 40 9e d0 3c 41 79 de 08 42
       14.43943 5.8852797 11.800932 34.21726
0000a0 e9 03 b8 41 88 36 4e 40 2e f6 01 41 e4 c0 90 41
       23.00191 3.2220783 8.122602 18.094185
0000b0 00 0c 3e 40 5d c0 c5 41 9b 79 39 41 e7 2c ce 41
       2.9694824 24.718927 11.592189 25.771925
0000c0 38 72 86 41 1a 68 53 41 0b c3 85 41 3e 04 cb 40
       16.80577 13.212915 16.720236 6.344268
0000d0 32 ce 85 41 90 56 43 41 9c 98 44 41 03 30 20 40
       16.725681 12.208633 12.287258 2.5029304
0000e0 5e 44 87 41 de 61 56 41 8a db db 41 15 dd 0c 41
       16.908382 13.398893 27.482197 8.803975
0000f0 a8 1c db 40 72 58 79 41 dd 85 6a 41 ae 82 10 41
       6.847248 15.584093 14.657681 9.031904

conv3.weight f4 [128, 64, 3, 3]
000000 68 17 42 bd d8 d6 51 bc b2 62 8e bd 03 77 9b bc
       -0.047385603 -0.01280757 -0.069524184 -0.018977648
000010 5e 09 8a bd aa 35 45 bd e0 22 38 bd b3 bb 7c bd
       -0.06740068 -0.04814688 -0.044955134 -0.06170244
000020 7c 01 2c bc 32 17 dd 3d de 56 85 3d fe 33 59 3d
       -0.010498401 0.1079544 0.06510709 0.0530281
000030 c0 43 5e 3d c4 64 65 3d e9 a4 c5 3d d2 87 91 3d
       0.05426383 0.0560043 0.09650595 0.07105984
000040 2f ec e7 3d ce 2e c5 3d fe 1e 9d bb 47 9f 17 3d
       0.11324345 0.09628068 -0.0047949543 0.037017133
000050 3e d1 d3 39 c6 85 f9 3c bb 61 35 3d 80 13 95 3c
       0.00040400954 0.030459296 0.044282656 0.018197775
000060 4a 36 da 3c 9b 98 89 3c 74 28 b1 3c 73 f5 8e 3c
       0.026637215 0.0167964 0.021625735 0.017451024
000070 e6 ab 10 3b 9a 10 87 bb ab d4 d5 ba 75 f7 2c bd
       0.0022075116 -0.004121852 -0.001631399 -0.04222818
000080 e8 d7 9a 3c a1 3a c7 3b 5a d5 60 3a 86 a9 b1 ba
       0.01890178 0.006079987 0.0008576714 -0.001355455
000090 c0 7a e7 3d 69 b0 1b 3d fa 6c 9b 3d 74 0c ef 3d
       0.113027096 0.038010035 0.07589145 0.11672297
0000a0 a1 92 22 3d dc be 4a 3d f1 76 ca 3d 03 29 ab 3d
       0.039690617 0.049498424 0.098859675 0.08357432
0000b0 e8 b3 b2 3d ea 24 22 3d a4 3e 22 3d 75 e0 8c 3d
       0.08725721 0.039585985 0.03961052 0.06878749
0000c0 ea 14 d8 3d 48 ba af 3d 6b cf 4b 3d a5 dd b3 3d
       0.10550864 0.08580452 0.049758356 0.0878251
0000d0 de 43 48 3d 0a f9 01 3d ef 9b f3 3b f9 6e 06 bd
       0.04889285 0.031731643 0.00743436 -0.032820676
0000e0 b1 39 90 bc a3 2b d1 bc bf 1d c2 bc 43 11 66 bd
       -0.017605634 -0.025533503 -0.023695825 -0.056168806
0000f0 62 a6 3c bd de 3e d2 bc 86 ed 84 bd 31 f7 b1 3d
       -0.046057113 -0.025664743 -0.064906165 0.08689726
000100 ab 53 6c 3d d9 c2 bf 3d 2f 9c 9d 3d a4 5b a6 3d
       0.05769698 0.09363336 0.07695805 0.08122948
000110 e0 81 93 3d 1c 52 99 3d aa a5 88 3d 17 55 cb 3d
       0.07202506 0.07486364 0.06672223 0.09928339
000120 5d 76 43 3d 15 85 6e bb 47 0a ec 3c 28 eb 21 bc
       0.047720302 -0.003639524 0.028813494 -0.009882726
000130 0c dc 1d 3c 6f 3c 92 bc 13 d6 e7 3c 98 32 05 3d
       0.009634983 -0.017851083 0.02830032 0.032518953
000140 5c 64 c7 3c 0b 30 55 bc 4f 7e 81 bd 54 34 2a bd
       0.024339847 -0.013011943 -0.063229196 -0.04155381
000150 74 b8 47 bd 0f 4a b2 bd 47 14 73 bd dc 4c aa bd
       -0.048759893 -0.08705532 -0.05934551 -0.08315441
000160 b2 79 c7 bc a5 bb 67 bd 30 e7 92 bc a3 dc 99 bd
       -0.024350021 -0.056575436 -0.017932504 -0.07512786
000170 ad 33 5c bd b3 d7 4a bc 0c e5 53 bd fe 26 b2 bc
       -0.05376022 -0.012380528 -0.051732108 -0.021747109
000180 9c 64 85 bc 61 1e 3d bd a5 37 85 bd eb b8 81 bb
       -0.016283326 -0.04617155 -0.06504754 -0.0039588115
000190 86 df b8 bc ed 28 81 bd 45 00 28 bc 94 37 0a 3c
       -0.022567522 -0.06306634 -0.0102539705 0.008436102
0001a0 b3 9d ae bc 61 b4 88 bd a5 db 5e bc 64 31 7c bd
       -0.021315431 -0.066750295 -0.013602172 -0.06157054
0001b0 47 a5 b1 bd b3 83 2d bd b5 fd 4c bd 19 7f b0 bd
       -0.08674102 -0.042361926 -0.05004664 -0.08617992
0001c0 7a fd d9 bd 50 27 29 bd 26 5a 6b bd 62 37 7f bd
       -0.1064405 -0.041297257 -0.05745902 -0.062308677
0001d0 23 69 82 bd de 7b 66 bc 02 c6 35 bd 2a c1 76 bc
       -0.063677095 -0.014067618 -0.044378288 -0.015060702
0001e0 40 88 6c bd 2f dd dd bc c4 e8 35 bc 95 98 9c bd
       -0.057747126 -0.027083008 -0.011102859 -0.0764629
0001f0 3f f0 b0 bc 9f 8b 2a bc 57 27 23 bc 29 ae cb bb
       -0.021598933 -0.010409265 -0.00995811 -0.00621583
000200 b7 54 9b bc dc a0 01 3d 2e 6b 74 bc 84 cd e8 bc
       -0.018961294 0.031647548 -0.014918132 -0.02841831
000210 71 47 17 bd ad c1 d3 3b 92 ed 7a 3c 77 c6 93 3d
       -0.036933366 0.006462297 0.01531543 0.072155885
000220 bc b8 85 3d b3 33 90 3d 32 3c 32 3d 9e 63 4c 3d
       0.06529376 0.07041111 0.043514438 0.04989969
000230 9b a1 a9 3d ae d6 6f 3d 76 71 a1 3d 9b b3 ab 3d
       0.08282777 0.058554344 0.07882969 0.083838664
000240 4e 0a 12 3d 48 ed db 3d 3e e7 22 3e 93 e9 2d 3d
       0.03565436 0.10738617 0.15908524 0.04245908
000250 c6 53 09 3e 94 f9 ff 3d 7e 3b c1 3d cd 52 c4 3d
       0.13410863 0.12498775 0.09435175 0.095861055
000260 f1 ce ef 3d cd a8 5c 3b 9b 9a 90 3d 12 ae bb 3d
       0.11709393 0.003366995 0.07060739 0.09164061
000270 03 07 7b 3d 59 cf b8 3d aa ae a0 3d 36 da 46 3c
       0.061285984 0.090239234 0.078458145 0.0121369865
000280 2f 3a 8f 3d 48 26 6a 3d 8b 70 b5 3d b2 4c 8c 3d
       0.069935195 0.057165414 0.088593565 0.06850566
000290 40 a8 a6 3d 10 4e f9 3d bc 20 bb 3d f6 43 00 3e
       0.0813756 0.12173092 0.09137103 0.12525925
0002a0 91 52 f4 3d 60 a3 b2 3d bb 5c a7 3d 4e 3e 8d 3d
       0.11929811 0.087225676 0.08171984 0.06896649
0002b0 17 29 ba 3d f6 bc f8 3d 0d 8e e9 3d c1 dc 67 3d
       0.090898685 0.121454164 0.11404047 0.05660701
0002c0 ab 41 d1 3d c1 7c f2 3d 8b 54 eb 3d 1c 27 e1 3d
       0.10217603 0.11840201 0.11490735 0.10993788
0002d0 d0 a9 bf 3d 97 84 83 3d 50 0f a5 bb b0 9b a1 3d
       0.09358561 0.06421774 -0.005037226 0.07891023
0002e0 5f 84 a6 3c 00 1a 06 bd e0 f1 28 3d 75 d5 0b 3d
       0.020326791 -0.03273964 0.041246295 0.034139115
0002f0 94 8f 83 bd b2 5e 8c bd bb 07 87 bb 2c 1c 18 bd
       -0.0642387 -0.06853999 -0.0041207946 -0.03713624
000300 b7 6d 62 bd 4b 00 61 bd b7 9a 99 bd 82 e6 4e bd
       -0.055280413 -0.05493192 -0.07500213 -0.050512798
000310 06 6c d8 bb 86 f1 43 bd a4 db 94 bb 43 c8 81 3d
       -0.0066046743 -0.047837757 -0.0045427848 0.06337025
000320 8e f1 d1 3c 1d e6 2f bc ef 26 4f 3d 8b 0c 8f 3d
       0.025627878 -0.010736016 0.05057424 0.06984814
000330 94 ed 82 3c df b5 76 3d d2 2a 63 3d e8 31 6a bd
       0.015982427 0.06023204 0.05546076 -0.0571765
000340 98 90 b6 bc fc 83 15 be 2e 3f 8e bd da e5 6e bc
       -0.022285745 -0.1460113 -0.06945644 -0.014581168
000350 6a 7a b5 bd 20 12 d5 bd 64 b2 3d bd 49 54 92 bd
       -0.08861239 -0.10403848 -0.046312705 -0.07144982
000360 e5 c4 76 3a c7 f3 db bc 58 29 c5 b7 60 13 70 3c
       0.0009413495 -0.02684964 -2.3503482e-05 0.014653057
000370 8f 7d 3f bd 60 af 58 3a 32 76 77 bd 81 09 f5 3b
       -0.0467506 0.0008265879 -0.060415454 0.0074779396
000380 7c 1e 51 3b 39 5e 9e bc d3 54 20 bd f2 36 91 bd
       0.003190904 -0.019332038 -0.039143395 -0.07090558
000390 79 d8 9f bd 6b 4c 6e bb b4 d6 86 bc e4 e2 93 bc
       -0.07804961 -0.0036361467 -0.0164598 -0.018052526
0003a0 ae 39 5d bd 67 39 6d bd 6c c2 d4 bc 33 88 41 bd
       -0.054010086 -0.05791607 -0.025971614 -0.04724903
0003b0 3d 13 7a bc b3 a1 0b bd f8 6a 27 bd 9b 92 04 bc
       -0.015263376 -0.034089755 -0.040873498 -0.008091594
0003c0 d2 e3 61 bd 3f 16 1a bc 7e 12 a6 bd f6 aa b2 3d
       -0.055148907 -0.009404718 -0.08108996 0.087240145
0003d0 27 66 49 3d a9 cd 65 3d af a7 a0 3d c4 de 47 3d
       0.049169686 0.056104336 0.07844483 0.04879643
0003e0 4f 7c a0 3d 5a f2 c2 3d c1 ee 83 3d 0e da a6 3d
       0.0783621 0.09518881 0.06442023 0.081470594
0003f0 c4 7c 74 bd 9b 25 b8 bc 65 a4 b6 bc 82 bb 6b bd
       -0.0596893 -0.02247887 -0.022295186 -0.05755187

conv3.bias f4 [128]
000000 4c 36 e5 3c 0f b9 f0 3d cc af 4e bd d7 0c 3b 3c
       0.027979992 0.11754047 -0.05046062 0.0114166355
000010 79 8d 22 bc 7c 5c 88 bd c6 84 23 3d f0 34 78 bd
       -0.009921425 -0.06658265 0.039921544 -0.06059736
000020 fc 10 d6 3c db 47 86 bc 35 25 c3 bd 15 06 28 be
       0.026131146 -0.016391685 -0.09528581 -0.1640857
000030 d9 d4 6a bd e8 d2 ac bc ac 11 fe bb 94 f0 41 3b
       -0.057331894 -0.021096662 -0.0077535715 0.0029592859
000040 06 1d 97 3d d6 60 08 3d 72 d9 6e 3d 08 12 eb 3c
       0.07378583 0.033295475 0.05831284 0.028695121
000050 36 22 32 3d aa be 0e bd 25 e1 5a 3d 46 89 9a 3c
       0.043489657 -0.0348498 0.05343737 0.018864285
000060 2d 06 38 bd 10 1a a5 bd 76 28 53 3d 13 5d 18 3c
       -0.044927765 -0.08061612 0.05155226 0.009299534
000070 32 8e f5 3b 5b b2 e8 3c 89 57 a9 3b 4b fb 85 3d
       0.0074937576 0.028405359 0.0051679057 0.06542071
000080 e8 c3 e5 3b a0 e6 06 bd e5 60 43 bd 16 3c a2 3d
       0.0070118792 -0.032934785 -0.047699828 0.07921617
000090 ac 3f af 3d da e3 df 3c 50 7f fd bb 39 88 5a bd
       0.08557066 0.027330328 -0.007736124 -0.05335257
0000a0 4d 5e 2e 3d 2f cd 0b ba 20 26 68 bd da 94 c2 3c
       0.0425704 -0.0005333004 -0.056676984 0.023752619
0000b0 b8 ec e7 3c 8e ba 47 3d 39 58 ab bc e8 c3 af bc
       0.028311118 0.048761897 -0.020916091 -0.02145572
0000c0 f2 d9 76 bd f9 75 e6 3c 48 ea 38 bd ed 1b 76 3d
       -0.060266443 0.028132426 -0.045145303 0.060085226
0000d0 58 7f f7 bc b6 f2 10 bd f0 f5 8f 3d 46 bb 17 bc
       -0.03021209 -0.035387717 0.07029331 -0.009260958
0000e0 57 a2 46 bd 3a dd 34 3d 12 e8 43 bc 6f 20 73 bd
       -0.048494663 0.04415629 -0.011957185 -0.059357103
0000f0 2d bc 2a 3c 4a 04 8b bc 50 8e 04 3d 5e 4d b1 3d
       0.010420841 -0.016969819 0.032362282 0.08657335
000100 96 4b 16 bd 0e df fd bd 55 f7 71 3d a7 4c 44 bc
       -0.036693178 -0.1239606 0.059073765 -0.011981166
000110 5e 65 ac bc cc 14 71 3d 15 1a d8 3d e1 2f 4f bc
       -0.02104443 0.058857724 0.1055185 -0.012645693
000120 d2 ef e1 3c 75 b8 b8 3d b8 73 d7 3d f4 bf 06 3e
       0.027580176 0.090195574 0.105201185 0.13159162
000130 b7 2b dd 3d 8d d6 03 bc 0f 46 bd bd 50 22 fd 3b
       0.107993536 -0.008046758 -0.09241878 0.0077250376
000140 b7 9c db 3c 6f dd 4e 3d 8f 79 35 be 1a 71 04 be
       0.026808126 0.050504144 -0.17722152 -0.1293377
000150 94 f9 b7 bc 18 1f c1 3c 83 72 30 bc 7d eb 73 3b
       -0.022457875 0.023574397 -0.010769489 0.003721922
000160 b3 af a0 bd df 23 0e bd a4 c3 7b 3d d4 ef e0 bc
       -0.07846012 -0.034702178 0.061465874 -0.027458109
000170 bc e1 aa bd ec 18 89 3d 91 06 8c 3d e7 b8 75 3c
       -0.08343837 0.066942066 0.0683719 0.014997697
000180 cd 1e 7d 3d c8 dc e9 bb a5 33 c3 3d 0e 43 d6 bd
       0.061796952 -0.007136915 0.09531335 -0.104620084
000190 f4 c1 fc bb d1 61 01 3d 8d 00 21 bc 6e 4c 49 3c
       -0.0077135507 0.031587426 -0.0098267915 0.012286289
0001a0 0c ef 50 bb e0 ce 3c bd 1c 4c 5f 3d 1d 19 95 3d
       -0.0031880764 -0.04609573 0.054515943 0.072801806
0001b0 b7 c7 af bc 4e b2 68 3d 7e 39 c6 3d 35 fd c9 3d
       -0.021457536 0.05681067 0.096789345 0.098627485
0001c0 7d 5e e8 3d e0 80 af b8 f7 0c 16 3d 64 d4 86 39
       0.11346147 -8.368655e-05 0.036633458 0.00025716715
0001d0 67 7d 7c 3b 19 a4 cb bd 35 6a 0d 3e 76 80 9b 3c
       0.0038526894 -0.099434085 0.13810046 0.018982153
0001e0 7b b1 54 3d 18 4b d3 3d 0c 8d e0 3a 26 54 ed 3b
       0.05192707 0.10317057 0.0017131879 0.0072426973
0001f0 61 d9 92 bd ac a0 cb 3d d2 b3 76 bd 09 dc 0b bd
       -0.07170368 0.09942755 -0.060230084 -0.03414539

bn3.weight f4 [128]
000000 55 a3 80 3f 42 5b 7c 3f 11 08 8b 3f 7b a7 88 3f
       1.0049845 0.9857675 1.0861837 1.0676111
000010 78 cb 8e 3f 4d fe 8d 3f d3 c7 80 3f 6c 2f 8f 3f
       1.1155844 1.1093231 1.0060982 1.1186347
000020 33 25 74 3f dc 99 86 3f 2a 02 8a 3f 9f 34 90 3f
       0.9536926 1.0515704 1.078191 1.1266059
000030 1d 8c 84 3f 1d 20 94 3f 0b 90 89 3f e3 9e 86 3f
       1.0355259 1.15723 1.0747083 1.0517238
000040 83 37 77 3f 66 55 91 3f ad b6 5f 3f 49 bb 83 3f
       0.9656908 1.1354187 0.87388116 1.029153
000050 32 e6 88 3f 15 bb 6c 3f c1 28 85 3f a1 0b 77 3f
       1.069525 0.92472965 1.0403062 0.9650212
000060 ad 43 7d 3f 4a 8b 81 3f 57 74 87 3f 85 3b 72 3f
       0.9893139 1.0120633 1.0582379 0.9462207
000070 1e 02 82 3f aa 6c 85 3f 2c cc 92 3f d8 0f 85 3f
       1.0156896 1.0423787 1.1468558 1.039546
000080 3b 5f 83 3f 66 9e 8b 3f f7 9d 80 3f 7d ce 83 3f
       1.0263437 1.0907714 1.0048207 1.029739
000090 33 b6 86 3f ca e9 86 3f 06 88 7a 3f 95 08 8b 3f
       1.0524353 1.0540097 0.97863805 1.0861994
0000a0 ed f4 7c 3f 04 5e 89 3f 35 ca 84 3f e0 80 83 3f
       0.9881123 1.0731816 1.0374209 1.0273705
0000b0 7c 71 89 3f 5a 3c 7e 3f 91 34 8a 3f 19 48 80 3f
       1.0737758 0.9931084 1.0797292 1.0022002
0000c0 62 23 8c 3f c2 ca 8f 3f 84 09 89 3f 6c 06 8d 3f
       1.0948298 1.1233752 1.0706029 1.1017585
0000d0 04 5e 89 3f f0 66 83 3f b0 25 6d 3f 9c 4e 89 3f
       1.0731816 1.0265789 0.9263563 1.0727115
0000e0 31 35 88 3f 5b 5e 85 3f 02 28 7b 3f ce de 85 3f
       1.0641233 1.041942 0.9810792 1.045862
0000f0 c6 8a 85 3f 48 ba 66 3f 65 a7 8f 3f 55 51 7e 3f
       1.0432975 0.9012799 1.122296 0.9934285
000100 f0 b8 94 3f e0 ce 88 3f e9 6c 79 3f d3 ce 92 3f
       1.1618938 1.0688133 0.9743181 1.1469368
000110 67 fc 85 3f ea 90 70 3f 66 8f 85 3f 03 bd 5c 3f
       1.0467652 0.9397112 1.0434387 0.8622591
000120 7e f9 86 3f e7 92 8b 3f 78 6f 83 3f f4 37 81 3f
       1.0544889 1.0904206 1.0268393 1.00952
000130 11 9b 8f 3f cb 89 5c 3f 86 9c 78 3f 3d 2b 7a 3f
       1.1219198 0.86147755 0.97113836 0.97722226
000140 ea a9 71 3f e6 b0 69 3f b1 dd 82 3f 23 c5 7c 3f
       0.94399893 0.9128555 1.0223905 0.98738307
000150 ac 12 8a 3f af 52 71 3f a5 79 8f 3f 08 2d 8d 3f
       1.0786948 0.9426679 1.1208998 1.1029367
000160 a3 83 75 3f 4f ba 96 3f 84 57 81 3f 0e 37 96 3f
       0.95903987 1.1775607 1.0104833 1.1735551
000170 af 9c 84 3f 3c 64 8a 3f 72 20 8b 3f 1c e1 89 3f
       1.0360316 1.0811839 1.0869277 1.0771823
000180 08 a7 69 3f 06 f7 7c 3f 06 86 8e 3f c0 7d 8e 3f
       0.91270494 0.9881443 1.1134651 1.1132126
000190 5c 1e 8c 3f 1d 00 88 3f 04 2a 76 3f 35 5f 81 3f
       1.0946765 1.0625035 0.9615786 1.010718
0001a0 8a 5b 80 3f a4 28 8e 3f 6b 86 98 3f 05 62 87 3f
       1.0027936 1.1106153 1.1916021 1.0576788
0001b0 cd 28 8b 3f 1f 2e 86 3f 99 0c 88 3f 65 b3 85 3f
       1.0871826 1.0482825 1.0628844 1.0445372
0001c0 89 86 96 3f 93 b0 7c 3f f0 a7 8b 3f 98 69 86 3f
       1.1759807 0.9870693 1.0910625 1.0500975
0001d0 d8 ed 5d 3f 01 d6 85 3f ba 88 7d 3f 4e 53 5f 3f
       0.86691046 1.0455934 0.99036753 0.8723649
0001e0 1f 8a 93 3f 50 15 81 3f aa 0b 7d 3f ff a6 80 3f
       1.1526526 1.0084629 0.9884592 1.0050963
0001f0 8c 3d 86 3f 07 4a 97 3f 18 14 8e 3f 6b 9f 87 3f
       1.0487533 1.1819466 1.1099882 1.0595526

bn3.bias f4 [128]
000000 45 04 15 bd b7 b2 7c bc 7b f2 34 bd e6 fd 4b 3b
       -0.036381025 -0.015423468 -0.04417656 0.0031126677
000010 50 1a e2 bc f0 49 a9 3d b5 cc e3 bc 59 f4 c0 3c
       -0.027600437 0.082660556 -0.027807573 0.023554014
000020 3c ee 96 bc bf be 00 3d eb 62 71 3d 53 54 20 bd
       -0.018424146 0.03143191 0.058932226 -0.039142918
000030 11 bc fd bc d6 36 c9 3c 44 86 ba bc 55 09 ab bd
       -0.030973466 0.02456228 -0.022769101 -0.08351389
000040 bf 50 19 bc 48 ee c2 bb f1 0d f4 bd be eb 08 3c
       -0.00935763 -0.0059488155 -0.119167216 0.008356987
000050 f4 dc 49 3d 51 82 a2 bd b4 47 5c 3c ca e8 1f bd
       0.049282983 -0.07935012 0.01344483 -0.039040364
000060 4d af a8 bc 0e 85 3a bd 5c 7d 30 bc cf 86 ed bd
       -0.020591402 -0.045537047 -0.0107720755 -0.11597978
000070 05 4b bc bb 1e 4e 6d 3d 2f 1c 04 bd 82 60 8d 3c
       -0.0057462477 0.057935826 -0.03225344 0.017257933
000080 34 c5 db bb 6e d1 16 bd 96 37 45 bc dd 52 ef 3b
       -0.006706858 -0.03682082 -0.0120371785 0.0073035792
000090 b5 01 08 bd 8b 39 2a 3d 5c 23 d8 bc ae e4 43 3d
       -0.033204753 0.041558784 -0.026384048 0.047825508
0000a0 4c 89 ec bc c9 43 ae bd ab ec 19 bd 68 cb b9 3b
       -0.028874062 -0.08509023 -0.03757922 0.00567
0000b0 71 e0 bc bd c1 b8 2a bc 61 0e dd ba 52 1f d8 bc
       -0.09222496 -0.010420025 -0.0016865247 -0.026382122
0000c0 21 fa bc bd 6f ab ab bc a9 21 3b bb 79 12 33 bc
       -0.09227396 -0.02095577 -0.0028553999 -0.010929697
0000d0 9a f2 02 be 09 75 1e bd 9c 43 a1 bd 58 d5 1c bd
       -0.12787858 -0.038685832 -0.078742236 -0.038289398
0000e0 ab d1 17 bd 14 0f 97 3d d7 bc 12 bd 04 80 c0 bd
       -0.03706519 0.07375923 -0.035824623 -0.09399417
0000f0 03 f0 8e bd 0e 95 fd bd 5f ac 7c bd fa 60 27 bd
       -0.06979372 -0.123819456 -0.061687823 -0.04086397
000100 25 9e 04 3c a5 a3 3d 3d f6 cf e7 bc 1c 2b 86 bc
       0.008094345 0.04629864 -0.028297406 -0.016377978
000110 7e 9d cb 3c ab 8e ca bc 57 92 c4 3b dd 2c da bd
       0.024855372 -0.024726233 0.0059988904 -0.10653088
000120 9e df 4e 3c 12 81 4e 3b 15 ae c4 bd a3 af b1 3b
       0.012626557 0.0031510037 -0.09603516 0.005422549
000130 d0 2c 0c 3d e5 ea bc bd 6e d4 04 bd 49 14 e4 3c
       0.034222424 -0.0922449 -0.03242915 0.027841704
000140 c4 62 8c bd ef d5 d8 bd e3 ae 12 3c 7c 66 0b be
       -0.068547755 -0.105876796 0.008952829 -0.13613313
000150 06 32 8f 3d b7 07 42 be df 03 5f bc ac 84 fd bd
       0.06991963 -0.18948255 -0.013611763 -0.12378821
000160 f2 df 38 bd 7b 13 81 3d 4f ca f3 ba 52 02 a3 3d
       -0.045135446 0.06302544 -0.0018599721 0.07959427
000170 35 a4 e5 3c 3d 9a 27 bd 67 4b 5e bd ca fa 89 3d
       0.028032402 -0.040918577 -0.054271128 0.06737287
000180 fb a0 14 be bc b6 28 ba e7 f8 c3 3c f9 6b 6a bd
       -0.14514534 -0.0006435921 0.023922397 -0.057231877
000190 27 b5 2a bd 70 1f 59 bd 02 d3 1a be 66 57 34 3c
       -0.041676667 -0.053008497 -0.15119556 0.011007166
0001a0 74 bd e3 bd 94 f6 69 bd 9d 3b 45 3d 96 37 84 bd
       -0.1112012 -0.05711992 0.048152555 -0.06455915
0001b0 f6 7b db bc fc cb 85 3c 2c 55 c2 3c 41 8f db bd
       -0.026792508 0.016332619 0.023722254 -0.10720683
0001c0 f9 09 62 bc c4 bf 0d bd ff d3 5b bd cd d4 3e 3d
       -0.013796323 -0.03460671 -0.053668972 0.04658966
0001d0 1b ff fc bd b9 54 cd bc d0 aa 6d bd 3a 3a f1 bd
       -0.12353345 -0.025064813 -0.058024228 -0.11778684
0001e0 18 a0 7b 3b 92 1c 8b ba f7 f9 43 bb fa 34 60 3c
       0.0038394984 -0.0010613373 -0.002990363 0.013684506
0001f0 ae 64 60 3d c7 36 ca bb b4 88 06 bc 67 3c f6 3c
       0.054783516 -0.0061710807 -0.0082113035 0.030058099

bn3.running_mean f4 [128]
000000 c5 fe 21 be 8b 10 02 c1 02 cf 10 41 d9 ff 26 41
       -0.15819843 -8.129039 9.050539 10.437463
000010 be e0 13 41 b0 f7 8b c0 7b c3 01 c1 49 d8 37 41
       9.242369 -4.3739853 -8.110225 11.490304
000020 0d 97 e7 3f 27 68 15 c1 a1 e8 a4 c0 30 3a 23 41
       1.8092972 -9.337928 -5.153397 10.201706
000030 88 3c 27 41 38 ce 59 41 b1 8a 2c 41 b0 18 34 41
       10.452278 13.612846 10.78386 11.256027
000040 f9 29 7e 3e 84 8c 4f 41 0d d3 50 c0 ba 50 95 c0
       0.24820699 12.971806 -3.2628815 -4.6661043
000050 9f da c2 c0 54 b4 cc be 77 70 04 c1 d6 35 0c c1
       -6.089187 -0.3998133 -8.277457 -8.763144
000060 d2 23 39 c1 55 7e 09 41 18 5f 2e 41 24 a2 51 3f
       -11.571245 8.593343 10.898216 0.8188803
000070 1f 31 1b c1 08 b7 8b 40 ce 11 1b 41 80 d7 35 c1
       -9.699492 4.3660927 9.691847 -11.365112
000080 d6 68 16 c1 b1 ff 3c 41 26 cb 11 c1 78 0b 04 c1
       -9.400595 11.812425 -9.112097 -8.2528
000090 93 34 3a 41 14 4e e0 c0 9c 8d 22 c1 54 0e 99 c0
       11.6378355 -7.009531 -10.159573 -4.782999
0000a0 f4 d4 1a c1 ff 5b 86 41 be 4f 0e 41 ef a9 e5 c0
       -9.6769905 16.79492 8.894468 -7.176994
0000b0 f1 61 81 41 48 52 8d c0 46 69 1b 41 6e 46 ba c0
       16.172823 -4.416294 9.7132015 -5.8210974
0000c0 fa 61 0a 41 ee 4c 20 41 94 94 5d 41 43 d8 45 41
       8.64892 10.018782 13.848774 12.365298
0000d0 e1 ab 4b 41 26 9b 1a 41 33 77 fe c0 2a 1c 14 41
       12.729463 9.662878 -7.9520507 9.256876
0000e0 41 bd 7c 41 39 d6 eb c0 51 f1 47 c0 90 c1 79 41
       15.796205 -7.3699 -3.1241038 15.609756
0000f0 95 62 88 41 8c 27 15 c1 bd e5 38 41 46 a7 93 40
       17.048136 -9.322155 11.556088 4.614169
000100 59 4b 0f 41 f5 97 03 c1 2d c5 69 c0 eb 39 2e 41
       8.955895 -8.224599 -3.6526597 10.88914
000110 67 f3 1d c1 7a 99 c9 c0 8d ea 65 bf 43 60 fd bf
       -9.871924 -6.299985 -0.8981102 -1.9795002
000120 61 e4 92 c0 9a 4d 66 40 42 a2 5b 41 47 ed 95 c0
       -4.5903783 3.5984864 13.727114 -4.6852145
000130 1d dc 20 41 c4 8d de c0 f1 b7 c7 c0 aa 52 b0 c0
       10.053739 -6.9548054 -6.241204 -5.510091
000140 be c1 12 c1 5e 63 c0 40 ca 13 04 c1 db c6 0f 41
       -9.1723 6.01213 -8.254831 8.986049
000150 2c a6 0d c1 90 98 06 41 6f cb 8a 41 1d cd 1e 41
       -8.853069 8.412247 17.349333 9.9250765
000160 0c bf 68 c0 8f fb 6c 41 94 d9 d7 c0 05 d0 76 40
       -3.6366606 14.811416 -6.74531 3.8564465
000170 b1 7b ea c0 9c 1a 1e 41 8b 43 32 41 04 0d 8f c0
       -7.327599 9.881496 11.14149 -4.470339
000180 73 1d 16 41 9b aa 5b bf dc 98 22 41 6d be 13 41
       9.38219 -0.858072 10.162319 9.233991
000190 7a 80 2d 41 0e d6 6a 41 bc d2 7f 40 33 52 14 c1
       10.843866 14.677259 3.9972372 -9.270068
0001a0 c5 27 33 41 d5 2e 28 41 10 f4 4b 41 5d b5 1e 41
       11.197209 10.511434 12.747086 9.919278
0001b0 35 31 41 41 2c c5 14 c1 06 cf ae c0 25 48 1a 41
       12.074513 -9.298138 -5.4627714 9.642613
0001c0 6a 9e 08 41 12 ca b3 c0 4f 41 28 41 de a4 03 c1
       8.538675 -5.618417 10.5159445 -8.227751
0001d0 5d 97 2d c0 ae 28 37 41 30 39 08 c1 3f 00 b3 bf
       -2.7123635 11.447432 -8.513962 -1.398445
0001e0 26 69 48 41 fa 23 20 c0 1c cc ce c0 cf 0c bd c0
       12.525671 -2.5021958 -6.4624157 -5.9078135
0001f0 fd 8f b7 c0 6e b4 70 41 bd 1e 6c 41 bc 6e e4 c0
       -5.7363267 15.04405 14.757504 -7.1385174
