models/saved_models/ser_mel.pt (torch, 971166 bytes, 20 tensors)

conv1.weight f4 [32, 1, 3, 3]
00000000: a82f f7bc 3c79 ee3d 134f 843e ff37 30be
00000010: d0ec 153e 3730 cabd aade b13e d845 623e
00000020: a962 8c3e 3b1c 043e 1fda 32be e2ca 94bd
00000030: 8612 6cbe 1484 da3d bc4a 43bd 9b12 c9be
00000040: e7eb 08be df06 193e 3f22 e8be 222b c2bd
00000050: dfd3 d3bd 6bc9 cebe 02fd e4bc 7fb7 5b3e
00000060: b3c9 8fbe aed2 e8bd a5d6 17be 051b 873e
00000070: 95bb 5e3e 899f 513e ec74 b93e 85e5 7e3e
00000080: 13b4 80bd 9c0f 2bbe 1d21 1abc 33bc 343e
00000090: f8b7 d53e 6a55 1dbe 3bc4 6d3e 0675 063e
000000a0: 4726 bb3e e5b9 7ebe 1be7 c83e 8710 c33d
000000b0: 12f0 debd efd1 fc3d 376e cf3e 0f2c 653e
000000c0: 627e 683e a4e1 40bd e730 7f3e 838f 053d
000000d0: 1f04 c53e e5b7 9a3e d3a3 55be c87b 89bd
000000e0: 6c58 263e 16f2 e9bd 7c47 02be 3d1f 253e
000000f0: ab29 7cbe d0b0 4bbe 33f2 8abe d59f d43e
00000100: 0918 e03d 13dd 883c 26bc c83e 23ae e63d
00000110: 2599 243e e0d6 b93e 9c72 4bbe b890 68be
00000120: 87a6 f33d 8a2e b8be 7797 d63c 355a 2e3e
00000130: b5c4 95be 5043 76be 2ad6 b1be d3e5 3cbd
00000140: f96b 9dbd d91f c4be 48d7 60be e27d f53c
00000150: ccbc 2cbe de4c 4b3e 5e3f 07be a250 bbbe
00000160: bf98 42be b729 c33d 94ec 6c3e 9d9c c03c
00000170: 3b0b 593e 445a 093e c5c4 7f3e 3524 f7bd
00000180: f572 acbc 1e22 debd 62a3 cc3e 9965 6abd
00000190: d17b b73e d4c9 223d 5097 4b3e 1237 55be
000001a0: 62af 163e ec78 613c 0bee c23e 7263 9b3c
000001b0: 5031 e9bd c812 a7be e778 d2bd 0c1c 28bd
000001c0: ea53 b2be d244 8dbe e211 1d3e 665c f5bd
000001d0: 4073 ee3d 50b0 e53d d215 083e 7198 103c
000001e0: e31e 1a3e 4f21 7a3d 872d 04bc 3e44 4f3e
000001f0: 8320 033d 0321 c43d 0a9e 1f3d b020 5fbd
00000200: 171b 38be bb05 99bd 9274 39be 7bb7 033e
00000210: 4034 83be cf7a 83bd 0896 a2be cd08 b4be
00000220: 67b8 27be a5d6 ea3c 845e 39be 2e3c c83b
00000230: 5990 e13d 62c9 05be 61ed 1f3d 7da4 20be
00000240: 36c2 903e fa16 98bd 7dca 4dbe 4165 8cbe
00000250: 6a86 5c3e 2b12 a03e 4dfa 433e a4d6 c83e
00000260: d7bd 28be 773c 2f3e c4a2 973e 365f 0ebe
00000270: 7424 573e 0adb 5cbe 3ace 61be 9fc2 c03c
00000280: 60e3 8f3e 26e5 09bd e20e 84bd 0bb5 9e3e
00000290: 14cc 1b3e 9eaa 233e 4410 5cbe 362a 81be
000002a0: 52af 543e 94fa 943e 6bfb 023e eb27 813e
000002b0: 9ef4 b53e 6c42 05be ab95 b63e 6cc2 013d
000002c0: 8167 b33e e0b0 cb3c b132 ac3e 1738 2fbe
000002d0: 19ac 083e 5dd3 36bd 4704 553d 82dc 7abe
000002e0: b093 e6bd 26ca 0cbe 508f de3d 95b4 853c
000002f0: a162 85be 7df6 a5bd 74d0 22b8 5b7b 60be
00000300: f41c 61be bd83 84be 6681 94be c8c8 3dbe
00000310: cd54 5e3d f976 2d3e 8e10 cbbe e949 febd
00000320: fbb6 9dbd 4e0e 48be fb06 9b3d 9e94 efbc
00000330: 12fb d7be f0bd 0cbe 4e28 b83d e31e 98be
00000340: 7f7d 54be efc8 f93b 9fc4 81bd a532 3bbe
00000350: 3953 4abd 30cf 80be 8dee 01be 7587 9c3d
00000360: bc93 fd3c bd57 a83d fd6f 793e 7eeb 493e
00000370: cfce 5ebe 2cf5 c9be 32bd b8be 557e c1be
00000380: 3609 05be 96d8 2e3e 0d8b 183e d0f1 833e
00000390: 437d b63e b514 a33c d98a 8abe 66c1 f4bd
000003a0: 1407 9c3e f64b e33c 159d d0be 9af5 07be
000003b0: 7301 263e 09c9 00be e83b f4bd 2686 7abd
000003c0: db61 8abe a95b 41be 0d25 7cbd ff36 a03d
000003d0: 4081 d53d 0f23 70be 8eea 4fbe f4d8 96be
000003e0: 5329 2dbe 95c3 50be 553f 83be 4acf 543e
000003f0: ed97 54bd 5f0a 003e d84e 80bd d1a6 563e
-0.030174091 0.11644217 0.2584158 -0.17208861 0.14641118 -0.098724775 0.34740192 0.22096956
0.27419022 0.12901394 -0.17466019 -0.07265259 -0.23053941 0.10669723 -0.047678694 -0.39272007
-0.1337124 0.14944027 -0.45338628 -0.09480883 -0.103431456 -0.40388045 -0.027952675 0.21456717
-0.28083572 -0.11368309 -0.14827974 0.26387802 0.21751244 0.20471014 0.36222017 0.24892242
-0.062843464 -0.16705173 -0.009407309 0.17649917 0.4174192 -0.15364614 0.23219387 0.13130578
0.3655264 -0.248756 0.3923882 0.09524637 -0.108856335 0.12344729 0.40513775 0.22380088
0.22704461 -0.047090188 0.24920999 0.032607567 0.38479707 0.30218425 -0.20863275 -0.067130625
0.16244668 -0.11423127 -0.12722582 0.16125198 -0.2462527 -0.19891667 -0.27137908 0.41528192
0.10942084 0.016706979 0.39206046 0.11263683 0.16074045 0.3629675 -0.19867939 -0.22711456
0.11896997 -0.35973006 0.026195271 0.17026599 -0.29251638 -0.24049115 -0.34733707 -0.046117615
-0.0768661 -0.38305548 -0.21957123 0.029967252 -0.16868895 0.19853541 -0.13207766 -0.36584955
-0.1900358 0.09529441 0.23137122 0.023512179 0.2119569 0.1341334 0.24977405 -0.12067453
-0.02105091 -0.10846351 0.399684 -0.057225797 0.35836652 0.03974326 0.1988194 -0.20821789
0.1471534 0.01376174 0.38072237 0.018968318 -0.11386359 -0.32631516 -0.102769665 -0.041042373
-0.34829646 -0.27591568 0.15338853 -0.11980514 0.11643076 0.112152696 0.13289574 0.008825407
0.15050845 0.06106692 -0.008067495 0.20240876 0.032013427 0.09576609 0.038969077 -0.054474533
-0.17979084 -0.07471796 -0.18110874 0.12862961 -0.256258 -0.06419908 -0.3175509 -0.35162964
-0.16378938 0.028666804 -0.18102461 0.0061106896 0.1101386 -0.13065103 0.03904474 -0.15687747
0.2827317 -0.074262574 -0.20096774 -0.27421 0.2153565 0.3126386 0.19138451 0.39226258
-0.16478668 0.1711291 0.29616368 -0.13903508 0.2101 -0.21567932 -0.22051325 0.023530303
0.2810316 -0.0336658 -0.06448151 0.309975 0.15214568 0.15983054 -0.2149058 -0.25227517
0.20770004 0.29097426 0.12791221 0.25225767 0.3553819 -0.13013619 0.35661063 0.031679556
0.35039905 0.024864614 0.33632424 -0.1711124 0.133469 -0.044635165 0.052006032 -0.2449818
-0.11258638 -0.13748989 0.108671784 0.01632146 -0.2605181 -0.081036545 -3.8817947e-05 -0.21922056
-0.21983701 -0.25881758 -0.29004973 -0.18533623 0.05428009 0.16939916 -0.39661068 -0.12416441
-0.077009164 -0.19536707 0.07569691 -0.02924567 -0.4218374 -0.1374433 0.089920625 -0.29711065
-0.20750998 0.00762283 -0.063363306 -0.18281038 -0.049395774 -0.25158072 -0.12688656 0.07643024
0.030954234 0.0821986 0.24359126 0.1971874 -0.21758579 -0.39444864 -0.36081845 -0.37791696
-0.12991795 0.17074808 0.14896794 0.25770426 0.35642442 0.019907335 -0.27059057 -0.1195095
0.3047415 0.027746182 -0.40744844 -0.13277283 0.1621149 -0.12576689 -0.11925489 -0.06116309
-0.27027783 -0.18882622 -0.061558772 0.0782299 0.10425043 -0.23450874 -0.2030432 -0.29462397
-0.16910295 -0.20387109 -0.25634256 0.207822 -0.0519027 0.12503956 -0.06265038 0.20962073

conv1.bias f4 [32]
00000000: f9d8 b1bd ca09 cebd 4309 c43e 66ae 4ebb
00000010: 8347 7abe 2637 4fbe b62f 273e 75fe 423d
00000020: 5e12 533e 5eb7 f4bc ff29 c43e 2553 f23c
00000030: 941e 5b3e 1213 af3d a915 c1be a3bf 67be
00000040: ebb6 b5be b6b2 ddbb 3831 91bb 6268 893d
00000050: c4dd c5bc e99d 0bbe ea1f 86be c53b 06be
00000060: 3b0f edbd d94a e03d 4835 b43e 179a 953d
00000070: 361d 18be b555 783e 049c a6be 8a4e 3c3e
-0.086839624 -0.10060461 0.38288316 -0.0031537055 -0.24441342 -0.20235881 0.16326794 0.04760595
0.20612475 -0.029872593 0.3831329 0.029580662 0.21398383 0.08548559 -0.37711838 -0.22631697
-0.35491118 -0.006765689 -0.004430916 0.067093626 -0.024153598 -0.13634457 -0.26196223 -0.13108738
-0.115751706 0.10951776 0.351969 0.07304781 -0.14854893 0.24251445 -0.32540905 0.18389335

bn1.weight f4 [32]
00000000: 82d3 683f 2f6a 8e3f e7b4 8c3f 2e68 663f
00000010: bd00 6f3f 6738 6c3f bde1 853f eddb 683f
00000020: f34f 873f 183c 8c3f 94aa 7f3f 6221 663f
00000030: 4b3f 663f d568 733f b96a 883f 83e4 893f
00000040: c067 6d3f 2fb8 6f3f 8de0 6d3f d270 6a3f
00000050: c893 6b3f 25b0 883f 4f48 8a3f 25e5 883f
00000060: 49b5 833f e4dd 6c3f c274 883f 6b9b 873f
00000070: 8612 773f d36c 8c3f 2734 703f 1914 883f
0.90947735 1.1126155 1.0992707 0.90002716 0.933605 0.92273563 1.0459515 0.9096058
1.0571274 1.0955839 0.99869657 0.8989469 0.8994033 0.95081836 1.0657569 1.0772861
0.92736435 0.93640417 0.9292076 0.915784 0.9202237 1.0678755 1.0803317 1.0694929
1.0289699 0.9252608 1.0660632 1.0594305 0.9651264 1.097071 0.9382958 1.0631133

bn1.bias f4 [32]
00000000: 1433 3ebe 15b3 c4bd 92d2 3abe 8ed9 5fbe
00000010: ee43 21be c732 46be 305e 0dbe 2aec 3fbe
00000020: 40d3 1fbe ab59 26be e75d d0bd f31a 43be
00000030: 3c45 e8bd cd2c 8fbd 0221 43be fde0 32be
00000040: ef78 43be f4fa f1bd b395 4dbe d4d6 54be
00000050: 9da3 19be 3f14 d5bd be69 30be fd64 1dbe
00000060: 4dca fabd f661 e6bd ac1e 16be fe89 5ebe
00000070: 91ea 97bd 296c e0bd 9abc 64be 3e8b 2abe
-0.18574172 -0.0960447 -0.18244389 -0.21860334 -0.1574857 -0.19355308 -0.13805461 -0.18742433
-0.15607929 -0.16245143 -0.101741605 -0.19053249 -0.113413304 -0.06990967 -0.1905556 -0.17468639
-0.19089101 -0.11815444 -0.20076637 -0.20785075 -0.1500382 -0.10404252 -0.17227837 -0.15370555
-0.12245617 -0.11249153 -0.14660138 -0.21732327 -0.07417787 -0.1095813 -0.22337571 -0.16654679

bn1.running_mean f4 [32]
00000000: 9193 0fc2 ab68 b441 5486 4042 3093 27c2
00000010: 79be 19c2 23e1 81c2 05f6 f841 e883 1bc2
00000020: 5103 1042 666e 1942 866d 05c2 6705 f1c1
00000030: f3b4 1142 8444 dcc1 fe60 0142 168c d641
00000040: 54b2 bcc1 60fa 66c1 a421 c2c1 3864 3fc2
00000050: 5d47 8641 4266 0c42 0e0f 2342 1a09 1542
00000060: 85d8 fc41 bfa5 f3c1 c80c 2642 2750 0542
00000070: 66a0 4fc0 6c8a 2442 defb b3c1 d7b8 1e42
-35.894108 22.551107 48.13118 -41.893738 -38.43601 -64.93972 31.120127 -38.878815
36.00324 38.35781 -33.356956 -30.127638 36.42671 -27.533455 32.34472 26.818401
-23.587074 -14.436127 -24.266426 -47.84787 16.784845 35.09986 40.7647 37.25889
31.605722 -30.45593 41.51248 33.328274 -3.244165 41.135178 -22.497982 39.680508

bn1.running_var f4 [32]
00000000: bb1d 7d44 ad55 cf43 b2e1 e444 a2d2 ac44
00000010: 8d6f 9444 3d08 4d45 1f6e 4144 a61f 9b44
00000020: 7843 7c44 e646 9444 bd36 5f44 cdd6 3244
00000030: 083e 8244 533d 1644 57e6 5144 f7ba 1344
00000040: ec26 d943 77c5 4343 618b ec43 8831 e344
00000050: 7516 6143 617f 7344 d966 a944 33b8 8b44
00000060: 8d26 4944 a49b 3a44 b8b9 a944 a606 5944
00000070: 1e21 8541 90e0 a744 fe06 c543 8870 9c44
1012.46454 414.66934 1831.053 1382.5823 1187.486 3280.515 773.72064 1240.989
1009.0542 1186.2156 892.8553 715.35626 1041.9385 600.9582 839.59906 590.9213
434.30408 195.77135 473.0889 1817.5479 225.08772 973.9903 1355.214 1117.7562
804.60236 746.4319 1357.8037 868.1039 16.64117 1343.0176 394.05463 1251.5166

conv2.weight f4 [64, 32, 3, 3]
00000000: c5e7 b73d fd37 843a f654 6e3d af32 163d
00000010: fce4 e7ba 2b81 61bc 25ef a63d 0151 823d
00000020: 9480 a8bc 16b4 c33d 06b4 f23d a8ff 213d
00000030: acb2 f23d 66ac a93d e738 ca3b 10ef 3f3e
00000040: d347 aa3d 0167 693d 0d45 1a3e fbae f53d
00000050: 3d06 b43d bd3b 033e 51ac 053e aa41 c63d
00000060: c210 e93d 03a0 8c3c d64b d63d 683d aabc
00000070: 263e a03d 06c0 a43d 00b2 c83c ce83 433d
00000080: 4ace 5f3c 14a6 193d a2d2 383c a1be bb3d
00000090: 36a5 d6bc e412 b93c 812f c23d 0750 b33d
000000a0: c743 b83d 01a1 143d d071 b43d b9b1 073d
000000b0: ad8b 08bc af88 cb3c a146 973d 50a2 6f3c
000000c0: 617f 4c3c 1f6e a53d 004b 2bbc ea6e ae3d
000000d0: 89c3 c33d fec0 743c 1139 163e d7f8 a83d
000000e0: 122e b83d ca67 873d 443b b43d 21f3 d33d
000000f0: 5b73 b23d 8948 373d a4c6 af3d 5b4b 003d
00000100: 9178 42bc 4ba0 163d 13cf 5d3b 4847 5d3d
00000110: 09c5 6a3d ec8a 6fbc b479 68ba 4587 823d
00000120: 338a 0f3e 32dc 833c 043a 113d 9851 433d
00000130: ef6b 933b 42c8 833d 83cb 573d bb23 a93d
00000140: 1595 083d fc5f e83d 179d d23d ebe6 cd3d
00000150: 117a 063e 768b 063e c5d1 733b aea8 8f3d
00000160: 98eb 103d 88c5 de3c 16ef 813c 2fca ec3c
00000170: abc8 8f3c 03ba 653d 43c4 c03d 9628 3d3d
00000180: 8173 7dbb f0f8 ae3d 855c 5f3d 7116 5abc
00000190: 769b 913d 6c86 cd3b 43a8 0ebc ef5d 603d
000001a0: b016 893d 4f77 5f3d bf7f 283d eddf 883d
000001b0: 0e88 6b3d 822d c73d a19d 813d 26b3 863d
000001c0: 8ee0 ab3d e0d2 073d c341 423d 0770 d139
000001d0: 7a80 c9bb 2381 003d 2765 4b3d 4424 473d
000001e0: c327 013d b5bd ce3c ef31 68bc 2225 473d
000001f0: ded2 403d 184c 133d 803f 893d 8fa9 ea3d
00000200: 63a9 3e3d 7971 0a3e b56b 3c3b d09f b23c
00000210: b433 ee3d ce3d d13d 6a0f 1d3d bee1 043e
00000220: afce 5f3d ae81 d9bb 0ffc 873d c121 863c
00000230: 1349 813d 63fa 053e 506a 043e ea04 343d
00000240: 88ba 533d 462d 893c fec4 923c cd9d ccbc
00000250: e7e5 86bc 26c1 b53d f021 7a3d 338a bebb
00000260: eaac 5d3b 62c7 d23c d754 6dba f8fe 693d
00000270: bf0e 2d3c e127 243b cac4 aabb 0c82 013d
00000280: c7c3 6f3c 47a4 4abc d688 423d 6c27 583d
00000290: 0221 34bc 9c24 d33b 9de5 b93c 1099 9b3d
000002a0: 507f 163c e4a5 a03d 7112 3b3d 1508 8c3d
000002b0: 75f1 aebc 4d29 1e3c e7fb e8bb a04b a23c
000002c0: 24f2 3cbb d43a 003d 794e 853d c68a 3c3d
000002d0: 0570 133c 00da b1bd 603e e7bc 4452 61bc
000002e0: 9ef5 333d 3d3e 3d3c 69ca aa3d e905 0a3d
000002f0: 16f4 a73d 904f c03d 396f ed3d 79c5 823d
00000300: af9b e63d b685 a03d bf84 7c3d a7db 973d
00000310: e2b4 433d f61a 723d a252 b43d 01fa ea3d
00000320: a80f 4a3d 6804 483d c4c9 e33d de87 3b3d
00000330: be09 af3d 5a7c 0b3d efee a43d a272 683d
00000340: d48a a23d fd75 123c 3527 ef3d 376a 063d
00000350: 323e 983c ac95 083e d6a0 313d 9388 803c
00000360: d85d bd3d b6f9 903c fae7 883c a972 0c3e
00000370: cc73 b03d 78d5 8c3d a8d1 d33d 3d89 703c
00000380: d2eb 583d 830c 443d fe0f 823d 7023 863c
00000390: fb03 473d 64d4 403d 4e50 4a3d db60 a8bc
000003a0: 3cf9 533c 0039 a93d 04b2 313d de92 d63d
000003b0: 5765 adbb 1110 e03d 984d aa3d 7126 9d3d
000003c0: b3cf ad3d 7ef7 eb3d a3b9 123c 6a81 113e
000003d0: 95b6 883c c3b9 54bc 1553 5d3d a212 353d
000003e0: 95a5 e23c ab6e ba3d 02e1 6e3d aa2e d23d
000003f0: e616 1dbe 3deb 1cbe af7f a5bd bd57 78bd
0.089797534 0.0010087487 0.058186494 0.03666943 -0.0017692144 -0.013763706 0.08151082 0.063631065
-0.020569123 0.09555833 0.11850743 0.039550453 0.11850485 0.082848355 0.006171334 0.18743539
0.08314481 0.056982998 0.15065403 0.119962655 0.08790252 0.12815757 0.13054015 0.09680493
0.113801494 0.017166143 0.10463683 -0.020781234 0.07824354 0.08044438 0.02449894 0.04773312
0.013660023 0.0375119 0.0112806875 0.09167219 -0.026201826 0.022592016 0.09481717 0.087554984
0.089973025 0.036286358 0.088107705 0.033128474 -0.008334083 0.02484545 0.07386518 0.014626101
0.012481541 0.080776446 -0.010454893 0.08517249 0.0955878 0.014938591 0.14670207 0.082505874
0.08993162 0.06611593 0.088003665 0.103491075 0.087134086 0.04474691 0.085828096 0.031321865
-0.011869566 0.03677396 0.003384535 0.054023057 0.057316814 -0.014620524 -0.0008868233 0.06373457
0.14017563 0.016096208 0.03545572 0.047685236 0.0044989507 0.064346805 0.05268432 0.08258768
0.0333453 0.113464326 0.10283869 0.1005381 0.13132502 0.13139138 0.003720389 0.07014595
0.03538093 0.0271938 0.015861075 0.028905002 0.01755174 0.056085598 0.09412434 0.046181284
-0.0038673582 0.08543575 0.054531593 -0.0133110145 0.0710973 0.006272128 -0.008707109 0.054777082
0.066937804 0.05455714 0.041137453 0.066833355 0.0575028 0.09725477 0.063288935 0.065771386
0.0839244 0.03316009 0.047425997 0.00039947053 -0.006149349 0.031373154 0.049657013 0.04861857
0.03153206 0.025236944 -0.014172061 0.048619397 0.0470761 0.03596124 0.06701565 0.11458122
0.04654826 0.13519849 0.0028750722 0.02180472 0.11630955 0.102168664 0.038344778 0.12976739
0.05464047 -0.0066377735 0.06639873 0.016373517 0.06312766 0.13083796 0.1293118 0.04395
0.051691562 0.01674522 0.017916199 -0.024977589 -0.016467048 0.08874731 0.06106752 -0.0058148145
0.0033824989 0.025729839 -0.00090534746 0.057127923 0.010562598 0.0025048184 -0.0052114474 0.031618163
0.014634079 -0.012368268 0.04749378 0.05277197 -0.010994198 0.006443573 0.022692496 0.07597554
0.009185627 0.07844141 0.045671884 0.06837479 -0.02135537 0.009653402 -0.007110107 0.019811451
-0.002883085 0.031306103 0.06509108 0.046030782 0.0089988755 -0.08684158 -0.028227985 -0.013752524
0.04393541 0.011550483 0.08339388 0.033697043 0.082008526 0.09390175 0.1159348 0.06385321
0.11260163 0.07838003 0.061650034 0.07414942 0.047779925 0.059107743 0.088048235 0.11473466
0.049331337 0.048832327 0.11122468 0.04578387 0.0854678 0.034054138 0.080533855 0.056749947
0.079366356 0.008939263 0.116774 0.032816138 0.018584345 0.13338345 0.043366276 0.015690124
0.09246415 0.017697196 0.016712178 0.13715614 0.086158365 0.068766534 0.10342723 0.014681158
0.05295927 0.047863495 0.063507065 0.01637432 0.04858778 0.04707755 0.04939299 -0.020553997
0.01293784 0.08262825 0.04338266 0.104772314 -0.0052916217 0.109405644 0.08315581 0.07673348
0.08486881 0.11521815 0.008955392 0.14209524 0.016688624 -0.012983742 0.05403431 0.044207223
0.027666846 0.091031395 0.058320053 0.10262807 -0.15340766 -0.15324111 -0.08080994 -0.06063055

conv2.bias f4 [64]
00000000: 6513 a43c 6506 86bd 8e5f 83bd fe8e 6cbd
00000010: 8b40 d53d e05f b53c 421d 77bd 6bd4 9e3d
00000020: 5127 183d 13a5 44bd 02fe dfbd 7027 8d3b
00000030: d114 ab3d cdfd 943c 1016 17bd d14a 17bd
00000040: e4e7 f33d 8e83 cabc f271 393d d5f7 4dbd
00000050: 3616 553d f179 433e 3a60 c93d 5b03 e6bd
00000060: 5415 0dbe ae5f 7d3d 9752 96bd b3d0 86bc
00000070: 5655 043e b6b4 793d abb6 fa3d 1c76 a0bb
00000080: 9909 c23d 0b1f c83d 3204 6d3d 3a74 7b3d
00000090: ffd8 88bd 60f9 51bb 5433 58bc 6ad4 6d3d
000000a0: 3ee0 20bb 0a16 1dbe 2443 f13d bb30 893d
000000b0: 9cc2 04be 9adf 153d 5aab b8bb b8d3 9d3d
000000c0: 151c 2a3c 9385 1dbd 4ed8 93bd 9a01 d53d
000000d0: 2aae c63d 3177 93bd 91e3 863c 9bc9 7b3c
000000e0: bdf4 f7bd 3605 023d ec37 053d bc07 493d
000000f0: 98a8 a73d fc1b 91bd a183 ca3d 6b94 b1bd
0.02002878 -0.065441884 -0.0641471 -0.057753555 0.10412701 0.022140443 -0.060330637 0.07755359
0.03714687 -0.04800899 -0.1093712 0.00430768 0.0835358 0.018187428 -0.036886275 -0.036936585
0.11909464 -0.024720933 0.045274682 -0.05028518 0.052023135 0.19089486 0.09832807 -0.11231109
-0.13777667 0.061858825 -0.073399715 -0.016456937 0.12923178 0.060963355 0.122418724 -0.0048968922
0.09474487 0.09771546 0.05786533 0.06139014 -0.06682014 -0.0032039508 -0.013195831 0.058063902
-0.0024547721 -0.15340438 0.11780384 0.06698748 -0.12964863 0.036590196 -0.005635661 0.07706398
0.010382672 -0.038457464 -0.07218991 0.10400696 0.09701188 -0.07200468 0.016465934 0.015367891
-0.12107227 0.03174325 0.032524034 0.04907964 0.081864536 -0.07085416 0.098883875 -0.086708866

bn2.weight f4 [64]
00000000: bf41 8b3f b2d5 843f 8be7 8c3f e997 893f
00000010: 5f8e 8b3f 068d 8a3f c1d3 7d3f 2068 8e3f
00000020: d5cb 883f 7a41 843f a513 633f bb38 8a3f
00000030: 0b09 823f 5a65 723f 83e2 623f 387a 873f
00000040: 4d4a 673f 16bd 853f 0e26 6a3f 5d13 7f3f
00000050: db05 863f 56c1 633f 5027 8b3f 1fd7 8c3f
00000060: f138 693f bc0e 853f 22bb 683f f33f 5d3f
00000070: c547 893f 3791 653f b305 7b3f 79a5 853f
00000080: 0492 663f 5239 793f 93fc 7e3f b2fa 8e3f
00000090: 6667 633f db86 883f 0eea 593f 58df 6e3f
000000a0: 0891 873f 8946 5f3f 2631 843f dcf3 923f
000000b0: ebee 903f 30d3 8f3f 4691 613f 9737 873f
000000c0: 1c93 8a3f 8b79 633f 20a6 783f 0e04 7e3f
000000d0: 790c 7f3f 8e1d 7f3f 90e1 8c3f 64a3 6f3f
000000e0: 0f72 823f 2873 693f d5ca 6b3f 80f6 793f
000000f0: 32ec 883f 16e0 683f a62f 943f 71d0 703f
1.0879439 1.0377715 1.1008161 1.0749484 1.0902823 1.0824287 0.99151236 1.1125526
1.0687205 1.0332482 0.8870185 1.0798563 1.015901 0.946859 0.8862688 1.0584173
0.9034775 1.044833 0.91464317 0.9963892 1.0470537 0.8896688 1.0871372 1.100315
0.9110251 1.0395122 0.9091054 0.86425704 1.0725027 0.89674705 0.9805557 1.0441123
0.9006655 0.9735309 0.9960415 1.1170256 0.8882965 1.0666155 0.85122764 0.93309546
1.0591135 0.87217003 1.0327499 1.148067 1.1322912 1.1236324 0.88112295 1.056384
1.0826144 0.88857335 0.97128487 0.99224937 0.99628407 0.9965447 1.1006336 0.9360869
1.0191058 0.9119134 0.9210637 0.97641754 1.0697081 0.9096693 1.1577041 0.94068056

bn2.bias f4 [64]
00000000: 497b 6fbd 7cde 8bbb 19aa 22bd f563 e5bc
00000010: a56c 833d d0cf a1bd 46e3 54bd 3edb babd
00000020: fa8c 80bd f29a 68bd 6c25 31be bf25 353c
00000030: f95d 06be f8a5 4dbe 9965 4dbe 1992 c5bc
00000040: 4ac9 78bd 512d 25bc 64fb aabd 9f2e dabd
00000050: 0e18 9b3d b449 dbbd 11f4 85bd 1b9e acbd
00000060: d509 e4bd 9e25 42bd 1e21 13be dd93 52be
00000070: 28a9 d7bc c3cb efbd b23e fcbd 1d13 2f3d
00000080: b775 3abe dc64 0fbe 1c3b 8ebd 9199 98bc
00000090: 7f17 f0bd 8093 4cbd 3bc2 0ebe 382c 28bd
000000a0: b4d0 1abd d002 a4bd d389 a03d 786c 583d
000000b0: a2f3 d4bc 1372 263d 16c0 a9bd 4f6e b7bd
000000c0: 6fc5 37bd 73e2 35be c580 3fbd ef41 9abd
000000d0: f8af 2ebd f47d 7bbd acc9 e9bc 4710 dfbd
000000e0: b274 07bd 6f1d 6dbd 0ced 31be 3a08 debd
000000f0: 5869 88bd 39d9 9fbd fd79 43bd bb13 febc
-0.058467183 -0.0042684656 -0.039713 -0.028001765 0.06417207 -0.07900965 -0.051974557 -0.091238484
-0.06276889 -0.056788392 -0.17299432 0.011056363 -0.13121785 -0.20082843 -0.20058288 -0.024117516
-0.06073884 -0.010081605 -0.0834873 -0.106534235 0.075729474 -0.10707417 -0.065406926 -0.08428594
-0.11134688 -0.047399156 -0.14368102 -0.20564218 -0.026325777 -0.11708786 -0.12316646 0.042742837
-0.18208967 -0.14003319 -0.06944868 -0.018627914 -0.117232315 -0.049945354 -0.1394128 -0.041057795
-0.03779669 -0.08008349 0.07838788 0.05283782 -0.02599508 0.040636133 -0.082885906 -0.089565866
-0.04486602 -0.17762165 -0.046753664 -0.07532107 -0.042648286 -0.061399415 -0.028538547 -0.108917765
-0.033070274 -0.0578894 -0.17375582 -0.10841413 -0.06660718 -0.07805104 -0.04772376 -0.031015268

bn2.running_mean f4 [64]
00000000: 6264 8040 e0b3 fb3f 307c 5440 c6bb 5e40
00000010: 4e01 8f40 2f60 6a40 4274 073f 5ff0 4140
00000020: 69a2 5440 a365 ec3f 6663 933f 0d17 3e40
00000030: 7519 2c40 d3e1 593f 0072 ebbf 4d5b 7b40
00000040: 42a9 54c0 495d 4d40 8bd2 84c0 bd7f c23f
00000050: 8457 8a40 d26d 34c0 23e5 6b40 8d47 0f40
00000060: 704a 37c0 c5f2 6840 6515 87bf 95f9 d1bf
00000070: f937 1640 e7fe 2ac0 c0fd a840 757a 8640
00000080: a470 f13d dad6 6040 716c 0b40 d559 4540
00000090: 0f3f 52c0 db06 9640 4589 75c0 4429 46c0
000000a0: 0414 ac3f 2e6a 81c0 26a5 9640 5dd3 3a40
000000b0: fc04 4040 af4a 1040 1b2d 91c0 7398 7a40
000000c0: d350 2140 b607 8c3f 2462 ff3f 807e 1d40
000000d0: 370b bc40 1900 eb40 d7be 8d40 130d a640
000000e0: 3cc8 663f 32e1 4fc0 1d5d 373f 5711 a240
000000f0: 86ad 8440 9fe1 70c0 8a42 5740 9707 36c0
4.0122538 1.9664268 3.3200798 3.4802108 4.4689093 3.6621206 0.5291177 3.030296
3.3224127 1.8468517 1.1514709 2.970157 2.6890538 0.85110205 -1.8394165 3.9274476
-3.3228307 3.2088187 -4.150701 1.5195233 4.323183 -2.819203 3.6858604 2.238742
-2.8639183 3.6398175 -1.0553404 -1.6404291 2.3471663 -2.671808 5.2809753 4.2024484
0.117890626 3.5131135 2.1784937 3.083608 -3.2850988 4.688337 -3.8365033 -3.0962687
1.3443608 -4.0442114 4.7076597 2.9191506 3.0003042 2.2545583 -4.536756 3.9155548
2.520558 1.0939853 1.9951825 2.460846 5.876369 7.343762 4.429546 5.189096
0.90149283 -3.2481198 0.71626455 5.0646167 4.146182 -3.7637708 3.3634362 -2.8442132

bn2.running_var f4 [64]
00000000: b8ef 4e42 f511 9f42 aba1 2a42 1e3a 3442
00000010: ef17 8d42 8d46 2b42 299a 5742 8358 4242
00000020: b250 6042 e418 6b42 9da5 7b40 0a6c 1842
00000030: 98e6 7e42 2378 0742 af3c 2642 dd1c 5842
00000040: 472d cd42 f019 8b42 35d0 7142 96b2 7642
00000050: 88d6 1b42 cabb 7442 d364 1842 cda6 8042
00000060: 9041 4a42 cdcc 8042 5cd9 6742 a3b0 9c42
00000070: 072e 5342 8ee6 7a42 b3d7 b641 6135 5f42
00000080: 2732 7e42 6e41 9e41 111f 7e42 fdd1 1642
00000090: 569c 7042 109d 8a42 7b34 8a42 fffd 4d42
000000a0: 3ac3 8242 e404 7442 4e95 de41 3017 0042
000000b0: f3af 1742 45fd be41 b9d5 a042 cc47 3642
000000c0: 21b6 7042 a37d 2a42 c9b8 6842 fa5b 5b42
000000d0: fdc7 1f42 bba6 ac42 5881 8742 99f6 0b42
000000e0: b011 4f42 4b9c 7842 d925 4442 4901 8a41
000000f0: 1a18 4442 3636 b642 abdb 0f42 5e6a 3d42
51.7341 79.53507 42.65788 45.056755 70.546745 42.818897 53.900547 48.586437
56.078804 58.774307 3.9319832 38.105507 63.72519 33.86732 41.55926 54.028187
102.58843 69.55066 60.453327 61.6744 38.959503 61.183388 38.09846 64.32578
50.564026 64.4 57.962265 78.34499 52.79495 62.72515 22.855322 55.802128
63.548977 19.781948 63.53034 37.705067 60.15267 69.30676 69.1025 51.498043
65.3813 61.004776 27.822903 32.022644 37.921825 23.873667 80.41743 45.570114
60.17786 42.622692 58.180454 54.83982 39.9453 86.325645 67.752625 34.990818
51.767273 62.15263 49.03696 17.250628 49.023537 91.10588 35.96452 47.353874

conv3.weight f4 [128, 64, 3, 3]
00000000: d190 b1bd aba3 b3bd 0053 c4bd 201d 9cbd
00000010: 4470 dabd 426f ecbd 333a f4bd 2d98 aebd
00000020: 30e4 54bd 1d87 89bd 9e8c dfbd 728b f2bd
00000030: dd88 6ebd 3d82 aebd 48b1 79bd a9af bbbd
00000040: a4f6 4abd 31f0 c4bd 750e 25bc b447 d9bc
00000050: d45f 92bd c88a e3bd 76a1 18bd f3c3 d7bd
00000060: b238 0dbe 20d8 86bd 65b0 38bd fa65 8abd
00000070: d078 98bc 0d0f 35bd 48b5 6dbd 8010 64bd
00000080: 22b5 aabd f55e 83bd 6cd1 c6bd f37c cdbd
00000090: b4b2 63bd f5a5 81bc 58b8 13bd d3d7 b6bd
000000a0: 8cf9 dabd 4c73 febc fe76 92bd 3f0e 5cbd
000000b0: 6c16 b8bd 10d3 eabd 2d41 3bbd 9525 14bd
000000c0: 3603 7ebd 1104 f6bc b523 7abd ec61 e6bd
000000d0: fc11 9abd 4ba9 34bd c0eb ddbd 31fb 95bd
000000e0: 2453 bd3b 3769 ddbd c017 b2bd 3ad7 09bd
000000f0: e85e c5bd c6b8 0dbd 8b86 c5bc 72cd b5bd
00000100: 45e2 c6bc 084b c2bd 9d8a 96bd bfd9 03bd
00000110: 085c b7bd 1129 05be 50c7 a6bd cf08 2cbd
00000120: 48cd 19bd b08e 70bd 0a1c acbc 6cc8 5dbd
00000130: c3be 9abd 03d9 98bd 112f acbd b125 edbc
00000140: 1b75 91bc 2ce9 ffbd 38a4 d2bd 5aed c8bd
00000150: abb8 77bd ab82 a4bd 2655 25bd a3d0 0ebe
00000160: 95c7 bdbd 7512 a2bd ed38 9b3c db57 2abd
00000170: 5b3e 2c3d 1ef3 c83c f33f 0c3d f309 443c
00000180: a8cd 443d e54c d83c 2e2c 7b3d d4be 85bd
00000190: ed54 bfbd a3c0 a5bd 8f36 93bd face 2fbd
000001a0: 47a5 b1bd e714 83bd 8624 bfbd 6d58 cdbd
000001b0: c6c9 d6bd 43d5 65bc ce9f 3abd 9b1c 11be
000001c0: 30cb 2bbd 8d5e 30bd ee33 78bd d9c7 adbd
000001d0: c2ae 54bd a213 573d fc1e c23d 5b1d f03d
000001e0: 645a a23d 4847 013e 9c61 963d fb40 713d
000001f0: 0b24 a93d 95b9 ae3d b782 893d f476 8dbb
00000200: 2cae 14bd 9eb9 cd3d bc5c 2d3d 8773 8e3c
00000210: 8615 8c3d dcc3 1b3c 99e5 0e3d 9047 eebd
00000220: b472 acbd 0e5d c4bd 332f 4fbd 80bf b1bd
00000230: 0d1c c4bd 82bb babd 5bc3 a0bd f5c2 30bd
00000240: af60 a7bd 835e 6ebc f80c ddbd 35bb afbd
00000250: 93e9 07bc 7e50 ddbd 9cdc e7bc 68bf 1ebd
00000260: a7bf d6bd ad66 76bd 58b9 bcbc e62c b7bd
00000270: b818 89bd ec8e 2bbd c154 9dbd 18c1 ddbd
00000280: 7645 b9bd a6c9 8dbd 9eab 1b3d 444e e2bc
00000290: d693 50ba d52f 873d 4b1f ad3d fe52 b43b
000002a0: be9f a53d ca9c d93c 0e2a a43d da4e b2bd
000002b0: d639 4fbd 4197 adbd b9bc a8bd e95f e6bd
000002c0: 18dc d6bd 3678 d7bd 512b 90bd 5d37 b4bd
000002d0: aef8 87bd 13f6 4dbd 757d 56bd 58ad afbd
000002e0: 97df cabd 8ce9 85bd 3113 e9bd 6786 53bd
000002f0: 3f97 c9bd 5bf0 0a3d df38 ba3c c89c 7d3c
00000300: 53c8 473d 43ea 5a3d f861 a13d 9fae ac3d
00000310: 9279 843d c84f f43c 1a04 42bd 7a7e 81bd
00000320: 4d9f b6bd 2f7f 30bd 5768 81bd 43a6 8abd
00000330: 5e4b 53bd 24da 7fbd a770 59bd 0349 60bd
00000340: 033c bdbc 9c85 0ebd 922a 5cbd ca8f 1e3c
00000350: fa66 0dbd f407 90bd f273 03bd f562 9cbd
00000360: 6a28 7d3d ed8b 863d 17d8 e83c 9535 263d
00000370: e8e8 783d 2f1f 133d e5b7 8d3d fd28 ae3d
00000380: de17 853d e66f 4dbd 6c34 c33b 5f17 9ebd
00000390: 749a 44bd 7c45 cebc 92af d2bc ca7e 21bd
000003a0: 6c45 ee3b 03a5 04bd 115a 10bc dc8f 8c3d
000003b0: a43a 1fbd 0195 343d e087 503d 1497 b93d
000003c0: d79a 003d 5d34 533d 8439 763d 9353 a3bd
000003d0: a0c9 85bd c06a 133d dcbc 1e3c cfa9 c33c
000003e0: af3a b43d 45d4 25bd bbab 803d 2a61 f83c
000003f0: 8e2e 97bd 4b78 88bd 0529 bbbd 82f8 74bd
-0.086702 -0.087714516 -0.095861435 -0.07622743 -0.10665944 -0.11544658 -0.11925163 -0.08525119
-0.05197543 -0.06715224 -0.109154925 -0.11843003 -0.05823599 -0.08520935 -0.060960084 -0.09164364
-0.04955162 -0.096161254 -0.010074248 -0.026523449 -0.07147184 -0.11110455 -0.037263356 -0.10535421
-0.13791159 -0.06584191 -0.045090098 -0.06757732 -0.018612295 -0.044203807 -0.05803421 -0.055679798
-0.083353296 -0.06414596 -0.09707913 -0.10033598 -0.055590346 -0.015826205 -0.036064476 -0.08927884
-0.106921285 -0.031060837 -0.07151602 -0.053724524 -0.08988652 -0.11466038 -0.045716453 -0.036168654
-0.06201478 -0.030031236 -0.06106921 -0.11249146 -0.075229615 -0.044106763 -0.10835981 -0.073233016
0.0057777334 -0.10811084 -0.08695936 -0.03365252 -0.096372426 -0.03460004 -0.024112007 -0.08877076
-0.024277816 -0.09486967 -0.07350657 -0.03219008 -0.089531004 -0.13003947 -0.081434846 -0.042000588
-0.037549287 -0.058729827 -0.021009464 -0.054146215 -0.07555916 -0.07463267 -0.08407415 -0.028948637
-0.017756036 -0.12495646 -0.102852285 -0.09810896 -0.060478847 -0.080327354 -0.040364407 -0.13946776
-0.09266583 -0.07913677 0.018948043 -0.04158769 0.042051654 0.02452999 0.034240674 0.011965263
0.04804769 0.026403854 0.06132143 -0.06530538 -0.0934237 -0.08093383 -0.071881406 -0.042921998
-0.08674102 -0.06400471 -0.09333138 -0.100266315 -0.10487704 -0.014027896 -0.045562558 -0.14171068
-0.04194182 -0.04305892 -0.0605964 -0.084853835 -0.051924475 0.052508958 0.09478566 0.11724349
0.07927397 0.12624848 0.07342836 0.05889986 0.08258828 0.08531491 0.06714385 -0.004317159
-0.036298916 0.10045169 0.042324767 0.017389072 0.06840043 0.009507146 0.03488693 -0.11634743
-0.084203154 -0.09588061 -0.050582122 -0.08679104 -0.09575663 -0.091177955 -0.07849761 -0.043154676
-0.08172738 -0.014548901 -0.10793489 -0.08580629 -0.0082954345 -0.10806368 -0.028303437 -0.038756758
-0.104857735 -0.060156513 -0.023037598 -0.089441106 -0.06694168 -0.041884348 -0.07682181 -0.10827845
-0.09046452 -0.06923227 0.038005464 -0.02762521 -0.00079565996 0.0660092 0.08453234 0.0055030575
0.08087109 0.02656402 0.08015834 -0.08706446 -0.050592266 -0.08476115 -0.08239121 -0.11248762
-0.10491198 -0.10520975 -0.07039512 -0.08799622 -0.06639229 -0.050283503 -0.05236574 -0.085779846
-0.09905928 -0.06538686 -0.113806136 -0.051641848 -0.09843301 0.033920627 0.022732196 0.015479274
0.04877503 0.053446066 0.07880014 0.08431744 0.064685 0.029823199 -0.047367193 -0.063229516
-0.08917103 -0.04309004 -0.06318729 -0.06769993 -0.051585548 -0.062463894 -0.05308595 -0.05475713
-0.023099905 -0.03479539 -0.053751536 0.009677837 -0.034522034 -0.07032767 -0.032092996 -0.07636062
0.06180612 0.065696575 0.028423352 0.040578444 0.06076899 0.03591841 0.06919841 0.08503912
0.06498693 -0.050155543 0.005957177 -0.077193014 -0.04799886 -0.025179617 -0.025718484 -0.039427556
0.0072714593 -0.03238393 -0.008810536 0.068633765 -0.038874283 0.044087414 0.05091083 0.09062019
0.031397667 0.05156361 0.060113445 -0.07974925 -0.065325975 0.035990477 0.009688582 0.023884682
0.088002555 -0.04048564 0.06282755 0.030319769 -0.073819265 -0.06663569 -0.09138683 -0.059807308

conv3.bias f4 [128]
00000000: 2b80 d73c 43bc 773d 4c97 79bc 2e5f 05bd
00000010: f447 23bc 34fe 7cbd a527 173d 6e4e bcbd
00000020: 4443 2bbb 2ebe a2bc dade 6ebd 0e71 7cbb
00000030: eab1 693b 8c2b 63bd 6f2d 8d3d c3eb db3c
00000040: 077c c9bd d5d9 ef3d f889 f7bb a8c9 e9bd
00000050: 9195 75bd 1bd2 c6bd 2c7a 7b3e eb43 26bd
00000060: abb4 1fbc 5045 0bbe 069d d03d 3616 7fbd
00000070: 2dbd 303e a4a8 72bd 5cd5 513c 6337 bd3d
00000080: 3447 90bd be50 343c e443 45bd 6250 d9bd
00000090: cd0f fb3b 8ba1 fc3d d166 95bd 97ba 913d
000000a0: 4cd3 6abe c488 093d 277f 223d 135c 023d
000000b0: f44b 393e 22f7 5d3d eb76 80bb 312b 98bd
000000c0: 0867 c7bd d24e 25be 0537 99bd 18cf 9ebb
000000d0: a6e1 d23d 4476 643d b262 afbc bc46 853d
000000e0: 6bc8 9bbd 6ee6 f4bd b7da 2cbd fc0d 123e
000000f0: a80d 4dbd eb91 cebd de17 74bc ea20 e33c
00000100: c21c 27bd 3b09 223d a7c0 1cbd 6898 663d
00000110: f98c 7b3d 1bbb 45bd dbc0 a13d 8cad 6e3d
00000120: aed9 a6bc d3a2 a5bd 33d1 3dbd 5daf 593d
00000130: eba0 cebd baf9 ff3c 5f25 c3bd 6b82 a6bd
00000140: 00d5 a53d b35c e43d 91fe a6bd ad7c 963c
00000150: 7748 973c 8703 d53d e6d5 ac3d d4e5 7b3d
00000160: 10ef b93d a6e0 27bd 4673 933d c5c1 e0bd
00000170: 962a 123e 5fef 463d 1694 503d 0dd7 59bd
00000180: c39c 80bd 03ca c0bc 2ac0 233d aa83 b6bd
00000190: 57ab 333e bb08 b63d 6273 ae3d 8362 873d
000001a0: 8fff 0dbb 53d3 78bd ea3d 0abe a902 4f3d
000001b0: 74bb b93c fd07 d63d 056e 51bd bc20 40bb
000001c0: 8f3c ccbc c58c 96bd f196 32be 54df 213d
000001d0: 707c f2bc 4edb 38bd 1326 b3bd 2207 8abd
000001e0: cd92 26bc d3c3 3e3d fd16 2f3d 53f8 0e3c
000001f0: 06a9 0b3e 89b4 623d 9f9e a73d 8dff 49bd
0.026306232 0.060482275 -0.015233826 -0.032561474 -0.009965885 -0.061765864 0.036903042 -0.09194647
-0.0026132623 -0.019866075 -0.058317997 -0.0038519534 0.0035659024 -0.05546145 0.068934314 0.026845818
-0.098381095 0.1171147 -0.007554289 -0.11415416 -0.05995709 -0.09708043 0.24558324 -0.040592115
-0.009747664 -0.1360066 0.101862 -0.06227704 0.17259665 -0.05924286 0.0128072165 0.0923908
-0.07044831 0.011005579 -0.04816045 -0.10611035 0.0076617957 0.123354994 -0.07295001 0.07115667
-0.22932166 0.033577695 0.039672043 0.03182609 0.1809538 0.054190762 -0.003920426 -0.07430113
-0.097364485 -0.16143349 -0.07481197 -0.004846465 0.10296945 0.05577685 -0.021409366 0.06507632
-0.07606586 -0.119580135 -0.04220077 0.14263147 -0.05006185 -0.100864254 -0.0148982685 0.027725656
-0.04079891 0.039559584 -0.038269665 0.05629769 0.06141374 -0.04827414 0.078981124 0.058270976
-0.02036747 -0.08087697 -0.046342086 0.053145755 -0.100892864 0.031247009 -0.09528612 -0.08130344
0.08097267 0.111504935 -0.081540234 0.018369997 0.018467171 0.104010634 0.084392354 0.061498478
0.09078801 -0.040985726 0.07199721 -0.109744586 0.14274058 0.048568126 0.050922476 -0.053183604
-0.062799 -0.023533827 0.039978184 -0.08911832 0.1754583 0.08888384 0.08518101 0.066105865
-0.0021667217 -0.06074841 -0.13500181 0.050539646 0.022672392 0.104507424 -0.051130313 -0.0029316386
-0.02493122 -0.073510684 -0.17440392 0.039519623 -0.029600352 -0.04513102 -0.087474965 -0.06739642
-0.010166836 0.04657347 0.042746533 0.008726197 0.13638696 0.055347953 0.081845514 -0.049315978

bn3.weight f4 [128]
00000000: 0b0b 493f 6d2e 4e3f 0fea 243f 546b 413f
00000010: cb21 4c3f 68f8 4a3f 1f6d 3c3f 49c3 363f
00000020: 09a2 5b3f 8491 353f 7581 3e3f 0f6a 3d3f
00000030: 3a8a 473f 026d 2d3f 2c12 5e3f 496a 483f
00000040: 1070 233f 5675 583f 6fcc 3a3f f453 2b3f
00000050: 6cd9 323f 0b43 453f 4e00 563f 0762 473f
00000060: 2a7e 3c3f 3361 4d3f dd45 423f 6d0f 3e3f
00000070: f7c8 4a3f dea7 453f 81c4 483f 565f 5c3f
00000080: 466c 2a3f 04ac 4b3f c4cd 2d3f 52a0 423f
00000090: 11e3 1e3f ff19 493f 96bf 2b3f 9bcd 3d3f
000000a0: c7fa 4f3f 99c3 443f c15c 423f a8bc 3d3f
000000b0: a074 343f 64f4 2a3f 2705 5b3f f160 273f
000000c0: 2f4b 443f 8bf4 3c3f de60 243f 2eb5 453f
000000d0: a195 3f3f 1224 1d3f dce5 273f a7c2 4c3f
000000e0: 5c94 4f3f 0990 483f 2575 2a3f 912b 4f3f
000000f0: ecef 2f3f d3bb 293f 664a 513f 5738 263f
00000100: b303 413f 54b4 3f3f 6eba 443f fb35 263f
00000110: 8336 423f ad72 313f d4ac 243f c7b5 3d3f
00000120: 5468 353f 4638 403f 9459 223f 3e75 313f
00000130: fa09 4e3f bbba 3e3f 297e 413f 017c 443f
00000140: 0247 3b3f 1e0e 473f d16e 5d3f 7b81 473f
00000150: 870f 303f 5d4d 473f cf88 323f d673 3c3f
00000160: 7d36 403f 279d 303f 495e 333f 7810 453f
00000170: be23 5d3f 95a9 2e3f 82b5 253f 03e9 483f
00000180: ccce 4e3f 4394 5c3f d6ac 5f3f b139 4d3f
00000190: 0ce3 4e3f b9ff 293f dfe1 343f 6404 473f
000001a0: 7bcd 523f c0d4 1e3f 1f01 2c3f 13a4 2e3f
000001b0: 275a 4b3f c7f5 3e3f b8ac 283f 7571 4f3f
000001c0: e60b 573f 7953 263f 9abe 5e3f d42b 4a3f
000001d0: a011 413f fd86 403f ac43 1d3f 2324 3b3f
000001e0: 8176 413f d066 1e3f 3e0c 4b3f e69c 453f
000001f0: ae6c 453f 83da 243f 229e 503f 1707 403f
0.78532475 0.8053959 0.64419645 0.75554395 0.79739064 0.7928529 0.73604006 0.7139173
0.8579412 0.70925164 0.74416286 0.7398996 0.7794529 0.6774446 0.8674648 0.7828718
0.6384287 0.8455404 0.7296819 0.6692498 0.6986301 0.77055424 0.83594215 0.7788395
0.7363001 0.8022644 0.7588785 0.7424229 0.792129 0.7720927 0.7842484 0.8608297
0.6657146 0.7955935 0.678921 0.7602588 0.62065226 0.7855529 0.6708921 0.74141854
0.8124203 0.7686096 0.7592278 0.7411599 0.70490456 0.6677916 0.85554737 0.65382296
0.7667722 0.7381064 0.6421031 0.77229583 0.7483769 0.61383164 0.6558511 0.79984516
0.81085753 0.7834478 0.66585 0.8092585 0.68725467 0.6630222 0.8175415 0.6492972
0.7539627 0.74884534 0.7684697 0.6492612 0.7586443 0.69315606 0.64326215 0.74105495
0.7086232 0.75085866 0.63417935 0.6931952 0.80483973 0.7450368 0.7558313 0.76751715
0.73155224 0.77755916 0.8649722 0.77931947 0.6877369 0.7785242 0.69740003 0.7361425
0.7508314 0.68989795 0.7006574 0.76978254 0.86382663 0.6822751 0.64730084 0.7848055
0.80784297 0.8616373 0.873731 0.80166155 0.80815196 0.66405827 0.7065715 0.77741075
0.8234479 0.6204338 0.6718921 0.6821911 0.79434437 0.74593776 0.6588855 0.81032497
0.8400253 0.6497112 0.87009585 0.78973126 0.7541752 0.75205976 0.61431384 0.73102015
0.7557145 0.6187563 0.79315555 0.77192533 0.7711896 0.6439592 0.8149129 0.7501082

bn3.bias f4 [128]
00000000: a4da 51be eae7 3dbe e802 7abe d28c 6cbe
00000010: c4ea 27be d50a 44be 2f09 83be d42e 4ebe
00000020: f8ec fbbd 0283 67be e073 82be c130 87be
00000030: e959 5fbe f083 6ebe f39b ebbd 796c 4bbe
00000040: b722 93be f6ce e2bd 0502 75be 4137 61be
00000050: 39b5 74be b2f0 6dbe a3fc 11be d00b 5fbe
00000060: 84e6 62be b853 64be 8b20 80be fe14 7fbe
00000070: 2af5 3cbe 630b 3ebe fe2d 83be f0f7 e0bd
00000080: 5def 72be a7e4 47be 7379 49be f706 6fbe
00000090: 3037 71be 3405 62be e98c 7abe 2bf4 a1be
000000a0: a81a 2dbe 24f9 69be cb87 8abe e350 8fbe
000000b0: 4aba 8abe 1d12 8dbe fabd 09be ecd8 74be
000000c0: 52a7 7bbe 94e9 94be d4f7 88be 103f 8abe
000000d0: b1cf 8cbe b018 90be ae89 83be a71d 48be
000000e0: b64e 34be 2dd1 5dbe 3b38 91be 8bf4 4ebe
000000f0: 4842 73be 5962 81be 6b57 28be 52bf 70be
00000100: 5c1e 8bbe 38e5 39be af18 6fbe 7211 73be
00000110: 228e 75be 44ba 56be 8390 2abe 4c3e 71be
00000120: 9d79 64be 066b 42be f0f4 77be f93a 49be
00000130: 734b 3ebe 6923 48be 37ea 7bbe ee89 61be
00000140: 981e 76be ef8f 6cbe 61a0 debd d0cf 61be
00000150: 10c9 60be ae12 61be 60f8 2fbe e3a3 43be
00000160: 59dd 7dbe f423 86be e791 55be 7cfc 6cbe
00000170: 37cd 01be 3498 4ebe c4e7 3ebe c5fe 76be
00000180: 93df 7abe 4e69 29be 4d34 d7bd 97ce 28be
00000190: 4393 41be 9dc0 2dbe d2c5 5ebe f52b 65be
000001a0: 4b2e 32be d867 68be 18be 5dbe 6d45 53be
000001b0: a4ca 52be de44 4abe 07ed 1fbe ef18 3ebe
000001c0: 2974 23be dd06 78be e088 f6bd 81ce 57be
000001d0: a243 74be 4701 7dbe 5233 74be 1832 8abe
000001e0: 8588 88be 0602 5dbe 7282 2bbe 570c 6bbe
000001f0: 1166 80be 1159 80be acb7 39be f04f 87be
-0.20493561 -0.185455 -0.24415171 -0.23100594 -0.1639815 -0.19144757 -0.25592944 -0.20135051
-0.123010576 -0.2260857 -0.2547903 -0.26404384 -0.21811642 -0.23292518 -0.11504354 -0.19865598
-0.28737423 -0.11074631 -0.23926552 -0.21993734 -0.23897256 -0.23236349 -0.1425653 -0.2178185
-0.22158247 -0.22297561 -0.25024828 -0.24910352 -0.18452898 -0.18559031 -0.25621027 -0.1098479
-0.23724122 -0.19520818 -0.19675235 -0.233425 -0.23556209 -0.22072297 -0.24467815 -0.31631598
-0.169047 -0.22848946 -0.27056727 -0.279914 -0.27095252 -0.27552882 -0.13451377 -0.23910874
-0.24575546 -0.29084456 -0.26751578 -0.27001238 -0.27502206 -0.28143835 -0.2569098 -0.19542561
-0.17608151 -0.21661825 -0.28363213 -0.20210473 -0.23755753 -0.25270346 -0.16439597 -0.23510483
-0.271716 -0.18153846 -0.2334926 -0.23737124 -0.2398 -0.20969492 -0.1665669 -0.2355892
-0.22312017 -0.18986139 -0.2421453 -0.19651403 -0.18583469 -0.19544758 -0.24601065 -0.22025272
-0.24035108 -0.23101781 -0.108704336 -0.2205193 -0.219517 -0.21979782 -0.17184591 -0.19105487
-0.24791469 -0.26199305 -0.20856439 -0.2314319 -0.1267594 -0.20175248 -0.18643099 -0.24120624
-0.2449935 -0.16544077 -0.105080225 -0.16485058 -0.18903832 -0.16968007 -0.2175515 -0.2238005
-0.17400472 -0.22695863 -0.21654546 -0.20631953 -0.20585114 -0.19752833 -0.15617763 -0.18564199
-0.1596228 -0.24221368 -0.120378256 -0.21074869 -0.23853925 -0.24707519 -0.23847702 -0.26991343
-0.26666656 -0.21582803 -0.1674898 -0.22953926 -0.2507787 -0.25067952 -0.18136472 -0.26428175

bn3.running_mean f4 [128]
00000000: 33ab 98c0 c6ab 12c1 b79b d9bc ee43 7ec0
00000010: 473c 4c3f ab36 56c0 154f dfc0 ede2 7340
00000020: ca9b c7c0 4385 9b40 101b 023f be77 adc0
00000030: aff5 e1c0 3108 aebd 0526 1fc0 b8db 8dc0
00000040: 984c 18bf d009 84bc cea6 28bf ee5d de3f
00000050: fe79 2e40 a793 26c0 c1e4 2dc0 9a1b bec0
00000060: b5c2 9940 ff58 ebbf 7325 bdc0 acb4 bac0
00000070: fc90 05c1 dd34 bc40 8671 94c0 7441 d340
00000080: 4e01 eb3f 3699 36c1 9872 bb3d 92ea 06c1
00000090: 4252 e33e 9f31 94c0 21cb c640 86f8 92c0
000000a0: 5e32 08c1 8ede 01c0 33ec b9c0 2eb1 05c0
000000b0: c59c 52c0 b40b e83f 7fd3 d9be 76a5 2c40
000000c0: 5910 a7c0 288f 1dc0 438f aa3f e227 dcc0
000000d0: 9f00 5dc0 e37d 1640 a64f 8640 2070 f6c0
000000e0: 9c4b a53f c87e 76c0 5df2 c13e b0db edc0
000000f0: 12c8 0e40 28ad c23f bfc0 c2c0 d646 ed40
00000100: 96d8 b1c0 c2ea 49bf b884 65c0 9120 b840
00000110: af03 dec0 b82a a440 8eb7 f440 69b9 87c0
00000120: 80d3 dbbf e8b4 6bbf 2d2e 29c0 e7f9 38c0
00000130: d443 e9c0 9dda a1bf 5e38 b5c0 aca2 1cc0
00000140: 4ea7 c5c0 168f fbc0 e23b 9fc0 425f 84c0
00000150: b230 973f 997a 96c0 d67d c340 e6ef 1c40
00000160: 1043 b0c0 b635 10c0 ca70 90bf 39bc edc0
00000170: f900 97c0 1eda e33f 2b5d fa40 ca85 83c0
00000180: 5485 a4bf 3ed5 6540 1664 8ec0 97c2 4bc0
00000190: c21b e7c0 287a de40 b3ed 21c0 52ea e5c0
000001a0: b4ba e7c0 71cc 9e40 3664 05be b00a 2640
000001b0: 9c56 a8c0 14a3 a8bf a26d b440 aea3 efc0
000001c0: 8681 ecc0 99bf a740 384f 93c0 114a 58c0
000001d0: 2e71 afc0 1eb4 a0c0 4f8b b440 ae4c b7c0
000001e0: db6c c4c0 9478 f940 a92b 29c1 2224 92c0
000001f0: 6370 8fc0 ee77 db40 8649 f9c0 450d a4c0
-4.7708983 -9.166937 -0.026563508 -3.972896 0.79779476 -3.3470867 -6.9784036 3.8107255
-6.237767 4.8600173 0.50822544 -5.420867 -7.0612407 -0.08497656 -2.4866955 -4.433071
-0.5949187 -0.01611796 -0.65879524 1.7372415 2.7261958 -2.602762 -2.717087 -5.9408693
4.805018 -1.8386534 -5.9108214 -5.8345547 -8.347897 5.881453 -4.638858 6.60174
1.8359773 -11.412405 0.091527164 -8.432268 0.44398695 -4.6310573 6.212296 -4.5928373
-8.512297 -2.0292087 -5.810083 -2.0889392 -3.2908185 1.8128572 -0.4254417 2.697599
-5.2207456 -2.4618626 1.332497 -6.8798685 -3.453163 2.3514335 4.1972227 -7.701187
1.2913699 -3.851488 0.3788022 -7.4330673 2.2309613 1.5209093 -6.0860286 7.414897
-5.5576887 -0.78873837 -3.5862255 5.7539754 -6.9379497 5.1302147 7.6474066 -4.241383
-1.717392 -0.92072916 -2.6434433 -2.8902528 -7.28953 -1.264484 -5.6631308 -2.4474287
-6.176673 -7.8612165 -4.97606 -4.136628 1.1811736 -4.7024655 6.109111 2.4521422
-5.5081863 -2.2532783 -1.128442 -7.4292264 -4.7188687 1.7800939 7.823873 -4.1100817
-1.2853189 3.5911403 -4.4497175 -3.1837518 -7.2221384 6.9524117 -2.530133 -7.1848536
-7.241541 4.962456 -0.13026509 2.5944023 -5.2605724 -1.3174767 5.638383 -7.4887304
-7.390811 5.2421384 -4.6034203 -3.3795207 -5.482566 -5.021987 5.6420054 -5.7281103
-6.138288 7.795969 -10.573159 -4.5669107 -4.482469 6.85839 -7.790225 -5.12662

bn3.running_var f4 [128]
00000000: 26cf 8543 72c2 0144 a7f1 2043 4a9f 3e43
00000010: cc5c da41 cce2 1b43 afdc a943 d3db 4c43
00000020: e7c5 6e43 7b55 2343 591f 3342 2fdb 8b43
00000030: fa6d ab43 fc3b dc41 3338 6243 ac5a 5943
00000040: 0d51 b842 9213 4d42 633a f442 f89a 4a43
00000050: 9287 3f43 5cb7 4f43 3375 9543 d863 8f43
00000060: ed38 6643 ca20 c742 ba7a 9543 2d9b 9243
00000070: 8bef fa43 65be 9443 330c 6543 7ec6 ce42
00000080: 1f0d 0a43 43f4 2a44 a321 8b42 fbfb e643
00000090: 0235 1e43 b16b 7d43 e797 7e43 6653 6a43
000000a0: 45e6 c343 74ad 0143 6892 8c43 2e93 4f42
000000b0: ce68 1a42 ffeb 1443 f244 b841 6e31 2d43
000000c0: bf56 4c43 7020 a042 28df 7442 4817 b343
000000d0: b5ad 7d43 9154 3c43 e937 3443 35a4 c643
000000e0: 4374 7242 9ae4 4e43 94aa c442 d9e5 b943
000000f0: 67d2 2843 c19a fb42 a69a f743 1fb9 5443
00000100: ef92 9743 4c76 8e41 f558 2843 12b2 2243
00000110: 9b66 b443 e1c9 4443 9254 eb42 f72c 6843
00000120: 9f0e 3c42 187b 0142 3eb1 5342 0c26 3542
00000130: 9aeb b343 4cf3 0542 5fa5 8a43 d69b 3843
00000140: 5940 a343 63af b843 6add bd43 b01f 1f43
00000150: 4acd e842 4dff 7d43 f9cd bb42 76df 3343
00000160: a00e 8643 b0e6 0842 cd52 0243 3cab b843
00000170: 1fcf 7043 1c90 1c43 8914 1b43 94e8 5243
00000180: 522b ee41 e6e6 5643 31dd a943 179d ad42
00000190: a86b ba43 bc54 7642 1f07 d842 9eab b843
000001a0: 5e3a b343 9c47 3743 e83f c641 3c13 9642
000001b0: cda5 8643 7c53 1d42 136a 2342 fe6e b643
000001c0: c220 8243 5a08 3043 0d01 b242 3ab6 4143
000001d0: 04cd 9643 ed39 8343 5c2b 2b43 a45a 9e43
000001e0: e7da b343 4e0d 2143 e1de bc43 d0f5 5343
000001f0: 234b 9343 debb 7c43 adef a643 6312 7f43
267.61835 519.0382 160.94395 190.62222 27.295311 155.88593 339.7241 204.85869
238.77306 163.33391 44.780613 279.71237 342.8592 27.52929 226.21953 217.35419
92.1583 51.26911 122.11404 202.60535 191.52957 207.71625 298.91562 286.78003
230.22237 99.56404 298.9588 293.2123 501.87143 297.48746 229.04765 103.38768
138.05125 683.8166 69.5657 461.9686 158.20706 253.42067 254.59337 234.32578
391.79898 129.67755 281.1438 51.89373 38.60235 148.92186 23.033665 173.19308
204.33885 80.063354 61.217926 358.1819 253.67854 188.33034 180.2184 397.28287
60.613537 206.89297 98.33316 371.7957 168.82188 125.80225 495.2082 212.72313
303.14792 17.807762 168.34749 162.69559 360.8016 196.78859 117.66518 232.17564
47.01428 32.37021 52.923088 45.287155 359.84064 33.487595 277.29196 184.60873
326.50272 369.3702 379.7298 159.12378 116.400955 253.99727 93.90229 179.8729
268.11426 34.22528 130.32344 369.33777 240.80907 156.56293 155.08022 210.90851
29.771152 214.90195 339.72806 86.806816 372.84106 61.58275 108.01391 369.34076
358.456 183.27972 24.781204 75.03757 269.29532 39.331528 40.85359 364.86713
260.25592 176.03262 89.00205 193.71182 301.60168 262.45255 171.16937 316.70813
359.71017 161.05197 377.74124 211.9602 294.587 252.73386 333.87247 255.07182
